python model Testing/Training/best_points_model.pt (torch, 58552 bytes, 7 tensors)

fc1.weight f4 [128, 26]
00000000: 3ad8 a13c 044f 77be e975 b5be a693 fe3e
00000010: 5704 303d c80f 63be 2517 d73d 110e c43b
00000020: ec8b 1bbf 47a0 943e 098e 08be 0d36 523d
00000030: d76d 03be ceb3 433e 90f1 473c b9c0 4bbe
00000040: 66ef 2b3d 8614 81bd ac19 d0bb 8959 283e
00000050: 135b 483c 1faf 7dbe fd6b 373e c2a6 4d3e
00000060: b9fe 65bd 14d8 063f 8ffc 22be 9b3b dcbe
00000070: 58d1 cebd 13ef 5d3e 6a9d 053e 21e7 53bd
00000080: 805c ee36 8332 dfbc b2c3 e8be 2b32 4f3e
00000090: c30e 53bd 2832 e4bc 5aef 513d 9e1e 3f3e
000000a0: 7c67 65bd 6618 55be 2498 783d b242 cebd
000000b0: 6336 37be 73b7 773e 410a 03be 790e b93d
000000c0: 2fb6 013f a0a3 99be 299e 71be 1b85 353e
000000d0: 1bd8 733c bf50 fdbc 59ae 6e3d 1b78 25be
000000e0: 6d87 01bd 2c67 0dbe 9fe8 8b3d 30d2 cebc
000000f0: 643b dfbc 48c6 e13c 1dc7 db3b 69a4 73bc
00000100: 9577 40be 7e58 81bd ee25 123d cc76 543e
00000110: 209a d33b 8816 b2bb ba3a 863b f8a1 debd
00000120: aa5f 1bbc f79c 18bd ab29 c6bd ec67 a83d
00000130: b724 903b 815b 053f ba51 b2be 2edb 5b3c
00000140: afd4 f83d ade4 ea3b cc14 adbe f5ad 38be
00000150: 147f 293c d73c 4fbd d80d e3bd e1fd ed3b
00000160: e5bb 4c3e f460 773e 90d1 2bbe 4d11 c1bd
00000170: efa6 8abe bdf5 93bd 8d4b 133e 2127 293c
00000180: 94a5 c2be 8cb5 073e 6fc3 123e e1d8 b23e
00000190: cbaa 51be 1e91 83be c01a 7c3c 24d6 873e
000001a0: 95fd f33d ee6b 893d 731e d6bc 97ca 303e
000001b0: fdc3 5e3d 3b4e a0bd 5442 e63d 0905 17bd
000001c0: 5a52 543e cd05 08be f4e3 293e 900c 713d
000001d0: 5c04 843c 3100 abbd ce66 293e 25e2 d7bc
000001e0: 0bc8 12be 09b1 81bd 809c f43d d5d4 9ebc
000001f0: 5f27 83bd abc5 76be 4077 4dbe 427f 813e
00000200: d12f 3fbe 0dbd 12bf eb72 bc3d 5896 803e
00000210: 769c 9b3e aa71 2fbe 27fd b6bd d831 3dbd
00000220: aa4b 3539 4515 f73d d3f3 193e 0f34 583d
00000230: 0d0f 5bbe f0dd 4f3e 105e 48bd 30fa 3dbe
00000240: dedc 7a3d af9d c1bc f66e 3fbc c19d 7c3e
00000250: 5fdd 7c3d d5fe 803d 8e2d 583e 853f d0be
00000260: f585 45bd f29d ee3d 450d 7e3c 2ca2 16bf
00000270: abdc 063e 9262 ebbd d68e 293e 745b 483e
00000280: ad38 95be 39c9 b3bd 99ab bb3d 4edf 96be
00000290: d12c 393e ca8c b3be 1c8d 80bd a48a 853e
000002a0: 26e3 38bd b54c 98bc 248b 893d 8192 78be
000002b0: aef5 76bd bdd4 a5be 853e c63e 582d f8bd
000002c0: c850 75bd 768e 38be e5a5 1a3e 8b4b 9e3e
000002d0: d044 0b39 89c1 9cbd c44d d33d 82b9 b93d
000002e0: b7d5 c33e e5ee 103e e50c 0e3d df1d a8be
000002f0: 8036 b63b e8a5 473d 34f9 5abe 80b4 87be
00000300: 51f9 f93d 4037 a03d cd68 dcbd 8e1e cc3d
00000310: 0963 403d 646b 493e 18e8 db39 7e34 9c3d
00000320: 41a4 4a3d e379 78be 53f1 dabe 2289 963d
00000330: 2a8d e8bd 4c0e 3a3e c818 e2bd 8135 58be
00000340: 42d4 93bd 373c 363e 6478 a93e 7c72 4ebd
00000350: 0c50 8e3d e45a 133e ed5b ed3c 4b43 053e
00000360: 2fb7 20be 4c17 8ebd a39b e6bd 422a 98bd
00000370: 2f78 8d3c 4030 0abe 60ac 513e c096 a7bd
00000380: 4e2f 033b b4ed fe3d 854d 143d 0eea 98bb
00000390: ca6b 50be 98a4 973e fed9 423e 6c65 11bf
000003a0: 6132 4fbe 37a9 8fbe 10bd fabd 025d 943d
000003b0: e9dd 13be 7bdb 8f3d ff53 7d3d 6397 4c3e
000003c0: e454 593d fb38 85bd bf60 2bbd 172d 3d3d
000003d0: 3e54 14be bc20 8c3d f885 a2bd 4c85 8ebe
000003e0: 4ced 0dbe 6e6a 153e f87d a33b 3c94 d7bd
000003f0: 5c70 12be e843 f43c 0b13 0dbd 8538 153f
0.019756425 -0.24151236 -0.3544152 0.49722022 0.04297289 -0.22173989 0.10502461 0.005983122
-0.6076038 0.29028532 -0.13335432 0.051321078 -0.1283487 0.19111559 0.012203589 -0.19897737
0.041976355 -0.06302743 -0.0063507166 0.16440405 0.012228745 -0.24773835 0.17912288 0.20083144
-0.056151126 0.5267346 -0.15916656 -0.43014225 -0.10098523 0.21673231 0.1304833 -0.051734094
7.103721e-06 -0.027245766 -0.45461804 0.20233981 -0.05152775 -0.027855948 0.051253654 0.18664023
-0.056006894 -0.20810089 0.060691968 -0.10071315 -0.1789184 0.24191074 -0.1279688 0.090359636
0.50668615 -0.30007648 -0.2359549 0.17726557 0.0148830665 -0.030922292 0.05827174 -0.16159098
-0.031623293 -0.13808888 0.06831478 -0.02524671 -0.02725 0.027560368 0.0067070858 -0.014870741
-0.18795617 -0.06315707 0.035680704 0.20748442 0.006457582 -0.005434815 0.004096356 -0.10870737
-0.009483257 -0.03725907 -0.09675916 0.082229465 0.004398908 0.5209275 -0.34827977 0.013418956
0.12149941 0.0071683736 -0.3380493 -0.1803511 0.010345239 -0.05059513 -0.11086625 0.0072629307
0.19993551 0.24158078 -0.1677916 -0.09427128 -0.27080485 -0.07224605 0.14384289 0.01032427
-0.3801695 0.13252848 0.14332364 0.3493109 -0.20475309 -0.25696653 0.015387237 0.26530564
0.11913601 0.06710039 -0.026137566 0.17264782 0.054386128 -0.07827421 0.1124312 -0.036870036
0.2073454 -0.13283463 0.16590863 0.05884987 0.01611536 -0.08349646 0.16543123 -0.026352951
-0.14334123 -0.06332595 0.119439125 -0.019388596 -0.06403994 -0.24098842 -0.20065022 0.25292403
-0.18670584 -0.5731972 0.09201606 0.25114703 0.30392808 -0.17133203 -0.08935004 -0.046190113
0.00017289692 0.12064604 0.15034418 0.052784022 -0.2139246 0.20299506 -0.04891783 -0.1855247
0.06124579 -0.02363476 -0.01168417 0.24669553 0.061734553 0.06298605 0.21111128 -0.40673462
-0.048223455 0.116512194 0.015506093 -0.58841205 0.13170116 -0.1149341 0.16558394 0.19566137
-0.29144803 -0.087786146 0.09163589 -0.29467243 0.18083502 -0.3506835 -0.062769145 0.26082337
-0.0451385 -0.018591264 0.06715992 -0.24274637 -0.060292892 -0.3238887 0.38719574 -0.12118024
-0.059891492 -0.18023095 0.15102346 0.3091701 0.00013281708 -0.076541014 0.10317567 0.09068586
0.3824899 0.14153631 0.034680266 -0.3283529 0.005560696 0.048742205 -0.21384126 -0.26504898
0.122057565 0.07823038 -0.10762177 0.09966765 0.046969447 0.19669873 0.00041943858 0.076271996
0.04947305 -0.24265246 -0.4276224 0.07350375 -0.1135505 0.18169516 -0.11039883 -0.2111416
-0.07218219 0.17796408 0.33099663 -0.05040215 0.069488615 0.14390141 0.028974498 0.13013951
-0.15694879 -0.06938037 -0.11260154 -0.07429935 0.017269222 -0.13494968 0.20475912 -0.0818305
0.002001721 0.12447682 0.03620674 -0.0046665734 -0.20353618 0.29617763 0.1902847 -0.5679538
-0.20234062 -0.28058788 -0.12243092 0.07244302 -0.14440121 0.070242845 0.061847683 0.19979624
0.053059474 -0.06505009 -0.04184031 0.04618558 -0.14485261 0.06842181 -0.07935709 -0.27836072
-0.13860053 0.14591381 0.004989382 -0.1052632 -0.14300674 0.029817536 -0.03444199 0.58289367

fc1.bias f4 [128]
00000000: 5c6e a7bd 61cf 14bf d791 f43e f668 c2be
00000010: 611c 00bf 2a1f 02bf 4304 4abf 0423 1dbf
00000020: 8505 65bf f803 9dbe 6e4a c2be 39c2 033e
00000030: 15e3 8fbf 62b4 9a3e 3241 9abe a45a 82bf
00000040: 5b29 743d 8dd5 14bf d0db 91be a426 12be
00000050: 2726 5fbf 71ff 79bf bf13 5ebf 90c6 6abf
00000060: cf9c bdbf 943a 8e3e 6495 e5be abcf 54be
00000070: f466 44bf 7996 f0be 5a16 0d3e da7c b4be
00000080: 7b97 e2be 3c9b 62bf 62bb 76bf 89e9 5ebf
00000090: b8a5 cdbe cfd0 34bf c8a7 0bbf ea65 6cbf
000000a0: bac6 06bf 7556 48be 64d3 fabe 1fa2 26bf
000000b0: e2b9 e9be e056 893e 57ed 3cbf e2cf d1be
000000c0: 2f52 3ebf 50fb 18bf 813f 77be 1f3b f7be
000000d0: 0186 55be 7516 ecbe 8c7c 24bf 9808 84bf
000000e0: 5f52 08bf 6044 26bf 3e02 12bf 8bca 3dbf
000000f0: 947c 36bf 1d69 04bf b1e5 193e fb31 54bd
00000100: 324a 68be e7ac aabf 3d94 383e 116e 0fbf
00000110: 9fa9 19bf 7792 23bf 415a 3fbf c9d0 22bf
00000120: 4845 2dbf 8087 75bf f72e 60bf 0f5d 08bf
00000130: 9a24 05bf 8d12 453e a91e ffbe 89c4 6cbe
00000140: 1588 943e 5eda 3ebf 157a 9ebe 3934 4cbf
00000150: 7257 32bf 9865 fbbe b5a6 53bf 9924 3abf
00000160: b108 2dbf 82d7 48bf d05a dfbe ee87 66bf
00000170: e270 10bf 5e8a eebe 39e8 83bf 5734 54bc
00000180: 512b 44bf 6883 d5be a965 c3bd 1bda 46bf
00000190: 29c3 26be f4ae f83e 7c0d 25be 60a9 55bf
000001a0: 51b8 82be 2a88 72bf 3239 87bf 5f1e 08bf
000001b0: 097b 22bf c4cc 54bf bdae 4bbf 53eb ad3d
000001c0: 9bdd cabe eda2 0bbf 64ee 27bf f4be 3e3e
000001d0: bb2a a23e 64f6 02bf ff34 4dbe dbaf 45bf
000001e0: 661d 48bf 2f1b a2bf b596 85be 8c6b dabe
000001f0: 2d9b abbe 4f9a 323e 82cf 26bf c6dd 72bf
-0.08175346 -0.58128935 0.47767517 -0.37970704 -0.500433 -0.508288 -0.7891275 -0.61381555
-0.8946155 -0.3066709 -0.3794741 0.12867059 -1.1241175 0.30215746 -0.30127865 -1.0183911
0.059609752 -0.5813835 -0.28488016 -0.14272553 -0.8716759 -0.976554 -0.8674888 -0.9170923
-1.4813479 0.27779067 -0.44840539 -0.20782344 -0.76719594 -0.46989802 0.13778058 -0.35251504
-0.44256195 -0.8851812 -0.96379673 -0.87075096 -0.40165496 -0.70631117 -0.5455289 -0.9234301
-0.5264698 -0.1956423 -0.48989403 -0.6509113 -0.4564963 0.26824093 -0.7379965 -0.40978914
-0.7434415 -0.5975847 -0.24145319 -0.48287293 -0.208519 -0.46110883 -0.64252543 -1.0315123
-0.5325069 -0.6494808 -0.5703467 -0.7413718 -0.7128384 -0.5172289 0.15029027 -0.051805478
-0.22684553 -1.3334016 0.18025298 -0.56027323 -0.60024446 -0.6389536 -0.7474709 -0.6359983
-0.6768384 -0.9590988 -0.8757166 -0.53266996 -0.52008975 0.19245358 -0.4982808 -0.23121847
0.29010072 -0.7455195 -0.30952516 -0.79767185 -0.6966468 -0.49100947 -0.8267625 -0.72712094
-0.6759139 -0.7845384 -0.43623972 -0.9005116 -0.56422246 -0.4658994 -1.0305244 -0.012951932
-0.76628596 -0.41701818 -0.095408745 -0.7767655 -0.16285385 0.4857098 -0.16118425 -0.8346157
-0.25531247 -0.9473902 -1.056433 -0.5317134 -0.63468987 -0.8312495 -0.79563504 0.0849215
-0.39622197 -0.5454548 -0.6559813 0.1862753 0.31673226 -0.5115721 -0.20039748 -0.7722146
-0.7816986 -1.2664546 -0.26091543 -0.42660177 -0.33516827 0.17441677 -0.6516038 -0.9486965

fc2.weight f4 [64, 128]
00000000: 4f8b d7be e109 ae3e b3c3 5dbf fed6 e2be
00000010: b0b5 d33d 1088 a53d 1d74 24bd 183c d8bc
00000020: 29ea 113e e587 d7bd ae91 babe dceb 8ebf
00000030: 9274 9fbe 3764 90bf b298 e33d d1d6 973d
00000040: 9b1e 243d 1520 acbc 3043 2cbb 37bd ecbe
00000050: b110 43be d5db b43e f278 9c3d 5847 33bf
00000060: c1e8 e6be ed8c de3d b4db a23c 7ba5 ccbd
00000070: 44d3 c13e 13f1 3d3e f869 34bd 4e81 033e
00000080: d559 a63c aa29 d9bd 6850 893f 6d95 8bbf
00000090: dbb1 12bf 7741 9e3c 1900 a9bd 23db 843c
000000a0: 6dd0 89bf f7f6 2dbf fcdc 22be b85b 1f3e
000000b0: be16 89be fe75 9dbe 790a 0ebc 18a1 33bf
000000c0: d9f4 683d 3301 0f3e 78df 88bf 6650 4ebf
000000d0: b61e 50be 81ef a6be 10f1 95be 5ab0 c9bd
000000e0: 0856 c43d f50d e43d 1cb2 babf 1f8d af3d
000000f0: 9468 24bd 8ca6 303b ab0b 04bd 4be0 b03d
00000100: ecc7 bebf 7b7e b33c b175 203d 5a48 9c3d
00000110: ee22 ad3c 0201 86be 5271 6e3e 63b8 61be
00000120: 84e6 583e f9ff 3f3e bee7 503e 0fcd 3dbd
00000130: 0dd1 21bf e221 c0bf 5f4c 1bbf f597 e7be
00000140: f0a7 3a3e c2b8 73bd 4dba 3ebd fb99 b1bd
00000150: 4e70 d4be 8084 973d bdbe 0cbe 52ae 653d
00000160: 0b77 40bd 477c 363d 9640 653c d625 cf3e
00000170: 72d7 fa3c 9ab1 b23d 4fdd abbf b263 0a3d
00000180: 9c76 58bd 80af 613d 1aa6 8e3d a2c3 22be
00000190: 45e0 f03d e39c 46be 1803 a7bf d55c fdbd
000001a0: 4f1f 95bd 08de c2be b0fc 21c0 7771 4abe
000001b0: e7c6 983d 1f6c dcbf 8912 f7be f400 e4be
000001c0: 7b4a 093d ec30 a63d 2247 a93e b316 57bf
000001d0: 57b2 8cbf dfbb 963d 4b38 a5bc d751 eabe
000001e0: b9c2 2fbf 413a 29bf a334 b6bf f86c 1dbe
000001f0: bdba e33c c70e 87bc 7798 733d a7e9 babb
00000200: 43fb a23e 488c 99bd d540 51bd c287 6dbd
00000210: 387c b9be a23e 67be 1719 afbe f69a 22bf
00000220: a66c d43d be96 5e3c f7cd 22be ce5d e63e
00000230: 5c27 b5be a426 313d 3a27 f8ba a518 5abe
00000240: 0098 d53d afda cabf 2371 65bc f7d3 9a3e
00000250: fae0 47bf 9809 aebd d70f f6be 29d7 5cbe
00000260: 43e8 343f 4e66 af3d f0cc 14bd f1c9 52bd
00000270: f682 733e 51f3 563d eff3 243e 4733 6b3d
00000280: d359 1ebe d87c 5dbf b572 82bf 0121 613e
00000290: 0e82 9b3c 883a aabe 1d1e ce3e 7b11 08bf
000002a0: 2ffd 5e3e c428 96be 504c a73d d789 b4bc
000002b0: 685d b73d 3ef2 29bd 097c 02be 4939 8d3e
000002c0: a440 203d e910 c9bc a559 e0bc ada9 1a3c
000002d0: 692e a7bd 650c bc3e 729d a33e b08e 183f
000002e0: 4bdd 66be 3a53 72be fd1d 0bbe 7edc 603c
000002f0: 0412 ba3d a978 fe3d e3f4 a93d 46c0 14bd
00000300: f89b ef3e 08b6 843f 9ff5 0b3e 77de 41be
00000310: bc9b e4bd 9abc 9f3e 6ac3 4bbc cc02 69bf
00000320: f315 0ebe 45bb 4fbe 7618 c7bf 2fd2 96be
00000330: c238 d5be a43c 0f3d 4aec ffbc 7c31 b83d
00000340: eacd 3a3d 7a0a 923d c21d 0cbe 2b17 273d
00000350: 86f4 873f d907 793c a396 083e e5f8 fb3d
00000360: b35f 6cbd 18c3 75bf ffed 89bc f7a7 e0bd
00000370: ea2b e1bc 4bfb 5fbe 56d2 db3d 8428 723d
00000380: 3736 ccbb 825f 423c 8a3f fbbc cb3c 9a3d
00000390: 3133 95bd 0cfd 07ba 3c45 293e b4dc d8bd
000003a0: bbb2 7dbd bfa6 883f e850 0f3f 8348 9e3c
000003b0: 7bd0 953d e5f6 b93e 5c89 473e b024 853e
000003c0: fe78 9fbd 4270 cfbd 5b5b 6dbd 6f95 503d
000003d0: 80f3 7fba dbeb 843a 5338 b5bd 1cbf 0b3e
000003e0: 46fb e4ba 4466 533f aa9b 6c3e 6ad3 52be
000003f0: 7c9c 55be 94f3 5d3d 41a8 7cbf 160f 14bf
-0.42098472 0.33991912 -0.8662674 -0.4430465 0.103373885 0.080825925 -0.040149797 -0.026395842
0.14249481 -0.10523967 -0.3643927 -1.1165729 -0.31143624 -1.1280583 0.11113109 0.0741402
0.04006825 -0.021011392 -0.0026285164 -0.4623811 -0.19049336 0.3532397 0.07640256 -0.70030737
-0.45099452 0.10866723 0.019880153 -0.099925004 0.37856495 0.18548994 -0.044046372 0.12842295
0.020306507 -0.1060365 1.0727663 -1.0904976 -0.57302636 0.019318325 -0.08251972 0.016217774
-1.0766732 -0.67954963 -0.15904611 0.15562332 -0.26775163 -0.30754083 -0.008669489 -0.70167685
0.05687413 0.13965301 -1.0693197 -0.8059143 -0.20324215 -0.32604602 -0.2928548 -0.098480895
0.09586722 0.111354746 -1.4585605 0.085718386 -0.040138796 0.0026954738 -0.03223769 0.086365305
-1.4904761 0.021910897 0.03917474 0.076309875 0.02113482 -0.26172644 0.23285416 -0.22042994
0.21181685 0.1874999 0.20400903 -0.046338137 -0.6320961 -1.501034 -0.6066341 -0.45233122
0.18228126 -0.05950237 -0.04656439 -0.086719476 -0.41491932 0.07398319 -0.13744636 0.056074448
-0.04698853 0.044552114 0.013992449 0.40458554 0.03062031 0.08725281 -1.3426913 0.033786483
-0.05284749 0.05509901 0.06965275 -0.1589494 0.11761526 -0.19395785 -1.3047819 -0.12371222
-0.07281362 -0.3806002 -2.5310478 -0.19769846 0.074598126 -1.7220496 -0.4825633 -0.44531977
0.033518296 0.081148 0.33062083 -0.8401901 -1.0991925 0.07360052 -0.020168444 -0.45765564
-0.686565 -0.66104513 -1.4234813 -0.153736 0.027799005 -0.016486539 0.059471574 -0.005704123
0.31832322 -0.0749746 -0.05108722 -0.057990797 -0.36227584 -0.22582486 -0.3419883 -0.635177
0.103722855 0.013585744 -0.15898882 0.44993442 -0.3538159 0.04324974 -0.0018932589 -0.21298464
0.10429382 -1.5847987 -0.014004025 0.3023984 -0.7807766 -0.084979236 -0.4805896 -0.21566452
0.70666903 0.08564435 -0.036328256 -0.051462118 0.23780426 0.05247814 0.16108678 0.05742195
-0.15463953 -0.8651862 -1.0191256 0.21985246 0.018982913 -0.3324778 0.4025735 -0.53151673
0.2177627 -0.29327977 0.08168852 -0.022038383 0.08953363 -0.041490786 -0.12742628 0.27582768
0.039124146 -0.024544196 -0.027386496 0.009439868 -0.08163149 0.36728206 0.3195606 0.59592724
-0.22545354 -0.23664561 -0.13585658 0.013724444 0.090854675 0.12425358 0.082986616 -0.03631618
0.46798682 1.0368052 0.13667916 -0.1893252 -0.111625165 0.3119858 -0.012436727 -0.9101989
-0.1387556 -0.20286281 -1.555434 -0.29457232 -0.41644865 0.03496994 -0.031240601 0.089938134
0.04560653 0.071309045 -0.13683227 0.04079358 1.0621498 0.015199625 0.13338713 0.12303332
-0.057708453 -0.96000814 -0.016837118 -0.10969537 -0.02748676 -0.21873204 0.10733478 0.05912067
-0.006232049 0.011863591 -0.030669946 0.075311266 -0.072851546 -0.0005187548 0.16530317 -0.10588971
-0.06193803 1.0675887 0.5598283 0.019321686 0.07315155 0.36321178 0.19485992 0.26004553
-0.07786749 -0.10128833 -0.05794845 0.05092376 -0.00097637624 0.0010141091 -0.088486336 0.13647121
-0.0017469905 0.8257792 0.23106256 -0.2058846 -0.20860475 0.054187372 -0.98694235 -0.5783552

fc2.bias f4 [64]
00000000: 42ee aabd bfbb 343c bf3d 813d aed3 89be
00000010: 7329 213e d1e4 de3c 40fe 943d 5f1e 7ebe
00000020: 6699 ecbb e2ad 4b3d 7905 0d3e 745c ae3d
00000030: 990d 0dbf 4877 d53e 9a39 223e d920 6bbd
00000040: f4c0 3bbe 0b8e 463e ef77 203e a8b5 4ebd
00000050: 3de2 983d 36a0 23be 8387 1c3d 7ab7 6a3d
00000060: 7545 e63c e97d e23d 4b45 b2bd be39 af3c
00000070: 22c4 29be 0aba fd3d 8a9e 1c3e a52c 923d
00000080: 2840 f73e 5cf3 99be ed99 a9bd 6740 43be
00000090: 82e5 4abe 4232 823d 76e0 153d e885 35be
000000a0: a0bc 92bd d7f3 c73d 3d30 363c 7e7e 5dbe
000000b0: e9e3 f13d 2485 efbc 9d12 2e3d 545a 013d
000000c0: 5e25 c7be 109e 9d3b 61d6 203e 703d 81be
000000d0: 056b ebbd 0242 8cbd f0e0 0e3e 9927 2dbd
000000e0: c35d b5be d856 2d3e d98d 173e 4949 9b3d
000000f0: 8118 a33c 93eb 123f 8dfc 273e 13ce 0a3e
-0.08346225 0.01103109 0.06310605 -0.2691931 0.15738468 0.027208718 0.07275057 -0.24816273
-0.007220435 0.049726374 0.13771619 0.08513728 -0.55098873 0.41692567 0.15842286 -0.057404373
-0.18335325 0.19390123 0.15670751 -0.05046621 0.074650265 -0.15979084 0.03821517 0.057303883
0.028109292 0.11059172 -0.08704623 0.021389838 -0.16578725 0.12389 0.15294853 0.071374215
0.48291135 -0.3006848 -0.08281312 -0.19067536 -0.19814113 0.06357242 0.036591016 -0.17726862
-0.071648836 0.09763306 0.011119899 -0.21630284 0.118110485 -0.029238291 0.04249822 0.031580284
-0.38895696 0.0048101023 0.15706779 -0.25242186 -0.11495022 -0.068485275 0.13952994 -0.04227409
-0.35423097 0.1692766 0.14800204 0.075823374 0.019909145 0.5739071 0.16404934 0.13555174

fc3.weight f4 [32, 64]
00000000: bda8 063e 3e4e 8c3d dc38 fb3d 6162 193e
00000010: af47 8e3c 5cca 803e 0b1e 1f3d 1cb2 e83c
00000020: e7db ef3e 89f2 0d3e 2999 2e3f 2c69 823e
00000030: 3bb9 89be 686e a7bb 2a60 4a3e f071 e53d
00000040: f87d ecbc 76f0 75b9 a2ad ed3d a4db 56be
00000050: e197 cf3d 21eb 683e a355 fdbb a131 5dbd
00000060: cb41 283f 0d80 353e facd 2d3e 30a0 f33e
00000070: 63fd 5d3e fdbd 2f3d be50 d4bb 0f46 9fbc
00000080: 6884 65bb 1150 9b3f a1a1 283e 3983 443e
00000090: 6506 913e 67a8 913d 09e1 453f 408f 4a3f
000000a0: 91b5 453e ab74 b63e d431 343c 08bb b63d
000000b0: e4ab 603c b826 9ebc d054 86bc 2625 e93d
000000c0: 7aa3 05be fb08 4b3e 2306 773e c363 3d3f
000000d0: b234 80bd 3cff a83d 61da 4b3e dbe0 253f
000000e0: 3056 4e3f 55de af3d 586a ac3e 6961 7b3e
000000f0: a0f2 343c 8973 b9bc 1c4d c13e 0bee 643f
00000100: 390b cfbe 57b4 c13d 1826 5a3e a103 c13d
00000110: 16d5 06bf 0fe0 07bb f278 783d 8721 49be
00000120: 54fb 863c 031f a23c 77aa a8bf 9e89 20be
00000130: bcb4 413c 6dc1 bc3d 3dd6 593d 730b 69be
00000140: 0e89 3bbe 177f abbd 7eed 2bbe a505 90be
00000150: cb42 2fbd fdcc d8bb 4250 133e 192b fabd
00000160: 83a8 29bf 5435 883e 3fbc 0a3e 2346 5ebd
00000170: d7ea 4c3e 1cd5 ab3d f44b 95bb 2e5f 9abd
00000180: 603b eebd 8ba4 07bf fa3e 37bf 1bfb 6f3e
00000190: 05eb 6fbe b226 063d 76e9 13bf 125f acbe
000001a0: ddd0 9e3c a75c bebe 7914 54be d303 a13e
000001b0: 9a2f 4cbd 387a 84be 1cd2 ecbe c2c9 073e
000001c0: 6926 a8bd d045 143e f592 973c ae49 bebe
000001d0: 14b1 2b3e ca93 5abf 339c 583e ed32 bbbe
000001e0: cbe4 9ebe fafb 5d3d a5b1 46be 1543 bc3c
000001f0: 1df2 0d3d c056 83ba 48e3 a2bf ccb4 5dbf
00000200: c002 57be 7f26 23bf 47fd 66bf e8a3 58bf
00000210: 476d 2e3c 5a6d 8ebf 9bfb 8cbf 11d7 363e
00000220: e694 cdbe 59cb 763e ab40 da3e beed 56bf
00000230: 71ff 143f 7a5f e9be f32b d4be 0759 763e
00000240: fba0 39bd cdff 293f 48ae fbbe 2e8e 19bf
00000250: ad7c 9bbf 34c1 bebe 4634 bcbf 312c 25be
00000260: 8b86 b73c ebfb 193e f111 dfbe 4e43 1ebf
00000270: 53e2 00be 9089 5fbe 60c7 34bf 71ac 3bbd
00000280: 19ec eebc da0e 2a3f b835 e23d 16aa 483f
00000290: 6bac bd3d ff44 adbe 41b6 123d c479 5bbd
000002a0: 5458 b2bf 4f29 13be 408a 28bd aab2 91bf
000002b0: 9923 85be f3ac 47bd 7b9b 15bf e740 89bf
000002c0: d1d7 153f 6063 30bf ed34 353e 326c 0e3f
000002d0: 4ff7 4d3e 6a73 03bd 4ed1 79bf 7496 66be
000002e0: 0bcf c43e 54f1 edbe bf1a 78bf 08cf 98bd
000002f0: 7f68 acbe 00ef 85bc 27b7 7c3e 4318 903d
00000300: 8507 65be 83fc 123e fb76 353e dada c33e
00000310: 5197 453d 5dd5 8a3e dbc5 1c3d e778 58be
00000320: b57d d63e df0e 123e bb20 d3be 5531 6b3e
00000330: aca8 d03b 0fba 54be fcff 763e 517b b6be
00000340: 2c15 41be 5bd6 f8bc 13cd c93a b419 8fbf
00000350: b9d2 af3d bf9c 81be 3969 603d eef7 45be
00000360: ca66 bebe 18ad ac3e fcba ca3d bc1d c3bb
00000370: 2292 8a3d 4a19 c5be 9c8c c6bd fa00 d3bd
00000380: 8e02 7fbd 45fe 8cbf e54d 36bf 8cf9 66be
00000390: a5a2 85be e381 cbbd 4460 14bf ffd7 24bf
000003a0: 52a7 bfbd a929 0bbf d5c4 9cbe 6fff 133d
000003b0: 3523 b93e ca14 50be cac2 aebd 0b50 203e
000003c0: 851a 83be 11c2 b03e 8a9f 303e b7b4 89be
000003d0: d987 36be 9932 1cbf 3ac9 a03d aa1d 31bf
000003e0: 96e8 9dbe 7e7d 3abe b288 21be 0f06 153d
000003f0: 184a 1cbe c1f2 2bbd 8346 8bbe bfb8 4cbf
0.13150306 0.06850861 0.122667044 0.14978935 0.017368166 0.25154388 0.03884701 0.028405242
0.4684746 0.13862051 0.68202454 0.25470865 -0.26899132 -0.005109597 0.19763246 0.112033725
-0.02886866 -0.000234546 0.116053835 -0.20982224 0.101363905 0.22745945 -0.007731156 -0.054002408
0.6572539 0.17724629 0.16973105 0.4758315 0.2167869 0.042905796 -0.006479352 -0.019442586
-0.0035021547 1.2133809 0.16467907 0.19190682 0.2832519 0.07112198 0.772965 0.7912483
0.19307543 0.35635886 0.010998208 0.08922392 0.013712857 -0.019305572 -0.016397864 0.113840386
-0.13050643 0.19827645 0.24123435 0.7398035 -0.06260051 0.08251807 0.19907524 0.6479623
0.8060026 0.08587328 0.33674884 0.24548878 0.011044174 -0.0226381 0.37754142 0.89425725
-0.4043825 0.09458225 0.21303594 0.0942452 -0.52668893 -0.0020732915 0.060662217 -0.19641696
0.016477264 0.019790178 -1.3177022 -0.15677497 0.011822876 0.092165805 0.05318283 -0.22758274
-0.18314001 -0.0837385 -0.16789815 -0.28129306 -0.042788308 -0.0066162334 0.14386085 -0.122152515
-0.66272753 0.26603186 0.13548373 -0.054266106 0.2001146 0.08390257 -0.0045561735 -0.07537685
-0.11632419 -0.5298545 -0.7158047 0.23435633 -0.23429497 0.032751746 -0.5777811 -0.33666283
0.019386703 -0.37180063 -0.20710935 0.3144823 -0.049850084 -0.25874496 -0.4625405 0.13260558
-0.08210451 0.14479756 0.018502692 -0.37165588 0.16766769 -0.8538176 0.21153335 -0.3656229
-0.3103393 0.05419538 -0.19403704 0.022981206 0.034654725 -0.001002036 -1.2725611 -0.86604
-0.20997143 -0.63730615 -0.9023022 -0.846251 0.010646171 -1.1127121 -1.1014284 0.17855479
-0.40152663 0.24101008 0.42627463 -0.83956516 0.5820227 -0.45580655 -0.4143978 0.24057399
-0.04531954 0.66405946 -0.49156404 -0.59982574 -1.2147423 -0.37256777 -1.4703453 -0.16130139
0.022403022 0.15037505 -0.43568376 -0.6182145 -0.12586336 -0.2182982 -0.7061672 -0.04581875
-0.029165315 0.6642891 0.11045402 0.7838453 0.09261402 -0.33841702 0.035818342 -0.05358292
-1.3933206 -0.14371227 -0.04114747 -1.1382649 -0.2600372 -0.04874892 -0.5844037 -1.0722932
0.58532435 -0.68901634 0.17695971 0.5563384 0.20113872 -0.03209249 -0.97585 -0.22518331
0.3843921 -0.4647318 -0.9691581 -0.07461363 -0.33673474 -0.016349316 0.24679242 0.070358776
-0.2236615 0.14354138 0.17721169 0.38252908 0.04824001 0.27115908 0.038274627 -0.2113987
0.41892782 0.14263485 -0.4123591 0.22968037 0.0063677635 -0.207741 0.24121088 -0.35640958
-0.18855733 -0.03037565 0.00153962 -1.1179719 0.08585114 -0.253149 0.05478785 -0.19332859
-0.37187797 0.3372581 0.09898946 -0.0059544723 0.06766154 -0.38495857 -0.09694788 -0.10302921
-0.062258296 -1.1015097 -0.7121261 -0.22556132 -0.2610065 -0.09936883 -0.5795939 -0.64392084
-0.09358086 -0.54360443 -0.3061892 0.036132272 0.36159673 -0.2032043 -0.08533247 0.15655534
-0.2560617 0.3452306 0.1724836 -0.26895687 -0.1782526 -0.61014706 0.07850881 -0.6918589
-0.3084151 -0.18211934 -0.15774801 0.03638273 -0.1526264 -0.041979555 -0.27202234 -0.799694

fc3.bias f4 [32]
00000000: 5ef0 a5bf 2c27 063d 9711 afbe eac2 a13e
00000010: 5f7a 233f 0f93 ddbd f6a5 883e 4f13 0c3f
00000020: 95e7 abbe 8c04 d83e bf3a 443f 1739 7ebd
00000030: 2e9a 373d f56e 863e c6ab 8dbd dda0 863d
00000040: c0f5 353e dffd cd3e eca6 543f b522 603e
00000050: 5a85 8dbc 9c88 463f 3da5 573e 06ff 913e
00000060: 0211 303e 3b11 b9be a006 bf3e ef82 043d
00000070: c183 303f c2dd 6c3f ea1c 663f 4503 883f
-1.2963979 0.0327522 -0.34193107 0.3159402 0.638586 -0.10819065 0.26689118 0.5471696
-0.3357512 0.4219097 0.7665214 -0.062066164 0.04482477 0.26256528 -0.06917529 0.06573651
0.17769527 0.4023275 0.830672 0.2188824 -0.017275501 0.775522 0.21059127 0.2851488
0.17193988 -0.36145958 0.37309742 0.03235143 0.6895104 0.92525876 0.8988787 1.0625998

fc4.weight f4 [1, 32]
00000000: a681 143f ff57 51be b03a 813e 6c60 f7bd
00000010: dafe 6bbc 6e17 863d c190 40be c7f5 aa3e
00000020: 34c2 203e 426e 33be b977 b4bd a064 e43d
00000030: 1ff6 8b3e 451c 3cbe 9ece 88be 1d72 ecbe
00000040: 658a f13d d69e bd3e fb94 b0bd 0f0c b93e
00000050: a230 453e 8b41 abbd 9dd5 0f3f a9dd bd3e
00000060: 31ef 85be 82a2 923d bebd 673d ffcc 61be
00000070: 54d0 24be d772 f23e 56b8 1abe 32fc 55be
0.5801033 -0.20443724 0.25240088 -0.12078938 -0.014404023 0.065474376 -0.18805219 0.33390638
0.15699083 -0.17522529 -0.08811898 0.11152005 0.27336213 -0.18370159 -0.26720136 -0.46180812
0.11793975 0.37035245 -0.08622166 0.36142012 0.19256833 -0.08362111 0.56185323 0.37083176
-0.2615905 0.07159902 0.056577437 -0.22050856 -0.16095096 0.4735324 -0.15109381 -0.20896986
