python model Testing/Training/best_rebound_model.pt (torch, 72722 bytes, 9 tensors)

fc1.weight f4 [128, 20]
0	0x3e9aeb8a	0.30257827
1	0xbe381107	-0.17975245
2	0xbe2cf7ff	-0.16891478
3	0xbc230e81	-0.0099521885
4	0x3d94f7c0	0.07273817
5	0x3d7bd5bb	0.061483126
6	0x3d0ee808	0.03488925
7	0xbcdef82d	-0.027217949
8	0xbd9fb114	-0.07797447
9	0x3d27b40c	0.04094319
10	0x3d9d7a89	0.07689387
11	0x3d8c8152	0.068606034
12	0x3c220e43	0.009891096
13	0xbcab4e06	-0.020911228
14	0xbc143692	-0.009046214
15	0x3c872c60	0.016500652
16	0x3ceb0be6	0.028692197
17	0xbdea365f	-0.11436152
18	0x3a84d317	0.001013371
19	0x3ef696fd	0.4816207
20	0x3e0a1b8f	0.13487075
21	0xbe1a9f07	-0.15099727
22	0x3d5bb5da	0.053640224
23	0xbe14d3e3	-0.14533953
24	0x3dc2f7b3	0.09519901
25	0x3de35983	0.111010574
26	0x3d8da0ce	0.06915437
27	0x3d87f356	0.066382095
28	0xbd2d4863	-0.04230536
29	0xbe2fa3b4	-0.17152292
30	0xbde431ef	-0.111423366
31	0xbca7f3b5	-0.02050195
32	0x3d21b955	0.039483387
33	0xbd0b0d2b	-0.033948105
34	0xbd2b75dd	-0.04186045
35	0x3ba08fb2	0.0048999423
36	0x3dd098d1	0.101853974
37	0x3db917f2	0.0903777
38	0xbe8f6c78	-0.28012443
39	0x3ec3ed52	0.38267
40	0x3ccd28f3	0.02504394
41	0x3e88faac	0.26753747
42	0xbe8d1554	-0.27555335
43	0xbbee4afa	-0.0072721215
44	0xbdeb7fa8	-0.11498958
45	0xbca974b6	-0.020685535
46	0xbbd83d81	-0.0065991287
47	0x3ca8e062	0.020614807
48	0x3d460bc0	0.04835105
49	0x3d99d43b	0.07511183
50	0x3a807fb7	0.0009803687
51	0x3cf68c2d	0.030096138
52	0xbd19e789	-0.037574325
53	0xbd9a50ec	-0.07534966
54	0xbdaf2860	-0.08552623
55	0x3d8578df	0.06517195
56	0x3df0f37c	0.11765191
57	0xbd8d7d23	-0.069086336
58	0xbdf0a1fa	-0.117496446
59	0xbed0595d	-0.4069318
60	0x3e0ebb6c	0.13938683
61	0xbf061b58	-0.52385473
62	0xbeb59094	-0.35461867
63	0xbc20ddb0	-0.009818479
64	0xbe3b0f8c	-0.1826765
65	0x3bfcb2a5	0.007711726
66	0xbd0c5522	-0.034260876
67	0x3ca59436	0.020212274
68	0xbe258d9e	-0.16167304
69	0x3e5072d7	0.20356308
70	0x3e4b5b06	0.19858941
71	0x3dc319f2	0.09526433
72	0x3daf5310	0.08560765
73	0xbd820f03	-0.063505195
74	0x3dad890e	0.08473407
75	0x3ca47eab	0.020079931
76	0xbe8137f4	-0.25238
77	0x3bc6181d	0.006045355
78	0x3bb6182b	0.0055570803
79	0x3eef72bb	0.4676722
80	0xbd74be02	-0.059751518
81	0x3e0c1e8e	0.1368353
82	0x3ca1680d	0.019702936
83	0xbdd6ea15	-0.10493866
84	0x3e3f7379	0.18696393
85	0xbd9f46ba	-0.07777162
86	0xbe6c4631	-0.23073651
87	0x3d2478b1	0.040154163
88	0x3dfa1a1f	0.122120135
89	0xbe051d35	-0.12999423
90	0xbe14bee0	-0.14525938
91	0xbded30fd	-0.115816094
92	0x3e632019	0.22180213
93	0x3e2f930c	0.17145938
94	0xbd5a78a2	-0.0533377
95	0x3e0031c5	0.12518986
96	0xbe052615	-0.13002808
97	0x3d16d9ef	0.03682893
98	0x3df652fc	0.12027547
99	0x3e7f00a4	0.24902588
100	0xbc8845fc	-0.016634934
101	0xbe9af164	-0.3026229
102	0x3e24ca17	0.16092716
103	0x3e2ab0a3	0.16668944
104	0xbe2c4fde	-0.16827342
105	0x3df169e2	0.11787774
106	0x3db65e53	0.0890471
107	0xbe729481	-0.23689462
108	0x3d578ade	0.05262267
109	0x3c208a52	0.009798603
110	0xbdcb8ef8	-0.099393785
111	0xbe970716	-0.29497594
112	0x3d76dee2	0.06027115
113	0x3e89e2ce	0.2693085
114	0xbd41eb9a	-0.047343828
115	0x3d98b4a8	0.074563324
116	0xbe49fe25	-0.19725855
117	0xbd9a0726	-0.07520895
118	0x3e2e8944	0.1704455
119	0x3e842b78	0.25814414
120	0x3db03ee7	0.08605748
121	0xbf4ca5d9	-0.79940563
122	0xbd34e3c6	-0.044162534
123	0x3e30c702	0.17263415
124	0x3c39c917	0.011339447
125	0x3dd6a760	0.10481143
126	0x3d619b26	0.0550796
127	0xbe0ff5e8	-0.1405865
128	0x3e0b7596	0.13619074
129	0xbe072086	-0.13196
130	0xbe04e56b	-0.12978141
131	0xbdc5af30	-0.09652555
132	0x3bf0462b	0.0073325834
133	0xbcbcc33d	-0.023042316
134	0x3baf1b98	0.0053438656
135	0x3e1b1af8	0.15147007
136	0x3d228d5d	0.039685596
137	0xbe2ab0db	-0.16669028
138	0xbcbe412a	-0.023224432
139	0x3efec1ec	0.49757326
140	0x3e7af9ab	0.24509303
141	0xbd9bb4d9	-0.07602853
142	0xbdde6cc1	-0.10860587
143	0x3c477349	0.012173482
144	0x3e37c319	0.17945518
145	0x3e1a4fe5	0.1506954
146	0x3d164133	0.036683273
147	0x3c1a9255	0.009434302
148	0xbd9cbdb3	-0.0765337
149	0xbe843667	-0.25822756
150	0xbe1d41f4	-0.1535719
151	0x3d1d87c3	0.03845955
152	0x3e1d9e96	0.15392527
153	0xbdeff48b	-0.11716565
154	0xbdda6cae	-0.1066526
155	0x3ca019d8	0.019543573
156	0xbea47ed3	-0.3212801
157	0xbc6305f6	-0.013856402
158	0xbdbcc4d3	-0.09217229
159	0x3eb5089a	0.35358125
160	0x3d32d687	0.04366162
161	0x3e901097	0.28137657
162	0xbe751f33	-0.23937683
163	0x3e107093	0.14105444
164	0x3d6ba754	0.057532623
165	0xbe6657c5	-0.22494419
166	0xbe49ef41	-0.19720174
167	0xbe1469b4	-0.14493448
168	0x3e0f1a02	0.13974765
169	0xbdff6786	-0.124709174
170	0xbe4a8235	-0.19776233
171	0x3e136742	0.14394858
172	0x3de552ee	0.11197458
173	0xbd39369b	-0.04521809
174	0xbbfcaf8e	-0.0077113574
175	0xbd564026	-0.05230727
176	0x3cb72f1e	0.022361334
177	0x3ed93be5	0.42428508
178	0x3d9a29e9	0.07527525
179	0x3d7e9b10	0.062159598
180	0x3e937699	0.2880142
181	0x3e764311	0.24049021
182	0xbe60b663	-0.21944575
183	0xbe1b9a20	-0.15195513
184	0x3bd56117	0.006511818
185	0xbe4f4f2b	-0.20245044
186	0xbe2ade6f	-0.16686414
187	0x3e23ec69	0.16008152
188	0x3da3ca26	0.07997541
189	0xbd596837	-0.053077903
190	0x3d8e2f0e	0.06942569
191	0xbe68a051	-0.22717406
192	0x3c8779be	0.016537543
193	0x3d41498a	0.047189273
194	0xbe7f7497	-0.24946819
195	0x3ddc04a7	0.10743075
196	0x3e57f4cb	0.21089475
197	0xbe0e422e	-0.13892433
198	0xbdf5833b	-0.11987921
199	0xbe770552	-0.24123123
200	0x3d8fe0a3	0.07025268
201	0x3e3c7d4d	0.18407173
202	0x3c282602	0.010262968
203	0x3e8a6526	0.27030295
204	0xbc2f464c	-0.010697912
205	0x3cccc548	0.024996415
206	0xbd60709c	-0.054794893
207	0xbe8e164c	-0.27751386
208	0x3d32d85f	0.04366338
209	0x3d81fd61	0.06347156
210	0xbe14812b	-0.14502399
211	0x3e5c565e	0.21517321
212	0xbd9ee5ef	-0.077587
213	0xbb3eb430	-0.00290991
214	0x3dc7e292	0.09760012
215	0xbe43a9d6	-0.19107756
216	0xbd85a8c5	-0.06526331
217	0x3d1ace44	0.037794366
218	0xbdd444d4	-0.103646904
219	0xbed81491	-0.4220319
220	0x3d0ef7d6	0.034904324
221	0xbea8d56b	-0.32975325
222	0xbe455352	-0.19270065
223	0x3b8125b1	0.0039412607
224	0x3dfb0f36	0.12258761
225	0x3dbd968e	0.09257232
226	0x3d8b9dd0	0.0681721
227	0xbc9e53fd	-0.019327158
228	0xbdff5d3d	-0.12468956
229	0x3d3db5ea	0.046316065
230	0xbe88debd	-0.26732436
231	0xbbbdad83	-0.0057885065
232	0x3e85e765	0.26153103
233	0x3dd49511	0.10379995
234	0xbe0daa73	-0.13834552
235	0xbda79e09	-0.0818444
236	0x3d82ff7e	0.063963875
237	0xbeaba746	-0.33526057
238	0xbe073ab3	-0.13205986
239	0x3ebc77cc	0.36810148
240	0xbddfe60b	-0.10932549
241	0xbdefcb09	-0.11708648
242	0xbd5ff389	-0.054675613
243	0x3c2dba8b	0.010603557
244	0xbe0ebc55	-0.1393903
245	0x3e270dc2	0.16313842
246	0x3db5b4cd	0.08872376
247	0x3ca7278c	0.0204046
248	0x3d859988	0.065234244
249	0xbde3f691	-0.11131013
250	0x3d017b73	0.03161187
251	0xbdbc9031	-0.0920719
252	0xbe975cd1	-0.29563
253	0x3e2aea1a	0.16690865
254	0xbe04ce3e	-0.129693
255	0x3e4a7099	0.19769515

fc1.bias f4 [128]
0	0x3c96d830	0.018413633
1	0x3d117b17	0.03551778
2	0xbf191ef3	-0.5981285
3	0x3ded0922	0.115740076
4	0xbed4782c	-0.41497934
5	0xbe880ff1	-0.26574662
6	0xbddbe8b9	-0.10737748
7	0xbc5a297f	-0.0133155575
8	0xbf251e1f	-0.64499086
9	0xbec41136	-0.3829438
10	0xbf0ac3c6	-0.54204977
11	0xbd5daa30	-0.05411738
12	0xbe4b11ab	-0.19830959
13	0x3de8981f	0.1135714
14	0xbe69ddc1	-0.22838499
15	0xbe7bab72	-0.2457712
16	0x3e06a624	0.13149315
17	0xbf33b977	-0.7020487
18	0xbc257820	-0.010099441
19	0xbeb6c8a0	-0.3569994
20	0xbf1bf44a	-0.6091963
21	0xbf1bf306	-0.609177
22	0x3ebfae60	0.37437725
23	0x3ea5fade	0.3241796
24	0xbd261b8d	-0.04055362
25	0x3ebd828c	0.37013662
26	0xbeb21e02	-0.3478852
27	0xbea91991	-0.33027318
28	0xbeb10190	-0.34571505
29	0xbefe477d	-0.49663916
30	0xbeeee8a3	-0.46661863
31	0xbebb5f56	-0.36596173
32	0xbef92927	-0.4866421
33	0x3ec99d68	0.39377904
34	0xbf28e2c8	-0.6597104
35	0xbf2d4fba	-0.6769978
36	0xbf196f00	-0.59935
37	0xbf0a102a	-0.53930914
38	0x3d84d987	0.064868025
39	0xbedeb883	-0.43500146
40	0x3d8945bb	0.06702753
41	0xbe7bfdd7	-0.24608551
42	0xbbcaac0b	-0.00618506
43	0xbf0686eb	-0.5254962
44	0xbec5ed49	-0.38657597
45	0xbdc57bd2	-0.096427575
46	0xbeedf42a	-0.46475345
47	0xbe7d33c5	-0.2472678
48	0xbf0c7961	-0.5487271
49	0xbf01b0db	-0.50660485
50	0x3ee1cf92	0.44103676
51	0x3e511ac4	0.20420367
52	0xbe9622c0	-0.29323387
53	0xbeaac21c	-0.3335122
54	0x3e854b37	0.26033947
55	0xbea588f5	-0.32331052
56	0xbebe965d	-0.37224093
57	0xbf227f91	-0.634759
58	0xbed0e716	-0.40801305
59	0xbeedaeae	-0.46422333
60	0x3e41ed61	0.18938209
61	0xbea45627	-0.3209698
62	0xbe0f0973	-0.13968448
63	0x3be248e0	0.00690566
64	0xbd840771	-0.06446732
65	0xbe94e115	-0.29077974
66	0xbf0c2ed2	-0.5475894
67	0x3b8bb5f2	0.004263633
68	0xbee103ca	-0.43948203
69	0xbe243e45	-0.16039379
70	0xbdc2e1f4	-0.095157534
71	0xbf07ae10	-0.52999973
72	0xbecbf70b	-0.39836916
73	0xbef7c311	-0.4839101
74	0xbf117973	-0.5682594
75	0xbf1a0b09	-0.6017309
76	0xbead5734	-0.33855593
77	0xbea55448	-0.32290864
78	0xbf1dae96	-0.6159452
79	0xbf21b3e2	-0.63165104
80	0x3d0a6361	0.03378618
81	0xbf2a66e7	-0.66563267
82	0x3e598683	0.21242718
83	0xbe8cdcd7	-0.27512237
84	0xbeeaa418	-0.4582832
85	0xbb84882e	-0.004044554
86	0xbeafd88c	-0.343449
87	0x3c521d63	0.012824389
88	0xbee45297	-0.4459426
89	0xbf1ef599	-0.620935
90	0xbf206635	-0.62655956
91	0xbe9b816d	-0.30372182
92	0xbeb470b8	-0.35242248
93	0xbe9d93ee	-0.30776924
94	0xbf15a053	-0.5844776
95	0xbec17241	-0.3778248
96	0xbeecef14	-0.46276152
97	0xbed11476	-0.40835923
98	0xbe1de3cd	-0.1541893
99	0x3ee8b82c	0.45453012
100	0xbf143999	-0.5790039
101	0xbed066ac	-0.40703332
102	0x3ed07c60	0.4071989
103	0x3e8e43bb	0.2778605
104	0xbf1b42a7	-0.6064858
105	0xbf009447	-0.50226253
106	0x3ce3babd	0.027799005
107	0xbf1dd59a	-0.61654055
108	0x3e9b79e2	0.30366427
109	0xbea00359	-0.31252554
110	0xbf296b17	-0.6617903
111	0x3ecd6569	0.40116432
112	0xbe632681	-0.22182657
113	0x3d01abb2	0.031657882
114	0xbec6d0b2	-0.38831097
115	0xbec57293	-0.38563976
116	0xbd559f51	-0.05215389
117	0xbd74ff72	-0.059813924
118	0xbf2d1ece	-0.6762513
119	0xbedc1341	-0.4298344
120	0xbe2aca79	-0.166788
121	0xbedde4d7	-0.43338653
122	0xbe9b821b	-0.303727
123	0xbeea5818	-0.45770335
124	0x3d491767	0.049094584
125	0xbee73da6	-0.45164222
126	0x3e303903	0.17209248
127	0x3e82f07c	0.255741

fc2.weight f4 [64, 128]
0	0xbcdf3542	-0.027247075
1	0xbb140064	-0.002258324
2	0xbed0f55d	-0.40812197
3	0x3da16268	0.07880098
4	0xbcdac8da	-0.026707102
5	0xbdf69bac	-0.12041411
6	0x3deb3189	0.114840575
7	0xbd74f69d	-0.0598055
8	0x3de6895c	0.11256668
9	0x3e0955bc	0.13411611
10	0xbf136fa5	-0.5759223
11	0x3dfd00c3	0.12353661
12	0x3c80c846	0.015720498
13	0xbd84f758	-0.064924896
14	0x3e04be99	0.12963332
15	0x3d3775c1	0.044790033
16	0x3c1259ee	0.008932574
17	0x3e9116df	0.28337762
18	0x3e091fb3	0.13390999
19	0x3d4a5775	0.04939981
20	0xbe061a6d	-0.13096018
21	0xbb2a3fe5	-0.0025978026
22	0xbbabb6e8	-0.00524031
23	0x3d594c6e	0.053051405
24	0xbd26b32c	-0.040698215
25	0x3de0a285	0.10968498
26	0xbea74de9	-0.32676628
27	0x3df85b2a	0.12126763
28	0xbe963f44	-0.29345143
29	0x3b8c3a90	0.004279442
30	0xbe026522	-0.12733892
31	0x3dff1628	0.12455398
32	0xbd1312ec	-0.035906717
33	0xbc64d171	-0.01396595
34	0xbd5a9e49	-0.05337361
35	0x3e5b1c45	0.21397503
36	0x3ee159b3	0.44013748
37	0xbe85ef7d	-0.26159278
38	0xbb8e1d63	-0.0043369993
39	0xbeac00df	-0.33594415
40	0xbd4cf946	-0.050042413
41	0xbef020d6	-0.46900052
42	0xbd9256ce	-0.07145463
43	0x3e10d32c	0.14143056
44	0xbea0f5c1	-0.31437495
45	0x3d3a633a	0.045504786
46	0xbc37ff62	-0.011230322
47	0x3d5e10df	0.05421531
48	0xbe9d22b6	-0.30690545
49	0x3de0760b	0.10960015
50	0x3dd66689	0.10468776
51	0xbc934cc7	-0.017980946
52	0xbe4bf9c6	-0.199195
53	0x3d34c3e1	0.044132117
54	0xbd20f7ad	-0.039298702
55	0xbd1f5ed0	-0.03890878
56	0x3e91f45a	0.28506738
57	0x3e9e80a3	0.30957517
58	0x3d6a23a5	0.0571629
59	0xbf2643a9	-0.6494699
60	0xbb093e0d	-0.0020941526
61	0x3d9b9c55	0.07598177
62	0x3d6df670	0.05809635
63	0xbb74077e	-0.003723591
64	0x3dbc5bb4	0.091971785
65	0xbe8667f2	-0.2625118
66	0xbd88fc45	-0.066887416
67	0xbc48dae3	-0.012259218
68	0xbe6054b5	-0.21907313
69	0x3da1a6d5	0.07893149
70	0x3ded99f9	0.116016336
71	0xbd0709a6	-0.032968186
72	0xbd39bdfc	-0.0453472
73	0xbcdd9569	-0.027048783
74	0xbafc8578	-0.0019265851
75	0xbd9e5ce5	-0.07732562
76	0xbf15b601	-0.5848084
77	0xbe0bd324	-0.13654763
78	0xbcf7d2bc	-0.030251853
79	0xbcbcb582	-0.023035768
80	0x3d0524b3	0.032505702
81	0x3cad30ec	0.021141492
82	0xbd02646b	-0.031834047
83	0x3c70e575	0.014703144
84	0x3b55144b	0.0032513316
85	0xbdedfd94	-0.11620632
86	0xbb5c1754	-0.003358324
87	0x3d90e73e	0.07075356
88	0xbe8d3876	-0.2758214
89	0x3e75d176	0.24005684
90	0x3f818332	1.0118163
91	0xbe974ef7	-0.29552433
92	0x3d9e536f	0.077307574
93	0x3e5be892	0.21475437
94	0xbe801010	-0.25012255
95	0xbef87bd3	-0.4853197
96	0xbe13ac89	-0.14421286
97	0xba9ce2d8	-0.001196946
98	0xbe180793	-0.1484664
99	0xbe0a06a0	-0.1347909
100	0xbe8c8ab1	-0.27449563
101	0x3d643a69	0.055719767
102	0xbdb50bc4	-0.08840135
103	0x3d50c8c4	0.050972715
104	0xbe08e8f7	-0.13370119
105	0xbddb274b	-0.10700854
106	0xbc5b11f9	-0.013370984
107	0x3e7ed8e7	0.24887429
108	0xbdbcdd53	-0.09221902
109	0xbd597e26	-0.05309882
110	0x3ed224d5	0.41043726
111	0x3da88e87	0.0823031
112	0x3c272b03	0.010203126
113	0xbd8d2658	-0.06892079
114	0x3da08915	0.07838646
115	0x3d38218f	0.04495388
116	0x3d0763e4	0.033054247
117	0xbcaada04	-0.020855911
118	0x3ce451f8	0.027871117
119	0xbdf43abe	-0.11925267
120	0x3cd94fb7	0.026527269
121	0xbdff01d0	-0.124515176
122	0xbc93eafb	-0.018056383
123	0x3c8f00aa	0.017456371
124	0xbd959815	-0.07304398
125	0xbdb1b24f	-0.08676588
126	0x3deaccdf	0.11464857
127	0x3bdc6cd6	0.0067268414
128	0x3d95d718	0.073164165
129	0x3d369909	0.04457954
130	0xbedbbbb5	-0.42916647
131	0xbdca37fd	-0.0987396
132	0xbd475099	-0.04866085
133	0x3d54df4e	0.051970772
134	0xbe8e14aa	-0.2775014
135	0xbcc93534	-0.024561502
136	0xbd51e51d	-0.05124389
137	0xbd6f9911	-0.058495585
138	0xbeb94786	-0.3618738
139	0x3c6b0311	0.014343993
140	0xbbc2214e	-0.0059243804
141	0xbbe6cd04	-0.0070434827
142	0xbdadc0a8	-0.08484012
143	0x3cd50741	0.026004435
144	0x3b7603fd	0.0037538998
145	0x3e2ffe67	0.1718689
146	0xbe1c6249	-0.15271868
147	0xbd52b2e9	-0.051440153
148	0xbf36782d	-0.71277124
149	0xbdc72a11	-0.097248204
150	0x3d53b959	0.051690433
151	0xbbd86aa0	-0.0066045076
152	0xbe0a9196	-0.13532099
153	0x3d08f874	0.03344007
154	0xbd4e9383	-0.050433647
155	0x3da9d435	0.082924284
156	0xbeda9c3d	-0.42697325
157	0xbb097e7e	-0.0020979936
158	0xbd980347	-0.074225
159	0x3d5b42bb	0.053530436
160	0xbedc17fd	-0.42987052
161	0xbc215303	-0.009846452
162	0xbed14ba8	-0.40878034
163	0xbec29c57	-0.38009903
164	0x3f3ada03	0.7298891
165	0xbecb1128	-0.39661527
166	0xbbf7d02c	-0.007562658
167	0xbf428a84	-0.7599261
168	0x3c4fc3c3	0.012680951
169	0xbf2a74b4	-0.66584325
170	0x3d3fd57d	0.046834458
171	0xbd030f80	-0.031997204
172	0xbdf4c41b	-0.11951467
173	0xbcafd5ce	-0.021464255
174	0x3cee52a1	0.029092135
175	0x3d863bb3	0.065543555
176	0x3d601ef7	0.05471703
177	0x3d2e38c0	0.04253459
178	0x3cb4cfc5	0.022071728
179	0x3cf882d7	0.030335827
180	0x3d8fd8a2	0.07023741
181	0xbd595a99	-0.053064916
182	0x3da9dfee	0.08294664
183	0xbdb2b2ec	-0.08725533
184	0xbcd14010	-0.025543243
185	0xbe8e1d3b	-0.27756676
186	0xbdd28d93	-0.102809094
187	0xbec183ae	-0.37795776
188	0x3d6baaab	0.05753581
189	0x3d517dfb	0.051145535
190	0xbc6a2704	-0.014291529
191	0xbda79bde	-0.08184026
192	0x3d7bb6ca	0.061453618
193	0xbf859aba	-1.0437844
194	0x3c6bfced	0.014403564
195	0x3d42b9aa	0.047540344
196	0xbd2a7e6b	-0.041624468
197	0xbe069f52	-0.13146713
198	0x3e93c178	0.28858542
199	0xbe190669	-0.14943852
200	0xbd311492	-0.043232508
201	0xbd96cbb6	-0.073630735
202	0x3a7196fb	0.0009215918
203	0xbd7625bb	-0.060094576
204	0xbf2e32b9	-0.68046147
205	0x3d829cb0	0.06377542
206	0xbdd031d8	-0.10165757
207	0xbd3014c3	-0.04298855
208	0x3d880ccc	0.06643066
209	0xbd035292	-0.032061167
210	0x3c8b4788	0.017001882
211	0x3b88156c	0.0041529443
212	0xbd23bd79	-0.039975617
213	0x3da4b25c	0.08041832
214	0x3ce16f4c	0.02751889
215	0xbe5778ca	-0.21042171
216	0xbd95c2c1	-0.07312537
217	0xbd748989	-0.059701476
218	0x3fb62e93	1.4232963
219	0x3cf01a27	0.029309345
220	0xbcfec51d	-0.03109985
221	0x3c090ebc	0.008365329
222	0x3dd2bf2f	0.102903716
223	0x3a8a375c	0.0010545063
224	0xbdc825b2	-0.09772815
225	0xbf2b04bc	-0.668041
226	0x3ce12fbd	0.027488584
227	0x3d8628fd	0.06550787
228	0xbe1242cb	-0.14283292
229	0xbe162f58	-0.14666498
230	0x3c892ef7	0.016746027
231	0xbbc14140	-0.005897671
232	0x3e48f720	0.1962552
233	0xbe0d5197	-0.13800655
234	0xbd396a02	-0.045267113
235	0x3eb902e7	0.36135027
236	0xbb845c09	-0.0040392918
237	0x3b523905	0.0032077443
238	0x3f8840f9	1.0644828
239	0x3b1c531e	0.0023853253
240	0xbccc8f77	-0.024970753
241	0xbd16837a	-0.03674648
242	0x3d6a35cf	0.057180222
243	0x3e5e8bf6	0.21733078
244	0x3dfd0c14	0.12355819
245	0x3c183161	0.009289117
246	0xbef1945a	-0.47183496
247	0xbe6c5ada	-0.23081532
248	0xbdd6ee78	-0.10494703
249	0x3c1d9485	0.009617929
250	0x3d85605c	0.0651252
251	0xbb0952cb	-0.002095389
252	0x3d60bf9a	0.054870225
253	0x3df7cce1	0.120996244
254	0xbcd09d1f	-0.025465546
255	0xbcd2ee44	-0.02574838

fc2.bias f4 [64]
0	0xbda0ba62	-0.0784805
1	0x3d39d961	0.045373324
2	0x3d968438	0.073494375
3	0x3ddf3445	0.108986415
4	0xbcbcdd34	-0.023054697
5	0xbd9d02f2	-0.076665774
6	0xbd610dca	-0.05494479
7	0x3e01d099	0.1267723
8	0x3db9e289	0.09076411
9	0xbd4c69b9	-0.049905512
10	0x3e481572	0.1953943
11	0x3dacd492	0.08438982
12	0xbe05b8a3	-0.13058715
13	0xbe820749	-0.25396183
14	0x3cb062cb	0.021531483
15	0xbd8d8884	-0.06910804
16	0xbe9d0a96	-0.3067214
17	0xbe07e972	-0.13272646
18	0x3d4cfbcc	0.05004482
19	0x3e41a9eb	0.18912475
20	0x3e0d4c99	0.13798751
21	0x3ca62be7	0.020284606
22	0xbd9c6dee	-0.07638155
23	0x3d7ea3ea	0.06216804
24	0xbe433c80	-0.19066048
25	0x3e364b57	0.17802177
26	0xbdb6c7d1	-0.08924831
27	0x3a47eaa7	0.00076262135
28	0x3ccc74f5	0.024958113
29	0xbca6f6f7	-0.020381434
30	0x3d985edb	0.07439967
31	0x3cb5a94f	0.02217546
32	0xbd824598	-0.0636093
33	0xbca04a3b	-0.019566646
34	0xbdb5c8de	-0.08876203
35	0xbebdd653	-0.3707758
36	0xbbe5f463	-0.0070176586
37	0xbca6e69e	-0.020373639
38	0xbe6aea5b	-0.22940962
39	0x3dc4614f	0.09588873
40	0xbdc7493f	-0.097307675
41	0x3e1fd5ef	0.15608953
42	0xbdb9afba	-0.0906672
43	0xbdf1f8e2	-0.11815049
44	0x3d819c01	0.063285835
45	0x3c90436c	0.017610274
46	0xbd0cf267	-0.03441086
47	0x3e12367c	0.14278597
48	0xbde96716	-0.11396615
49	0x3c8733d2	0.016504202
50	0xbe05c420	-0.13063097
51	0x3daca7a6	0.08430414
52	0xbdaa3c71	-0.083123095
53	0x3d918df8	0.071071565
54	0xbdeb8577	-0.11500066
55	0x3d17de59	0.03707728
56	0x3d8b6bce	0.068076715
57	0xbd796eeb	-0.060896795
58	0x3dd8f70c	0.105939955
59	0x3e2e1e21	0.17003681
60	0x3e59522f	0.21222757
61	0x3d6e7b37	0.058222976
62	0xbe30732a	-0.17231432
63	0xbeb72d6f	-0.3577685

fc3.weight f4 [64, 64]
0	0xbd84866f	-0.06470954
1	0xbda78d09	-0.08181197
2	0xbd80b37a	-0.062842324
3	0xbdd367ce	-0.103225335
4	0x3c543053	0.0129509745
5	0x3dc86d45	0.097864665
6	0xbde65d34	-0.11248246
7	0xbdbc25f2	-0.09186925
8	0xbe097078	-0.1342181
9	0xbd843583	-0.06455519
10	0xbdf7d31a	-0.12100811
11	0xbe4b21d6	-0.19837126
12	0x3d1ccd8e	0.03828197
13	0x3e1c6f95	0.1527694
14	0xbdc6b917	-0.09703272
15	0x3d890abd	0.06691501
16	0xbd0c832a	-0.034304775
17	0xbe559279	-0.20856656
18	0x3e1a4b06	0.15067682
19	0xbeaaaec5	-0.33336464
20	0xbd9eb0d3	-0.0774857
21	0x3d5ca309	0.05386642
22	0xbe0590e8	-0.13043559
23	0xbde98f30	-0.11404264
24	0x3d7a67c2	0.061134107
25	0xbef8e76c	-0.4861406
26	0xbda40672	-0.08009042
27	0x3c36f65b	0.011167134
28	0x3b50406f	0.0031776687
29	0xbd4225dc	-0.047399387
30	0x3db932d6	0.09042899
31	0xbda06402	-0.07831575
32	0xbed8a1f9	-0.42311075
33	0x3d24e482	0.040256985
34	0x3e16ccfd	0.14726634
35	0x3dd1a62a	0.102367714
36	0xbe14d8d1	-0.14535834
37	0x3c8019fc	0.01563739
38	0x3e715d28	0.23570693
39	0xbe8e6a6b	-0.27815565
40	0xbe6e6dc3	-0.23284058
41	0xbf2b4844	-0.66907144
42	0x3cc7f493	0.024408614
43	0x3ce65970	0.028118819
44	0xbecfe3eb	-0.40603575
45	0x3cf14141	0.02945006
46	0x3ea36e57	0.3192012
47	0xbe592a46	-0.21207532
48	0x3cd85cdc	0.026411466
49	0xbdd85e30	-0.1056484
50	0x3d1efe86	0.03881695
51	0xbe823f5f	-0.25438973
52	0x3de30747	0.110853724
53	0x3d07fe68	0.033201605
54	0x3d97a110	0.07403767
55	0x3e303a97	0.1720985
56	0xbd7263ee	-0.05917733
57	0xbec82540	-0.3909092
58	0xbe15b244	-0.14618784
59	0xbdbf9b9f	-0.09355854
60	0xbce6b2e3	-0.028161472
61	0x3dacf076	0.08444302
62	0x3dc1dfaf	0.094664924
63	0x3e4491d1	0.1919625
64	0xbe7f320a	-0.24921432
65	0xbeb4fc16	-0.35348576
66	0xbe80f027	-0.25183222
67	0xbecb4918	-0.39704204
68	0x3d5f9493	0.05458505
69	0x3e9f15a2	0.31071192
70	0xbe71dc6f	-0.23619245
71	0xbe875017	-0.2642829
72	0xbeb52c9d	-0.353856
73	0xbe825c6a	-0.2546113
74	0xbe89665d	-0.2683591
75	0xbeb869aa	-0.36018115
76	0xbe868849	-0.26275852
77	0x3d2b7254	0.04185708
78	0xbeebeb9a	-0.46078187
79	0xbe2da208	-0.16956341
80	0xbd87479d	-0.06605456
81	0xbef215b4	-0.47282183
82	0x3eac3e59	0.33641317
83	0xbef07b93	-0.4696928
84	0xbecf25ba	-0.4045847
85	0xbed568dc	-0.41681564
86	0xbe4e7f7f	-0.20165823
87	0xbdd24769	-0.10267527
88	0xbce5aa86	-0.028035413
89	0xbe2e010a	-0.16992584
90	0xbe81c372	-0.25344425
91	0xbe8fd102	-0.28089148
92	0xbe83cc77	-0.25741932
93	0xbeb79bac	-0.35860956
94	0xbeb38036	-0.35058755
95	0xbede8d01	-0.43466952
96	0xbebc392b	-0.36762366
97	0xbd5cee82	-0.053938396
98	0x3e1dbf41	0.15404989
99	0x3db67ec5	0.08910898
100	0xbee20d2f	-0.44150683
101	0xbe520116	-0.20508227
102	0x3ea16ad0	0.31526804
103	0xbeba9f98	-0.36449885
104	0xbe116c97	-0.1420158
105	0xbde97ab0	-0.11400354
106	0xbe1f8e09	-0.15581526
107	0x3cdb3c63	0.026762193
108	0xbeb75313	-0.35805568
109	0x3d3d90c7	0.04628065
110	0x3eb05b80	0.3444481
111	0xbe62bdd7	-0.2214273
112	0x3d0dbee6	0.034605883
113	0xbe2d7166	-0.1693779
114	0xbecab427	-0.3959057
115	0xbe4ad011	-0.19805934
116	0x3dc47c03	0.09593966
117	0xbea861d7	-0.32887146
118	0xbea84103	-0.328621
119	0x3e6e4ef6	0.23272309
120	0xbeb1a846	-0.34698695
121	0xbe23fccf	-0.16014408
122	0xbec80075	-0.3906285
123	0xbeddd7a5	-0.43328586
124	0xbe812e81	-0.25230792
125	0x3d59c110	0.053162634
126	0x3e173ea8	0.14769995
127	0x3dd50499	0.104012676
128	0x3e3f15cb	0.18660657
129	0x3eb179d2	0.34663254
130	0xbcf0bbf6	-0.029386502
131	0x3e74f35c	0.23920959
132	0xbe5c13d3	-0.21491937
133	0xbea16c19	-0.31527784
134	0xbd754cb0	-0.059887588
135	0xbd200b7d	-0.039073456
136	0x3c9e993d	0.01936018
137	0x3ed91491	0.42398503
138	0x3b38a000	0.002817154
139	0x3e852ec9	0.26012257
140	0x3eeaee51	0.45884946
141	0xbe1ef33e	-0.15522477
142	0x3dda910b	0.10672196
143	0x3edc1b2e	0.42989486
144	0x3f3004e5	0.6875747
145	0x3d8ef116	0.06979577
146	0xbf569993	-0.83828086
147	0x3cddc1bd	0.02706992
148	0x3bcd7211	0.0062697013
149	0x3e36d17e	0.17853352
150	0x3e4c95b9	0.1997899
151	0x3f718bb6	0.94353807
152	0x3efb28fd	0.4905471
153	0xbda5dd18	-0.08098811
154	0x3f369831	0.71325976
155	0x3f0ac400	0.5420532
156	0x3ee9a768	0.45635533
157	0x3d8a3df2	0.067500964
158	0x3f1d23d4	0.61382794
159	0xbdaf672f	-0.085646026
160	0x3e65dd76	0.22447762
161	0x3edc5d37	0.43039867
162	0xbebc943a	-0.36831838
163	0xbeb80f16	-0.3594901
164	0x3f2fcdc3	0.6867334
165	0x3e1bd586	0.15218171
166	0xbec502c6	-0.38478678
167	0xbb4b9521	-0.003106423
168	0xbc92f691	-0.017939838
169	0x3bb5fd75	0.005553896
170	0x3d82b4e9	0.06382162
171	0xbee1a8d8	-0.4407413
172	0xbcb18fa8	-0.021674946
173	0xbe4bd020	-0.19903612
174	0xbf0b723e	-0.54471195
175	0xbd5a74f9	-0.05333421
176	0xbec3f663	-0.38273916
177	0x3e09efd4	0.13470393
178	0xbdd95e47	-0.10613685
179	0xbbf54337	-0.0074848193
180	0xbee390a1	-0.4444628
181	0x3d6b6c31	0.057476226
182	0x3e3e0541	0.18556692
183	0xbf51e1d3	-0.81985205
184	0x3d768ce3	0.060192954
185	0xbd28ad35	-0.041180808
186	0xbe3ea3bf	-0.18617152
187	0xbdd51b57	-0.10405605
188	0x3de5461a	0.111950114
189	0xbe794516	-0.2434276
190	0xbed608d7	-0.4180362
191	0xbef9cb63	-0.48787984
192	0xbd8c9ed5	-0.06866232
193	0xbdf168bb	-0.11787554
194	0xbe76bb5c	-0.2409491
195	0xbedab9df	-0.42719933
196	0x3d740068	0.0595707
197	0x3e85d9d6	0.26142758
198	0xbe2cc5ac	-0.16872281
199	0xbe7cd05b	-0.24688856
200	0xbea4b85f	-0.32171914
201	0xbd0aa1b4	-0.03384562
202	0xbe956c07	-0.2918398
203	0xbd746d7a	-0.059674717
204	0xbdc90135	-0.09814683
205	0x3de6500f	0.11245739
206	0xbe265546	-0.16243467
207	0xbc3020e5	-0.01075003
208	0xbd3acb18	-0.04560384
209	0xbe909c97	-0.2824447
210	0x3e50cf3e	0.20391557
211	0xbe1bebeb	-0.15226714
212	0xbe5d058f	-0.21584152
213	0xbd9131c0	-0.07089567
214	0xbd6d266b	-0.057897966
215	0xbe6251df	-0.22101544
216	0xbe3ab35d	-0.18232484
217	0xbe7933d4	-0.24336177
218	0x3cccf4d9	0.025019096
219	0xbdb2bbd2	-0.0872723
220	0xbd1cc02c	-0.038269207
221	0xbd85bbb3	-0.065299414
222	0xbe0d2794	-0.13784629
223	0xbdd2072d	-0.10255275
224	0xbe939fd2	-0.2883287
225	0xbd91ebb1	-0.07125033
226	0x3e0c353e	0.13692185
227	0x3da2f960	0.07957721
228	0xbd3fa90f	-0.046792086
229	0xbcdf85d0	-0.027285486
230	0x3e05bf27	0.130612
231	0xbe01bd7b	-0.12669937
232	0xbe4f4177	-0.20239817
233	0xbda74250	-0.08166945
234	0xbd81629c	-0.06317636
235	0x3e04f431	0.12983777
236	0xbe9bbba1	-0.30416587
237	0x3d9cc89c	0.07655451
238	0x3e40330b	0.18769471
239	0xbdf01690	-0.117230535
240	0xbb48e7f2	-0.0030655828
241	0xbe1cf609	-0.1532823
242	0xbdcf5a58	-0.101246536
243	0xbdb427af	-0.087966315
244	0x3dcd9019	0.1003725
245	0xbe4f2d9f	-0.20232247
246	0xbdcf5ce2	-0.10125138
247	0x3e51a654	0.20473605
248	0xbd580e0b	-0.052747767
249	0xbd6efc1e	-0.058345906
250	0xbe6d8fd7	-0.23199402
251	0xbe428cbd	-0.18999
252	0xbe8b9e1b	-0.27269062
253	0xbe7482b1	-0.2387798
254	0x3e56ec21	0.20988514
255	0x3d2a45b7	0.04157039

fc3.bias f4 [64]
0	0xbce40c30	-0.027837843
1	0x3cd98772	0.026553843
2	0x3d14bf67	0.036315348
3	0x3a9c7bd1	0.0011938756
4	0x3d8dc2de	0.069219336
5	0xbd2334d9	-0.03984532
6	0xbdc40429	-0.09571106
7	0xbd42ce20	-0.047559857
8	0xbe9786eb	-0.29595122
9	0xbdc06d14	-0.09395805
10	0xbd994b05	-0.07485012
11	0x3d8e6dde	0.06954549
12	0x3d2e6744	0.04257895
13	0xbd7168e2	-0.058937915
14	0xbccf89c8	-0.025334254
15	0xbda9194d	-0.08256779
16	0xbd7a7297	-0.061144438
17	0x3bf128d1	0.007359602
18	0x3dc6337e	0.0967779
19	0xbdc3060e	-0.09522639
20	0xbdc9e25a	-0.09857626
21	0xbe09ff9c	-0.13476413
22	0xbd6e9178	-0.0582442
23	0xbd021b35	-0.031764228
24	0xbd9a2194	-0.07525936
25	0xbbd81818	-0.006594669
26	0xbdf35ac5	-0.11882547
27	0xbddda363	-0.10822179
28	0x3bd5281f	0.006505027
29	0x3c9ed4ed	0.01938864
30	0x3b836195	0.0040094354
31	0xbe8e7b67	-0.27828524
32	0x3cbc65ad	0.022997702
33	0xbd84a336	-0.064764425
34	0xbd55b03b	-0.05217002
35	0xbdb374e3	-0.08762529
36	0xbe39e336	-0.1815308
37	0xbd1d26db	-0.038367134
38	0x3cbf8676	0.023379546
39	0xbd01a01c	-0.031646833
40	0x3d96cc04	0.07363132
41	0x3d892615	0.06696717
42	0xbd6d6833	-0.0579607
43	0x3e38a27f	0.18030737
44	0xbd252d0a	-0.040326156
45	0x3d5c7cfd	0.053830136
46	0xbce620ac	-0.028091751
47	0xbd3d0de3	-0.04615582
48	0xbc9e1434	-0.019296743
49	0xbe1d966b	-0.15389411
50	0xbd9313dd	-0.07181523
51	0xbdb22411	-0.08698285
52	0xbce0f2e0	-0.027459562
53	0x3ce6980c	0.028148673
54	0xbd0e9947	-0.034814145
55	0x3d9cb74a	0.07652147
56	0xbe5b4dc0	-0.21416378
57	0x3dc0fdf2	0.09423436
58	0xbe909e25	-0.28245655
59	0xbd8ddc2c	-0.0692676
60	0xbd6932eb	-0.056933325
61	0xbc8ffdf0	-0.017577142
62	0xbd9ae8d5	-0.075639404
63	0xbc70ef64	-0.014705513

fc4.weight f4 [32, 64]
0	0x3d162511	0.036656443
1	0x3d2e6023	0.042572152
2	0x3d036e31	0.03208751
3	0xbcfb1ecf	-0.03065434
4	0x3dbd413c	0.09240958
5	0xbbbef568	-0.0058275945
6	0xbcf888d5	-0.030338684
7	0xbbeaa047	-0.00716022
8	0xbe696f39	-0.22796334
9	0xbd27e63c	-0.040991053
10	0xbbbff09d	-0.0058575408
11	0x3dec7b51	0.11546958
12	0x3d7b703a	0.061386324
13	0x3c5e648d	0.013573778
14	0xbd0ef915	-0.034905512
15	0xbdbf0460	-0.09327006
16	0x3e66f123	0.22552924
17	0xbd30cc9b	-0.043163877
18	0xbbd9cee4	-0.0066469777
19	0xbdf1e767	-0.118117146
20	0xbd729c0c	-0.05923085
21	0xbd766b5f	-0.06016099
22	0x3e14114b	0.14459722
23	0xbd46de79	-0.04855201
24	0xbda0a954	-0.07844797
25	0xbdc20912	-0.09474386
26	0xbd80942a	-0.0627826
27	0xbd8a1f9e	-0.06744312
28	0xbcad02b8	-0.02111946
29	0x3d63fd5f	0.055661555
30	0x3cc900b9	0.024536477
31	0xbe3e07de	-0.18557689
32	0xbdc59016	-0.09646623
33	0xbd38fafa	-0.045161225
34	0x3d1e75f2	0.0386867
35	0xbdc72548	-0.09723908
36	0xbcb4c856	-0.022068184
37	0xbce410eb	-0.027840098
38	0x3de5a923	0.11213901
39	0xbd1df82f	-0.038566764
40	0xbd01d315	-0.031695444
41	0x3d01e7d0	0.031715214
42	0xbd425d2b	-0.047452133
43	0x3e13468b	0.14382379
44	0xbd5d3ac8	-0.054011136
45	0x3da9bd79	0.08288092
46	0x3ddfd5c3	0.10929444
47	0xbc81ce12	-0.015845332
48	0xbcf2ac4f	-0.029623179
49	0xbe1bfe58	-0.15233743
50	0x3bbf803a	0.005844143
51	0xbdb2539b	-0.08707353
52	0xbd420b78	-0.04737422
53	0x3d00f850	0.03148681
54	0x3ca133d7	0.01967804
55	0x3d74320d	0.059618045
56	0xbe107b35	-0.141095
57	0x3d141f44	0.03616263
58	0xbd0c51bf	-0.034257647
59	0x3b6764f9	0.0035307987
60	0xb9b7dbbb	-0.00035068192
61	0xbd88438e	-0.0665351
62	0xbd442815	-0.047889788
63	0xbcca93ee	-0.024728741
64	0xbd961fc7	-0.0733028
65	0xbdb52b4a	-0.08846147
66	0xbe3e8fe8	-0.18609583
67	0xbe1e3bee	-0.15452549
68	0x3d2e0619	0.042486284
69	0xbec287e2	-0.37994295
70	0xbf4fd89a	-0.8118988
71	0xbf044e96	-0.5168241
72	0x3dd6a7cd	0.10481224
73	0xbf0662f1	-0.5249472
74	0xbead4479	-0.33841303
75	0xbde912e1	-0.11380554
76	0xbc94a0da	-0.018143106
77	0xbdf41ff6	-0.119201586
78	0xbef665d7	-0.48124573
79	0xbf060994	-0.52358365
80	0x3e7f4da8	0.24931967
81	0x3d9f94a8	0.07792026
82	0xbc847798	-0.016170308
83	0x3de927f5	0.11384574
84	0xbee6e956	-0.45099896
85	0xbea4a64d	-0.32158127
86	0x3dc14289	0.09436519
87	0xbee07868	-0.43841863
88	0xbed46a4a	-0.41487342
89	0xbc9b3529	-0.018946247
90	0xbf32da36	-0.69864213
91	0xbf4bee30	-0.7966032
92	0xbeb87d71	-0.36033204
93	0x3d8254bd	0.06363819
94	0xbdd143d5	-0.10218016
95	0x3dbe4e66	0.09292297
96	0xbdb30977	-0.0874204
97	0x3e663e85	0.22484787
98	0x3d3dd4ac	0.046345398
99	0xbf2ceb61	-0.6754666
100	0xbf6468e8	-0.89222574
101	0xbeaad4f3	-0.33365592
102	0x3e26e2db	0.16297476
103	0xbeff489f	-0.49860093
104	0xbca3063b	-0.019900432
105	0xbd7deeb3	-0.06199522
106	0xbf43a603	-0.7642519
107	0x3e25027b	0.16114227
108	0x3d02bb55	0.031916935
109	0xbc3d2b22	-0.011545928
110	0xbc5b1f51	-0.013374166
111	0xbf261887	-0.64881176
112	0x3d54d5aa	0.05196158
113	0xbf86c59f	-1.0529059
114	0xbf4709b4	-0.7774918
115	0x3d63aad8	0.05558285
116	0xbeb087e1	-0.34478667
117	0xbd41aa55	-0.047281582
118	0xbdda636a	-0.10663493
119	0x3baf12fe	0.00534284
120	0xbf4e4568	-0.80574656
121	0xbdfc9db7	-0.12334769
122	0xbf3b721d	-0.73221
123	0xbecca6ee	-0.39971107
124	0xbecd1eaf	-0.40062472
125	0xbe11ed14	-0.14250594
126	0xbf056846	-0.52112234
127	0x3ca3ee06	0.02001096
128	0x3d37215d	0.044709552
129	0xbdbc213c	-0.091860265
130	0xbceda32e	-0.029008474
131	0xbd32d89d	-0.04366361
132	0x3d4eb112	0.050461836
133	0xbeafb659	-0.34318808
134	0xbf35274c	-0.7076309
135	0xbe685204	-0.22687536
136	0x3c362449	0.0111170495
137	0xbf03741b	-0.5134904
138	0xbebf0833	-0.37310943
139	0x3cc9bbe9	0.024625735
140	0xbda2a880	-0.07942295
141	0xbd4f6a84	-0.05063869
142	0xbeb6e3fb	-0.3572081
143	0xbf23adde	-0.63937175
144	0x3e3ffd47	0.18748961
145	0xbe163dfb	-0.14672081
146	0xbd196854	-0.03745301
147	0x3e2a4ab1	0.16630055
148	0xbedfb732	-0.43694454
149	0xbec370b1	-0.38171914
150	0x3e1c97fd	0.15292354
151	0xbe83f521	-0.25772956
152	0xbee6b7ae	-0.4506201
153	0xbdd47794	-0.1037437
154	0xbf2b8aba	-0.67008555
155	0xbf056415	-0.5210584
156	0xbe247693	-0.16060857
157	0x3c28c047	0.010299749
158	0xbdaa78ae	-0.08323799
159	0x3e1663ab	0.14686458
160	0xbd99a8d3	-0.07502904
161	0x3e8586dc	0.26079452
162	0x3d5c2194	0.05374296
163	0xbf15ccda	-0.58515704
164	0xbf822996	-1.0168941
165	0xbe6185c2	-0.22023681
166	0x3deb2fee	0.11483751
167	0xbeaa5bfd	-0.33273306
168	0x3d75a268	0.059969336
169	0x3ca45159	0.02005832
170	0xbedc29bc	-0.4300059
171	0x3dfacb21	0.12245775
172	0xbe45f66e	-0.19332287
173	0x3d8ccce4	0.06875017
174	0x3e5e7b68	0.21726763
175	0xbedee032	-0.43530422
176	0xbe04260c	-0.12905139
177	0xbf5ad3c4	-0.8547938
178	0xbf0e7690	-0.5564966
179	0x3d3430cb	0.043991845
180	0xbe25adb7	-0.16179548
181	0xbd7599ed	-0.05996125
182	0xbd860785	-0.06544403
183	0x3e05a37c	0.13050646
184	0xbf3033fb	-0.68829316
185	0xbc87c748	-0.016574517
186	0xbf56dab5	-0.8392747
187	0xbea1d3c6	-0.31606883
188	0xbed3600d	-0.41284218
189	0xbdd236d2	-0.102643624
190	0xbef9f859	-0.48822287
191	0xbb054196	-0.0020333282
192	0xbf56795c	-0.8377893
193	0xbe4ed068	-0.20196688
194	0x3d640e3a	0.05567763
195	0xbec9d98a	-0.39423782
196	0xbd9674b6	-0.073464796
197	0x3d4e9824	0.05043806
198	0xbda3fcd9	-0.08007211
199	0x3d9fdd4c	0.07805881
200	0xbd137e21	-0.036008958
201	0x3dade70e	0.08491336
202	0x3dc66877	0.09687894
203	0xbe018e70	-0.12651992
204	0xbc3a6d61	-0.011378617
205	0xbf19879f	-0.59972566
206	0x3cca3ebd	0.02468812
207	0xbd228035	-0.03967305
208	0xbf1c6b04	-0.6110079
209	0xbf268165	-0.6504119
210	0x3e0329c7	0.12808906
211	0x3c85d0e0	0.01633495
212	0x3ca3a55a	0.019976307
213	0xbd43935e	-0.047747962
214	0xbf0e0aef	-0.55485433
215	0xbca628b5	-0.020283083
216	0x3d89b2a7	0.06723528
217	0xbec9a4bd	-0.39383498
218	0xbdee81ba	-0.11645837
219	0x3dcd110e	0.100130185
220	0xbd1f1732	-0.03884048
221	0xbe74809b	-0.23877184
222	0x3db0088b	0.085953794
223	0xbd813dc4	-0.06310609
224	0xbefcb7aa	-0.49358875
225	0xbd8b6d66	-0.068079755
226	0xbf5b1ca9	-0.85590607
227	0xbd8509bc	-0.06495997
228	0xbd8f8fc0	-0.0700984
229	0xbdb31038	-0.08743328
230	0xbefb7771	-0.49114564
231	0x3d6949d0	0.05695516
232	0xbd1bcb6d	-0.0380358
233	0x3dd8212c	0.10553202
234	0xbce8427d	-0.028352017
235	0xbe0b8187	-0.1362363
236	0xbe4ef0ef	-0.20209096
237	0x3e5b9bfb	0.2144622
238	0x3dd4d2ae	0.103917465
239	0x3dba8969	0.0910824
240	0xbf450c0c	-0.7697151
241	0xbd85b477	-0.065285616
242	0xbd38e75e	-0.045142524
243	0xbd3001c1	-0.042970423
244	0x3da4fa7b	0.08055588
245	0xbe624ef8	-0.22100437
246	0x3d9c1d2e	0.07622753
247	0xbd50ff3a	-0.051024653
248	0xbd7d4a00	-0.06183815
249	0xbd5ea80c	-0.05435948
250	0xbcafb13a	-0.021446813
251	0x3d80b0f7	0.06283753
252	0x3d79e967	0.061013605
253	0xbdcce03f	-0.10003709
254	0x3d1894fd	0.03725146
255	0xbf0b2e89	-0.5436788

fc4.bias f4 [32]
0	0x3f170109	0.58985955
1	0x3eb0c968	0.3452866
2	0x3e98504c	0.29748762
3	0x3f3c36da	0.73521197
4	0x3ee4f7e6	0.44720381
5	0x3e5bc4fd	0.21461864
6	0x3e1ea3d4	0.15492183
7	0x3e83ba63	0.2572814
8	0x3ea6b11e	0.32557005
9	0x3f05ecad	0.52314264
10	0x3f2bbe6e	0.6708745
11	0x3f27a3f0	0.65484524
12	0x3ed5c4ae	0.41751617
13	0x3eb2a9ea	0.3489526
14	0x3f121dfd	0.5707701
15	0x3dfa2a2a	0.122150734
16	0x3f124a25	0.57144386
17	0x3dddf7e4	0.10838297
18	0x3eddc47a	0.43313962
19	0x3ea9acb9	0.3313959
20	0x3ed90166	0.4238388
21	0x3e8cdf8c	0.27514303
22	0x3f4704ef	0.77741903
23	0x3efc53c8	0.4928267
24	0x3f10d6b8	0.56577635
25	0x3e55bd18	0.20872915
26	0x3ef9feae	0.48827118
27	0x3f1e8696	0.6192411
28	0x3f2269f0	0.634429
29	0x3f42f83d	0.7616003
30	0x3f2beb70	0.67156124
31	0x3eefd4e4	0.4684211

fc5.weight f4 [1, 32]
0	0x3e726213	0.23670225
1	0x3e942a67	0.289386
2	0x3e3caf18	0.18426168
3	0xbe45a69d	-0.19301839
4	0x3e63b4ce	0.2223694
5	0x3ea5ed38	0.32407546
6	0xbebca76f	-0.36846492
7	0x3d9d6d31	0.07686842
8	0x3e2462c8	0.16053307
9	0xbd86dbae	-0.06584869
10	0x3ec1a252	0.37819153
11	0xbd8c3308	-0.06845671
12	0x3e96ca82	0.29451376
13	0xbe2d54d0	-0.16926885
14	0xbdea1dc6	-0.1143146
15	0x3f2140bf	0.6298942
16	0xbe437e03	-0.19091038
17	0x3f06e19a	0.5268799
18	0x3e544519	0.20729484
19	0x3e33ca6f	0.17557691
20	0x3e525189	0.20538916
21	0xbe4615b0	-0.1934421
22	0xbe670cc2	-0.2256346
23	0x3e82954d	0.25504532
24	0xbe82dd5e	-0.25559515
25	0x3f3ff2be	0.7497977
26	0xbdbb4382	-0.091437355
27	0xbe2037d3	-0.15646295
28	0x3ed62929	0.41828278
29	0xbe8c0293	-0.27345714
30	0xbe2e0809	-0.16995253
31	0xbd565d0a	-0.052334823
