python model Testing/Training/best_blocks_model.pt (torch, 14508 bytes, 5 tensors)

fc1.weight f4 [64, 12]
0	0x404f3ba1	3.2380145
1	0x3f36a05e	0.7133845
2	0xc00e0781	-2.219208
3	0xbf84fa2b	-1.0388845
4	0xbf4a765d	-0.7908686
5	0x3fbb3067	1.4624146
6	0xbf9b9d78	-1.2157431
7	0xbf3689ff	-0.71304315
8	0xbfd29bb0	-1.6453762
9	0xc01e4f85	-2.4736035
10	0x400a689f	2.1626356
11	0x4002132d	2.0324204
12	0x3e8cb48a	0.2748149
13	0xc095c7a1	-4.680619
14	0x3f8ae8b2	1.0852263
15	0xbf500524	-0.81257844
16	0xc05fed64	-3.4988642
17	0xc002a9d8	-2.0416164
18	0x4067c6e9	3.6215155
19	0xbd78ac8d	-0.060711432
20	0x40742b93	3.8151596
21	0x3fde0f12	1.7348349
22	0xbfab308c	-1.337419
23	0x40075a58	2.1148891
24	0x401ebd24	2.4802942
25	0x3fe28582	1.7696993
26	0xc10fd973	-8.990588
27	0xbf712fc3	-0.94213504
28	0xbfa0fea6	-1.2577713
29	0xbd8ea9a5	-0.06965951
30	0xbf59ebb6	-0.8512529
31	0x3f929397	1.1451291
32	0x3f8b24bc	1.0870585
33	0x3f4a54a8	0.79035425
34	0xbdaa6320	-0.08319688
35	0x4028cc29	2.637461
36	0x3e6271f9	0.2211379
37	0x3f4437db	0.7664773
38	0xbf8bd3fc	-1.0924067
39	0xbf26ec44	-0.6520426
40	0x3e55b28a	0.20868888
41	0xbf414942	-0.7550241
42	0xbf5b853b	-0.8575017
43	0x3ecf0170	0.40430784
44	0x3f33897d	0.70131665
45	0xbe9bb1a1	-0.30408958
46	0xc004e634	-2.0765505
47	0x408fe0e4	4.4962025
48	0xc01c9b86	-2.4469924
49	0xbfa4d135	-1.2876345
50	0xbe7aa2b2	-0.24476126
51	0x404986fa	3.1488633
52	0x3e031a24	0.1280294
53	0xc01fe077	-2.4980752
54	0xbf758cea	-0.9591814
55	0x3f9a6a79	1.2063743
56	0x3f2c443e	0.6729163
57	0x3c362cb0	0.011119053
58	0xbfd807cc	-1.687738
59	0x4047ca4e	3.1217227
60	0xbfe964d7	-1.8233899
61	0xbf9f7fb5	-1.2460848
62	0xc114147f	-9.255004
63	0x3fcab9c1	1.5837938
64	0x3f0226a0	0.5084019
65	0xbf55ce61	-0.83518034
66	0xbfe78170	-1.8086376
67	0xbef84a11	-0.48494008
68	0xbdcc2723	-0.09968402
69	0xc014fb49	-2.3278372
70	0x3f08753f	0.53303903
71	0x40ffbe49	7.991978
72	0xbf4f586a	-0.80994284
73	0x3e820851	0.2539697
74	0xc086e9bd	-4.2160325
75	0x3f9e06e6	1.2345855
76	0x401d6d48	2.459795
77	0xc05ca14d	-3.447345
78	0xc001ac07	-2.0261247
79	0x401486d5	2.3207295
80	0xbf6a2b62	-0.91472447
81	0x3fbd3df0	1.4784527
82	0x3f17c28b	0.59281224
83	0x40dabf08	6.8358192
84	0xbd66a7b5	-0.05631228
85	0xbd45dd2f	-0.04830664
86	0x3fbf0be3	1.4925503
87	0x3e286f5b	0.16448729
88	0x3e423438	0.18965232
89	0x3e7bd977	0.24594675
90	0xbe097b1a	-0.13425866
91	0xbd45d1b8	-0.048295707
92	0xbe07a145	-0.13245113
93	0xbe266b2c	-0.1625182
94	0x3e31799f	0.17331551
95	0xc0a9aba8	-5.302204
96	0x3e2dc760	0.16970587
97	0xbcde80ed	-0.027161086
98	0xc0e36995	-7.1066384
99	0x3dd602a5	0.10449723
100	0xbdd33772	-0.1031331
101	0x3bdd310e	0.0067502325
102	0x3f020c19	0.5079971
103	0x3c860f6f	0.016364781
104	0xbe57d874	-0.21078664
105	0xbe6c852d	-0.23097678
106	0x3f224a96	0.6339506
107	0x4048b13d	3.1358178
108	0x3fa62f00	1.2983093
109	0x3f80ac7e	1.005264
110	0xbe36c5fb	-0.17848961
111	0xbfdc301a	-1.720218
112	0x3f78a467	0.9712586
113	0x3fab44ce	1.3380373
114	0xbe8bde23	-0.27317914
115	0xbfaf7177	-1.3706502
116	0x3f63eff2	0.89038
117	0xbfdb2b84	-1.7122655
118	0xbf119b69	-0.5687776
119	0x4024a25e	2.57241
120	0x3af7bef9	0.0018901519
121	0xbdec0304	-0.11524013
122	0xbdbadba9	-0.09123928
123	0x3c1f0093	0.009704727
124	0xbd1f9bd9	-0.038966987
125	0x3cf8f748	0.03039135
126	0xbdd66bea	-0.10469802
127	0xbd63bff6	-0.05560299
128	0x3c8fdae2	0.017560426
129	0xbced9808	-0.029003158
130	0xbc87852c	-0.016542993
131	0x3e8d1117	0.275521
132	0xbd8b88ed	-0.06813226
133	0xbe3c681c	-0.1839909
134	0xc07eab47	-3.979204
135	0x3f08dca4	0.5346167
136	0x3e84f8bb	0.25971016
137	0xbeab89da	-0.3350361
138	0x3f0753f2	0.52862465
139	0x3e850e0f	0.25987288
140	0xbe3383c3	-0.17530732
141	0x3c6bd84e	0.014394833
142	0xbe9422f8	-0.2893293
143	0x4040fad0	3.0153084
144	0x3e4b3d63	0.19847636
145	0x3f18b543	0.59651583
146	0xbfaff66c	-1.3747077
147	0x3db160ba	0.08661027
148	0x3f89ca20	1.0764809
149	0x3eb9dfab	0.36303458
150	0xbeaabefd	-0.33348837
151	0x3e65da7f	0.22446631
152	0x3e569a6a	0.20957342
153	0xbf4e18e8	-0.80506754
154	0xbebba869	-0.36651924
155	0x407dee59	3.9676726
156	0x3f4cf349	0.80058724
157	0xbf6b1c2a	-0.9183985
158	0xbf995d93	-1.1981682
159	0xbfcc111f	-1.5942725
160	0x3fb5bf00	1.4198914
161	0x3f80c1e0	1.0059166
162	0x3fbfb564	1.4977231
163	0xbf99bd62	-1.201092
164	0x3ec88434	0.39163363
165	0xc034f0ff	-2.8272092
166	0x3fb26215	1.3936182
167	0x3fa78054	1.3086038
168	0xbd74e1cf	-0.05978566
169	0x3e1c3f0f	0.1525843
170	0xc0795e60	-3.8963852
171	0x3ec7ea8e	0.3904614
172	0x3ca7cffb	0.020484915
173	0xbe38653a	-0.18007365
174	0xbdf62509	-0.12018783
175	0x3f4d4c97	0.8019499
176	0xbe637829	-0.22213806
177	0x3e490987	0.1963254
178	0x3f179d0d	0.59224015
179	0x4040fe45	3.0155194
180	0x3e40c132	0.18823698
181	0x3ea08300	0.31349945
182	0x3fbf3a42	1.4939654
183	0x3e338d00	0.17534256
184	0x3ddbc4cc	0.107308954
185	0xbe7f6b7d	-0.24943347
186	0xbdc42ffb	-0.09579464
187	0x3e5aceeb	0.21367995
188	0xbe2856c7	-0.16439353
189	0x3ad01044	0.0015873988
190	0x3edb2ce1	0.42807677
191	0xc082243c	-4.066923
192	0xbfa3caef	-1.2796305
193	0xbdb4cc79	-0.088280626
194	0x3ee99d9f	0.45628068
195	0x3fbdc43f	1.4825515
196	0xbf43915d	-0.7639368
197	0xbfe8a101	-1.8174134
198	0x3f9fca11	1.2483541
199	0xbf7fd8cf	-0.999402
200	0xbf3cd7e4	-0.7376692
201	0x3e875c93	0.26437816
202	0xc0286c41	-2.6316073
203	0x400ed8d9	2.2319853
204	0xbe8f4113	-0.27979335
205	0xbf81658f	-1.0109118
206	0xc105e906	-8.3693905
207	0x3eb7e40e	0.3591618
208	0x3e9c5db7	0.3054025
209	0xbe136471	-0.14393784
210	0xbe12d8dc	-0.14340538
211	0x3cd73440	0.026270032
212	0x3eb3fae9	0.35152367
213	0xbce5dd78	-0.028059706
214	0x3e73adf4	0.23796827
215	0x3fe846dd	1.8146626
216	0x40046f23	2.0692832
217	0xbf98d82a	-1.1940968
218	0x3fb0b801	1.3806154
219	0xbe8bbe5e	-0.27293676
220	0xc016dfc0	-2.3574066
221	0x3f9886f3	1.1916183
222	0xbf52ee85	-0.823952
223	0x3fa2bdd0	1.2714176
224	0x3f5955ea	0.8489672
225	0x3f882395	1.0635859
226	0xc0760e67	-3.844629
227	0x40100e58	2.2508755
228	0x3cdd9975	0.027050713
229	0xc0b79935	-5.737452
230	0xbf23c4cf	-0.6397218
231	0x3f9d9caf	1.2313441
232	0x40281ccb	2.6267574
233	0x3fab6af7	1.3392018
234	0x3fbcc8f6	1.4748828
235	0xbfc8ec91	-1.5697194
236	0x3fac82cd	1.3477417
237	0x40047d50	2.0701485
238	0x3bcec70c	0.0063103493
239	0x408c4d9c	4.384474
240	0xbfb24722	-1.3927958
241	0x3f5801d1	0.8437777
242	0xc0a5f811	-5.1865315
243	0xbf6a99da	-0.9164101
244	0xbf2110b9	-0.6291614
245	0x3fa46e8a	1.2846234
246	0xbf8cc486	-1.0997474
247	0x3fb5777b	1.4177088
248	0xc0386e0f	-2.8817174
249	0xbe11add7	-0.14226471
250	0x40080265	2.1251462
251	0x406c8ddd	3.6961586
252	0xbe29e06d	-0.16589518
253	0xbeb7abbc	-0.3587321
254	0x3f876381	1.0577241
255	0x3e912149	0.28345707

fc1.bias f4 [64]
0	0xc10f4ed1	-8.956742
1	0xc1593f69	-13.577981
2	0xc0e2caba	-7.087247
3	0xbea94f27	-0.330682
4	0xc0c2ba8c	-6.085272
5	0xc11d7f18	-9.843529
6	0xc11890a4	-9.535313
7	0xc0c308e5	-6.0948358
8	0xbfddba40	-1.7322464
9	0xc11dd94b	-9.86555
10	0xbf84c096	-1.0371273
11	0x400e813c	2.2266378
12	0x40249bc7	2.572008
13	0xc10b3218	-8.69973
14	0x401d5efc	2.4589224
15	0xc0ca8e45	-6.329867
16	0xc1150c34	-9.315479
17	0xc0abda57	-5.370403
18	0xc0e7b16d	-7.2404084
19	0xc13bce1a	-11.737818
20	0xc145f8fa	-12.373285
21	0xc0ba3f79	-5.820248
22	0xbfdfeed1	-1.7494756
23	0xc125924a	-10.348215
24	0xc0913f98	-4.539013
25	0xc1798e77	-15.597281
26	0x3f5e50f7	0.8684229
27	0x3f86ea37	1.0540227
28	0xc0b66697	-5.700023
29	0x3f1749a3	0.59096736
30	0x401a4339	2.410353
31	0xc0a05d66	-5.011401
32	0x3ff9b0b5	1.9507052
33	0xc123f6b2	-10.247728
34	0xc10669de	-8.4008465
35	0x3f3ee5cb	0.74569386
36	0xc0efd05f	-7.494186
37	0xc1243262	-10.2623005
38	0xc0df9049	-6.986363
39	0xc1258b19	-10.346459
40	0x40286deb	2.6317089
41	0xc0a3a5c9	-5.1139874
42	0xc12b7975	-10.717153
43	0xc12a0cb3	-10.6281
44	0xc1101d3e	-9.007139
45	0xc0c2aa58	-6.083294
46	0xc0a12f6e	-5.0370398
47	0xc1045170	-8.269882
48	0xc0dd8d36	-6.9234877
49	0xc0ef0248	-7.4690285
50	0xc0b90849	-5.7822614
51	0xc152ec1e	-13.182646
52	0xc0b9d31d	-5.8070207
53	0xc0ecd25e	-7.4006796
54	0xc128f55e	-10.559904
55	0xc08119fe	-4.034423
56	0xc125a441	-10.352601
57	0x40414183	3.0196235
58	0x3fec4213	1.8457664
59	0xc0d17cc5	-6.5464807
60	0xc11afa78	-9.68615
61	0xc109b3c8	-8.606392
62	0x3fb755d4	1.4323068
63	0xc0c5aba2	-6.1772013

fc2.weight f4 [32, 64]
0	0xbe98b7e4	-0.29827797
1	0x3f819340	1.0123062
2	0x3f4e24a6	0.8052467
3	0xbf05059d	-0.5196169
4	0x3dd8c83c	0.10585067
5	0x3f3c5e4a	0.73581374
6	0x40717168	3.7725468
7	0xbf2a501d	-0.66528493
8	0xbf9900ee	-1.1953409
9	0x3ed4aaab	0.4153646
10	0xbdfad0cf	-0.12246858
11	0xbf333751	-0.7000628
12	0xbe887f49	-0.2665961
13	0x3f672088	0.90284014
14	0xc002b4a9	-2.0422766
15	0xbf14fdda	-0.58199847
16	0x3db2618f	0.08710014
17	0xbe036c71	-0.12834336
18	0x3ecd547b	0.40103516
19	0x4047426d	3.1134293
20	0x3e3a82c3	0.18213944
21	0xbf521ad0	-0.8207216
22	0x3d0f6682	0.03500987
23	0x3fdbd86d	1.7175423
24	0xbee3d126	-0.44495505
25	0x4025262b	2.5804546
26	0xbfd7668e	-1.6828172
27	0xbeb83e34	-0.35984957
28	0xc01a2914	-2.4087572
29	0xbfa3c8f9	-1.2795707
30	0xc03223df	-2.7834394
31	0x3e804a60	0.25056744
32	0x3e0116fa	0.12606421
33	0x401576df	2.3353803
34	0xbfc4e6f1	-1.5382978
35	0xbf38cb39	-0.72185093
36	0xbf198e7b	-0.5998303
37	0x4009a5fb	2.1507556
38	0xbe998b65	-0.29989162
39	0x4093aa85	4.6145654
40	0xbfe9207a	-1.8213036
41	0xbd9fdb76	-0.07805531
42	0x408aead6	4.3411665
43	0x3f51777b	0.8182294
44	0x405b3f44	3.4257364
45	0xbcc9d219	-0.024636315
46	0x3ecf9c5c	0.4054898
47	0x3ecc2ea5	0.39879337
48	0x3e0822e9	0.13294567
49	0x3f9d98ec	1.2312293
50	0xbeacd1e6	-0.3375389
51	0x40334ce6	2.8015685
52	0x3f1a4e9d	0.60276204
53	0x3f99a317	1.2002896
54	0x3fc5805d	1.5429798
55	0xbfc350ea	-1.5259068
56	0x3fe02553	1.751139
57	0xc02492b9	-2.5714552
58	0xbf814da4	-1.0101819
59	0xbf74e129	-0.9565607
60	0xbd88675a	-0.06660338
61	0xbc673e5e	-0.014113991
62	0xbf3700e2	-0.7148572
63	0xbfb6f567	-1.4293641
64	0x3f449e66	0.76804197
65	0x403de9be	2.9673915
66	0xbffd7999	-1.9802734
67	0xbed89b59	-0.4230602
68	0x3f979267	1.1841553
69	0x3f8f38b3	1.1189178
70	0x4012bf85	2.2929394
71	0xbf9d912f	-1.2309932
72	0xc078a133	-3.8848388
73	0x4013e634	2.3109255
74	0x3d27380a	0.040824927
75	0xbea3c4ca	-0.31986076
76	0xbf53ae01	-0.82687384
77	0x3eb31297	0.3497512
78	0xbf5b7389	-0.8572317
79	0xbf5a05d7	-0.8516516
80	0xbf133774	-0.5750649
81	0xc0b97c0d	-5.796393
82	0x3ea30eca	0.3184722
83	0x3fa8a6c0	1.3175888
84	0xc049695f	-3.1470563
85	0xbf8c8b11	-1.097994
86	0xbf21bd88	-0.63179827
87	0x3fea3207	1.8296517
88	0xb6d02a3d	-6.2038002e-06
89	0xbf618ce3	-0.881056
90	0xc000dc3b	-2.0134418
91	0x3f6146d6	0.8799871
92	0xbf738a57	-0.95132965
93	0xc016cea6	-2.3563628
94	0xbf7bcc5e	-0.98358715
95	0x400a77db	2.1635654
96	0xc0176be3	-2.36596
97	0xbfcfd97d	-1.6238247
98	0x3f3e5bbe	0.7435874
99	0x3e9130e0	0.283576
100	0x3f6a1b16	0.9144758
101	0xbea79742	-0.32732588
102	0x3fcc2d0b	1.5951246
103	0xbff5aa49	-1.9192592
104	0xbece335a	-0.40273553
105	0xc0764f99	-3.8486083
106	0x401fb16d	2.4952042
107	0x408de6ec	4.4344387
108	0xbf7e6598	-0.9937377
109	0x3fc1d4f2	1.5143111
110	0x3fb81cab	1.4383749
111	0x3f693d39	0.91109043
112	0x3f8f94c6	1.1217277
113	0xc07395b1	-3.8060114
114	0xc088e8ba	-4.278409
115	0xbfe25ae7	-1.7683991
116	0xbde672a6	-0.11252336
117	0x3fe4afcc	1.7866149
118	0x3f88e2d3	1.0694221
119	0x3c5c77ed	0.013456327
120	0xbf39fa72	-0.72647774
121	0xbf75ff2a	-0.96092474
122	0xbf57a582	-0.8423692
123	0xbf01d9b1	-0.50722796
124	0x4060c931	3.5122797
125	0x400ba43d	2.1818993
126	0xc08b22c7	-4.3479953
127	0xbfa15c0d	-1.2606217
128	0x40a367f7	5.106441
129	0x40b52466	5.660693
130	0x40bf7578	5.9830894
131	0xbfdf61e0	-1.7451744
132	0x408bd198	4.369335
133	0x4074d0da	3.8252473
134	0x40f3beb3	7.6170287
135	0xbf81ca30	-1.0139828
136	0x3f6fceb9	0.9367481
137	0x409a95d4	4.8307896
138	0xbde51c96	-0.11187093
139	0x3f1efdc1	0.6210595
140	0xbfbd92c2	-1.4810412
141	0x407ff24d	3.9991639
142	0xbf2e0b32	-0.6798583
143	0x3f12f0c8	0.57398653
144	0x40a3f61e	5.1237936
145	0x4094c934	4.649561
146	0x40019ae9	2.02508
147	0x40f8d950	7.7765274
148	0x41078246	8.469305
149	0xbfbcd68c	-1.4752975
150	0xbdbb7267	-0.0915268
151	0x3fcea06c	1.6142707
152	0x3fcf09f9	1.6174918
153	0x40e8e382	7.277772
154	0xbf4237d9	-0.75866467
155	0xbeefbbae	-0.46822876
156	0x3f16f624	0.5896933
157	0x3f7cc34f	0.9873552
158	0x3f342e15	0.70382816
159	0x3fd2f138	1.6479864
160	0xbf451f44	-0.7700083
161	0x40ead679	7.3386807
162	0x3f55095b	0.832174
163	0xbdd9db49	-0.106375284
164	0x408aeae6	4.341174
165	0x3fe4c7f7	1.7873524
166	0x3fd87826	1.6911666
167	0x404603f7	3.093992
168	0xbfa04c6d	-1.2523323
169	0x3f72f828	0.94909906
170	0x409071a1	4.5138707
171	0x40407090	3.0068703
172	0x40b2867e	5.5789175
173	0x40248fc7	2.5712755
174	0x4051a65b	3.2757785
175	0x409a0915	4.8136086
176	0x408c2143	4.3790603
177	0x40a00f72	5.0018854
178	0x40a70e25	5.2204766
179	0x4113f3cd	9.247022
180	0x3f251c13	0.6449596
181	0x409190fc	4.5489483
182	0x4098218c	4.754095
183	0x3ec33297	0.38124534
184	0x4045563d	3.0833886
185	0xc023a238	-2.556776
186	0xbf52f7df	-0.8240947
187	0xbffc3b34	-1.9705567
188	0x40d81a5b	6.753217
189	0x40ce092b	6.438619
190	0x3d89c05c	0.06726143
191	0xbf08c047	-0.5341839
192	0xc0536a42	-3.3033605
193	0xbff91d5c	-1.9462085
194	0xc08e1ffb	-4.441404
195	0xbf7cdc82	-0.9877397
196	0xc0680a54	-3.6256304
197	0xbff0d48b	-1.8814863
198	0xbf2a1332	-0.6643554
199	0x3f05c573	0.5225441
200	0xc0be9977	-5.9562335
201	0xbfbba25a	-1.4658921
202	0xbebecaf3	-0.37264213
203	0xc0eb9ff3	-7.363275
204	0xbf54764c	-0.82993007
205	0xc017e47c	-2.3733206
206	0xc127a788	-10.478401
207	0xbc88ec08	-0.016714111
208	0xbef03abe	-0.46919817
209	0xc0a6f411	-5.2172933
210	0xbda14e5e	-0.078762755
211	0xc03e6247	-2.9747484
212	0xbf6a1b22	-0.9144765
213	0x3f0fb088	0.5612874
214	0xbfba0b60	-1.4534721
215	0xbfa859b4	-1.3152375
216	0xc0d608dd	-6.688582
217	0xbfafae2c	-1.3725028
218	0xc084123b	-4.1272254
219	0xc10bee04	-8.745609
220	0xc0db526d	-6.8538117
221	0xc0bdd58b	-5.9323173
222	0xc0448768	-3.0707645
223	0xc0a1d92b	-5.05776
224	0xc062df6f	-3.5448873
225	0xbfc132de	-1.5093648
226	0x3f277254	0.65408826
227	0xc0d1436b	-6.5394797
228	0xbf8637ba	-1.0485756
229	0xc008fb14	-2.1403246
230	0xbfbf446a	-1.4942753
231	0xc004f120	-2.077217
232	0xc082d1aa	-4.0880938
233	0xbd325140	-0.043534517
234	0xbe83e209	-0.2575839
235	0xbf600c2b	-0.87518567
236	0xbf13ed43	-0.5778391
237	0xc04b619b	-3.1778324
238	0xc0a1e7cc	-5.0595455
239	0xc00a6275	-2.1622593
240	0xbbb7140f	-0.005587108
241	0xbff9f124	-1.9526715
242	0xbfe51f90	-1.7900257
243	0xbf90096b	-1.1252874
244	0x3ea709c1	0.3262463
245	0x3cd54d1e	0.026037749
246	0xc083146e	-4.096244
247	0x3eb04533	0.34427795
248	0xc0212f5d	-2.5185158
249	0xbfc6371e	-1.548557
250	0xc0d32adf	-6.5989833
251	0xc076d65f	-3.8568342
252	0xc081cda9	-4.056355
253	0xc0465c4a	-3.0993829
254	0xc12d8eae	-10.847334
255	0x3c894f6d	0.016761506

fc2.bias f4 [32]
0	0xc0d6a675	-6.7078195
1	0xc0de0fb3	-6.9394164
2	0xc1c24f35	-24.288675
3	0xbe495df4	-0.19664747
4	0xc011cabd	-2.2779992
5	0x3fe86fc1	1.8159105
6	0x3fb9d80d	1.4519058
7	0xbec164d3	-0.37772235
8	0xc0488b10	-3.1334877
9	0xbe8e7652	-0.27824646
10	0xc010304c	-2.2529478
11	0xc1579ca2	-13.47574
12	0x3f9d22eb	1.2276281
13	0x3f29deb2	0.6635543
14	0xbd98ca83	-0.07460501
15	0x3f5067ce	0.81408393
16	0xc1828c9b	-16.318655
17	0x3fb940ec	1.4472938
18	0x3f950715	1.1642786
19	0x3f936afd	1.1517025
20	0xc0866db1	-4.20089
21	0xbe9decd9	-0.30844763
22	0xbd804dd9	-0.06264848
23	0x3eb16ec9	0.34654835
24	0x3e5c3db1	0.21507908
25	0xc03e821e	-2.9766917
26	0x3e719f06	0.23595819
27	0x3e352627	0.17690335
28	0x3fd4f014	1.6635766
29	0x3f9e61fd	1.2373654
30	0x3fc310a7	1.5239457
31	0x3f888fe9	1.0668918

fc3.weight f4 [1, 32]
0	0xbd3ae2e4	-0.045626536
1	0x3d59bfbe	0.053161375
2	0xbca609cd	-0.020268345
3	0x3d4bcb9f	0.049754735
4	0x3e74b052	0.23895386
5	0xbdb495a8	-0.08817607
6	0xbca737bf	-0.020412324
7	0x3e249e30	0.16075969
8	0x3dcde894	0.100541264
9	0x3da6a3bb	0.08136698
10	0x3e0c8929	0.13724197
11	0xbe1a7159	-0.15082301
12	0xbd9ba8be	-0.076005444
13	0xbc52cb9e	-0.012865929
14	0x3d9f1fb3	0.07769718
15	0xbdabdc63	-0.08391645
16	0xbd509538	-0.050923556
17	0xbd83963d	-0.0642514
18	0xbd886954	-0.06660715
19	0xbcc92ecd	-0.02455845
20	0x3e0e9177	0.13922678
21	0xbdf2a250	-0.11847365
22	0x3e840c93	0.25790843
23	0x3c787b19	0.0151660675
24	0x3e00d082	0.1257954
25	0x3dfe8e21	0.12429453
26	0x3d8749a4	0.06605843
27	0x3d381002	0.04493714
28	0xbd7b88e0	-0.06140983
29	0xbd6cfced	-0.057858396
30	0xbdb31267	-0.08743744
31	0xbd9b31e0	-0.07577872
