python model Testing/Training/best_steal_model.pt (torch, 48812 bytes, 7 tensors)

fc1.weight f4 [128, 7]
0	0xbd7ae959	-0.061257694
1	0xbefe1e04	-0.49632275
2	0xbbc95aaa	-0.006144841
3	0xbcd3d606	-0.02585889
4	0xbcf308ca	-0.029667277
5	0xbddf93a9	-0.10916836
6	0x3eabf9ab	0.3358892
7	0x3d901334	0.07034913
8	0x3e472f4c	0.19451636
9	0xbdb35c00	-0.08757782
10	0x3d6f21cf	0.05838185
11	0xbd0c0537	-0.03418466
12	0x3d8b8507	0.06812482
13	0xbef4dd5b	-0.4782513
14	0xbe389c55	-0.18028386
15	0x3dd2b231	0.102878936
16	0xbdc2b985	-0.09508041
17	0x3e165d6d	0.14684077
18	0xbde28459	-0.110603996
19	0xbd638183	-0.055543434
20	0x3ed3b06a	0.4134553
21	0x3e8d9325	0.27651325
22	0xbe046ab2	-0.12931326
23	0x3e9a83c9	0.3017867
24	0x3e945961	0.2897444
25	0xbe30e8b7	-0.17276274
26	0x3e454b82	0.19267085
27	0xbe948092	-0.2900434
28	0xbdcecb96	-0.10097425
29	0x3e25bdfe	0.16185758
30	0xbe05b27d	-0.13056369
31	0x3dee42a4	0.116338044
32	0x3e374a93	0.17899542
33	0x3e5da447	0.21644698
34	0xbddcc3bf	-0.10779523
35	0xbc05672b	-0.008142273
36	0x3e205faa	0.15661493
37	0xbcdd53c2	-0.027017478
38	0xbe5cfde2	-0.21581224
39	0x3e29c9d2	0.16580895
40	0x3d59d769	0.053183947
41	0xbe63f220	-0.22260332
42	0x3e217515	0.1576732
43	0xbe76c7ff	-0.2409973
44	0xbd971cce	-0.07378541
45	0xbda145e7	-0.07874661
46	0x3d97a1ff	0.07403945
47	0xbe3907de	-0.18069407
48	0xbf091e08	-0.5356145
49	0xbe17be1f	-0.14818619
50	0x3e6ef48d	0.23335476
51	0x3d2a764d	0.041616727
52	0xbd80c42f	-0.06287419
53	0xbdc127b1	-0.09431399
54	0x3d48b5d4	0.04900153
55	0x3d2bba65	0.041925807
56	0x3da65ef7	0.08123582
57	0xbe3a9bb8	-0.18223464
58	0x3e49f069	0.19720615
59	0x3e5547f4	0.20828229
60	0xbccddaef	-0.02512881
61	0xbde76a34	-0.112995535
62	0x3e87d607	0.26530477
63	0xbdf629f6	-0.12019722
64	0x3db10a93	0.08644595
65	0x3e46e273	0.19422321
66	0x3e856823	0.26056013
67	0xbd89b843	-0.06724598
68	0x3e69a3af	0.22816347
69	0xbed798c1	-0.4210873
70	0xbcbfd003	-0.023414617
71	0x3b929cff	0.004474282
72	0xbe9c8040	-0.30566597
73	0xbdc59c9b	-0.09649011
74	0xbe453e36	-0.19262013
75	0x3e86c1ba	0.26319677
76	0xbe2f674d	-0.1712925
77	0x3d50eef6	0.05100914
78	0xbd36418a	-0.044496097
79	0xbdfae6d4	-0.12251058
80	0x3e775fa6	0.2415758
81	0xbe92b0d6	-0.2865054
82	0x3d4ec53b	0.050481062
83	0x3eb250e3	0.34827337
84	0x3e15e0f3	0.14636593
85	0xba60893d	-0.0008565372
86	0xbd7f9c23	-0.062404763
87	0xbcd7a687	-0.026324524
88	0xbe67d1f9	-0.22638692
89	0x3e9000f0	0.28125715
90	0xbd908d48	-0.07058197
91	0xbe259eb4	-0.16173822
92	0x3e270a1c	0.1631245
93	0xbd4a42ed	-0.04938023
94	0xbdd28eab	-0.10281118
95	0x3df3843c	0.11890456
96	0xbd1fd309	-0.03901962
97	0xbec8493f	-0.39118382
98	0xbde34386	-0.110968634
99	0xbe5e8799	-0.21731414
100	0xbe94bf9f	-0.29052445
101	0xbcfe1543	-0.031015998
102	0x3e5eff9c	0.21777195
103	0x3da3e150	0.08001959
104	0xbd8e625d	-0.06952355
105	0xbe2545c9	-0.16139902
106	0xbe9a3f32	-0.3012634
107	0x3ea92f81	0.33044055
108	0xbe09cea5	-0.13457735
109	0x3d5f2af0	0.054484308
110	0x3e002d7c	0.12517351
111	0x3e749feb	0.23889129
112	0xbbb593ac	-0.0055412855
113	0xbe7dbf03	-0.24779896
114	0xbdc10561	-0.09424854
115	0xbe010581	-0.12599756
116	0xbd615ffe	-0.055023186
117	0x3d479464	0.0487255
118	0x3eb5cfab	0.3551
119	0xbdfe3bd0	-0.12413752
120	0xbcf28588	-0.029604688
121	0xbd1edcd2	-0.03878481
122	0xbcc875e7	-0.024470283
123	0x3ccf9df9	0.025343882
124	0xbc8b92f6	-0.01703785
125	0x3e8bc0f5	0.27295652
126	0x3e162b3b	0.14664929
127	0xbf07ca77	-0.5304331
128	0x3e7fc5df	0.24977826
129	0x3e0db3e4	0.13838154
130	0x3e846d9e	0.2586488
131	0x3e0f28c8	0.139804
132	0x3ebf3598	0.37345576
133	0xbe8e552e	-0.27799362
134	0x3dd9c08c	0.106324285
135	0xbd829673	-0.06376352
136	0x3e26e04a	0.16296497
137	0x3e3e5d2a	0.18590227
138	0xbea27b62	-0.3173476
139	0x3e829189	0.2550166
140	0xbe4e5d06	-0.20152673
141	0x3e920e80	0.28526688
142	0xbd9f1a7f	-0.077687256
143	0x3ddc775e	0.10764955
144	0x3dac48a5	0.08412293
145	0xbe6ad155	-0.22931416
146	0xbed38fac	-0.4132055
147	0x3e333914	0.17502242
148	0x3e29f217	0.16596256
149	0xbe9a0637	-0.30082867
150	0xbde13a43	-0.10997441
151	0xbe78fed9	-0.24315967
152	0xbd05f888	-0.03270772
153	0x3ea1df00	0.31615448
154	0x3e5d3c2f	0.2160499
155	0xbcede1c3	-0.029038316
156	0x3e47ebb0	0.19523501
157	0xbdd4ea6a	-0.103962734
158	0xbc1217d2	-0.008916812
159	0xbdd2af7a	-0.10287376
160	0x3ea484b7	0.32132503
161	0xbda37ec4	-0.07983163
162	0xbeeeaf6b	-0.46618208
163	0x3e1a7d1f	0.15086792
164	0x3d193ee8	0.037413508
165	0xbd87450c	-0.066049665
166	0xbbcea82e	-0.0063066697
167	0x3ea1d7c4	0.3160993
168	0xbdc8cb2b	-0.09804376
169	0x3e6968e9	0.22793926
170	0x3e113f8f	0.14184402
171	0x3c7ad012	0.015308397
172	0xbd812885	-0.063065566
173	0x3ce13d86	0.027495157
174	0xbee9d950	-0.4567361
175	0xbe628985	-0.22122772
176	0x3e87dcff	0.26535794
177	0x3d2c9b92	0.04214055
178	0x3dd5468e	0.10413848
179	0xbd855507	-0.06510358
180	0x3d50f1c5	0.05101182
181	0xbe79c892	-0.24392918
182	0x3e22e2a4	0.15906769
183	0xbdbc76c6	-0.09202342
184	0x3e10cef5	0.14141448
185	0x3e79fe19	0.24413337
186	0x3e7161dd	0.23572488
187	0xbd940257	-0.07227009
188	0xbe89016a	-0.2675889
189	0xbc1a0ece	-0.009402944
190	0x3e87c5d6	0.26518124
191	0x3e6c9946	0.23105344
192	0x3e2b83b4	0.1674946
193	0xbe0b1a23	-0.13584189
194	0xbd7ad13c	-0.061234698
195	0xbeb3b82f	-0.35101458
196	0x3e7d7dc5	0.24755009
197	0xbead62e5	-0.33864513
198	0xbe38453a	-0.17995158
199	0xbecf1324	-0.4044429
200	0x3e6b26cb	0.22964017
201	0xbe8b3634	-0.2718979
202	0xbe223115	-0.15839036
203	0x3d87086b	0.065934025
204	0xbede100b	-0.43371615
205	0x3db06c28	0.08614379
206	0x3dc26055	0.0949103
207	0x3d061f41	0.03274465
208	0x3ce36354	0.027757324
209	0x3e0cd454	0.13752872
210	0x3dd78549	0.10523469
211	0xbf14736a	-0.5798861
212	0xbe61d22f	-0.22052835
213	0xbde9b902	-0.114122406
214	0x3ddfca65	0.109272756
215	0xbdd1ddb8	-0.102473676
216	0x3efa2774	0.48858225
217	0x3e119994	0.14218742
218	0x3d814ba5	0.06313256
219	0x3e0a2247	0.13489638
220	0xbebcfd87	-0.36912176
221	0x3ea6f964	0.32612145
222	0x3e6713b3	0.22566108
223	0x3e730fb8	0.23736465
224	0x3decdc2a	0.115654305
225	0x3ca4598a	0.020062227
226	0xbe4f71b6	-0.20258221
227	0xbe4b6636	-0.19863209
228	0x3e4d1a8f	0.20029663
229	0x3d870cd6	0.06594245
230	0x3ee048bc	0.43805492
231	0x3e153001	0.14569093
232	0xbf106b69	-0.56413895
233	0xbdfd682c	-0.12373385
234	0xbe14fc97	-0.1454948
235	0x3c25e1aa	0.010124603
236	0x3d85539c	0.06510088
237	0x3eff84d6	0.49906033
238	0xbe2be1a5	-0.16785295
239	0xbef281f4	-0.4736477
240	0x3e1b58e1	0.15170623
241	0x3e618f6b	0.22027366
242	0xbe5c6869	-0.21524204
243	0x3dcd12f8	0.100133836
244	0x3e0c7b87	0.13718997
245	0x3e1e64d3	0.15468149
246	0x3d880355	0.066412605
247	0x3e2ad828	0.1668402
248	0x3e11dc13	0.14244108
249	0xbe28a0c7	-0.16467582
250	0xbdeaf762	-0.11472966
251	0x3eeafa74	0.45894206
252	0x3d02cfc1	0.03193641
253	0xbf060453	-0.5235035
254	0xbda0d251	-0.07852615
255	0x3d956322	0.07294299

fc1.bias f4 [128]
0	0x3c810200	0.015748024
1	0xbec151fb	-0.3775786
2	0x3f09b343	0.53789157
3	0xbebc81f7	-0.36817905
4	0xbe295f4a	-0.16540256
5	0xbd939946	-0.07206969
6	0xbe49a2d7	-0.19691025
7	0x3c8da2eb	0.0172896
8	0x3e954eee	0.2916178
9	0xbedde006	-0.4333498
10	0xbeabf56c	-0.3358568
11	0x3f078d83	0.52950305
12	0xbe8fdf1f	-0.28099915
13	0xbc1d06e0	-0.009584159
14	0x3cf79a5a	0.030224968
15	0x3ec199e2	0.37812716
16	0x3ea78e97	0.32725975
17	0x3eee09a2	0.46491724
18	0x3d4c921e	0.049944036
19	0xbe26d2e6	-0.16291389
20	0xbf0f2d5a	-0.55928576
21	0xbe89b369	-0.26894692
22	0x3d9a7a69	0.07542879
23	0x3e33cf5c	0.1755957
24	0xbef9f51b	-0.48819813
25	0xbe45269b	-0.19253008
26	0xbe99c00e	-0.3002934
27	0xbea9cec1	-0.33165553
28	0x3e134d41	0.14384939
29	0x3e83c78c	0.2573818
30	0xbe4dcc5c	-0.20097488
31	0x3d674d77	0.05647036
32	0x3ef14dcc	0.47129667
33	0xbe51b2ff	-0.20478438
34	0xbc0aa8bb	-0.00846308
35	0x3e0fd8bb	0.1404752
36	0xbdc909e3	-0.09816339
37	0x3e5ca99c	0.21549076
38	0x3f23071e	0.63682735
39	0xbe3979b1	-0.18112828
40	0xbebb3c05	-0.3656923
41	0x3e132d91	0.14372851
42	0x3eb584da	0.3545292
43	0x3d6f77b7	0.05846378
44	0x3e2ca5c3	0.16860108
45	0xbe3aca4d	-0.18241234
46	0xbecf2a45	-0.40461937
47	0x3eed47a9	0.46343735
48	0x3bfcea7e	0.0077183833
49	0xbe86b3f8	-0.2630918
50	0xbe2d55c0	-0.16927242
51	0xbe9118c8	-0.2833922
52	0xbd0f3f6c	-0.034972593
53	0xbe78aa81	-0.24283792
54	0x3e935d05	0.28781906
55	0xbe1c6699	-0.15273513
56	0xbab2d342	-0.0013643282
57	0xbea24cc1	-0.31699184
58	0xbe8e19b8	-0.27753997
59	0x3e571e83	0.21007733
60	0xbe7dafd4	-0.24774104
61	0x3ec5f81d	0.38665858
62	0x3eba8fc2	0.36437804
63	0xbeb6f654	-0.35734808
64	0x3e8239a7	0.2543461
65	0x3ccf9274	0.025338389
66	0x3ef25b10	0.473351
67	0x3e634866	0.22195587
68	0xbe1f0622	-0.15529683
69	0x3ea50c0e	0.3223576
70	0xbe5be6ba	-0.21474734
71	0x3e575f5a	0.21032467
72	0xbd14cc20	-0.03632748
73	0x3eba6be8	0.3641045
74	0x3b94e74c	0.0045441743
75	0x3c4b083f	0.012392103
76	0xbe8a28fa	-0.26984388
77	0xbe760931	-0.24026944
78	0x3e95701a	0.2918709
79	0xbe5be64a	-0.21474567
80	0x3e74709a	0.23871079
81	0xbec740f7	-0.38916752
82	0x3e768f34	0.24078065
83	0xbeca2ee4	-0.394889
84	0x3f009f9e	0.50243556
85	0xbe889a46	-0.266802
86	0x3ef93d67	0.4867966
87	0x3d6e328e	0.05815368
88	0xbda1c9f6	-0.07899849
89	0xbe8257dd	-0.2545766
90	0x3edf8048	0.43652558
91	0x3d9e1d35	0.077204145
92	0x3ef80813	0.4844366
93	0xbe2ce892	-0.16885594
94	0xbe9da9c9	-0.30793598
95	0x3ea17c31	0.31540063
96	0xbe5cbbef	-0.21556066
97	0x3ebbfeac	0.36717737
98	0x3d1fa2cb	0.03897361
99	0xbeeb5a94	-0.45967543
100	0x3e14860e	0.14504263
101	0x3e86ebee	0.26351875
102	0xbe2de0f7	-0.16980349
103	0xbdbd3748	-0.0923906
104	0xbe50dbd5	-0.2039636
105	0xbe50e89c	-0.20401233
106	0x3e62cd71	0.22148682
107	0xbf0b60f2	-0.544448
108	0x3db32293	0.08746829
109	0xbeb8ec58	-0.36117816
110	0xbe12b410	-0.14326501
111	0x3ead8fdd	0.3389882
112	0x3e858d6d	0.26084462
113	0xbe14d133	-0.14532928
114	0xbe584cc6	-0.21123037
115	0x3d41de39	0.04733107
116	0x3eeb7641	0.45988658
117	0xbdaea83c	-0.08528182
118	0x3ebdb872	0.37054783
119	0xbe2a64cb	-0.16640012
120	0x3e30cfb3	0.17266731
121	0x3e06cc39	0.13163842
122	0xbecf138c	-0.404446
123	0xbd2f7c52	-0.04284317
124	0xbe360243	-0.177743
125	0xbed0ab8e	-0.40755886
126	0xbecc501e	-0.39904875
127	0xbe53d3ee	-0.20686314

fc2.weight f4 [64, 128]
0	0xbd154aea	-0.036448397
1	0xbd4ede0d	-0.050504733
2	0x3d5c0ae5	0.053721327
3	0xbdb05a94	-0.086110264
4	0x3d9068cd	0.07051239
5	0xbd5bc8ae	-0.05365818
6	0xbdb41599	-0.08793182
7	0xbceb524f	-0.028725771
8	0xbdba905f	-0.09109568
9	0xbcec69d1	-0.028859051
10	0xbdbb97cb	-0.091598116
11	0xbde7757e	-0.11301707
12	0x3c01e11d	0.007927206
13	0xbc9105a3	-0.017702883
14	0x3c529a48	0.012854166
15	0x3d1e1e04	0.038602844
16	0xbe0e7968	-0.139135
17	0x3b65b01f	0.0035047603
18	0xbc43aec0	-0.011943519
19	0x3c7e05f5	0.01550435
20	0x3c3f14b6	0.011662653
21	0xbc05992c	-0.008154195
22	0xbe0dd5ea	-0.13851133
23	0xbc58f979	-0.013243073
24	0x3dbd5754	0.09245172
25	0xbdf7a0ae	-0.12091194
26	0xbdd95361	-0.106116064
27	0xbcc646f4	-0.024203755
28	0xbd92ae3b	-0.07162138
29	0x3c8d792b	0.017269691
30	0xbdfb00a6	-0.12255983
31	0xbd8c4d78	-0.068507135
32	0xbce17da9	-0.02752574
33	0xbe06aef1	-0.13152672
34	0xbd51bfcb	-0.0512083
35	0xbdad6cc5	-0.08468012
36	0xbdeecc2d	-0.11660037
37	0xbd6be1a2	-0.057588227
38	0xbe7e4115	-0.24829514
39	0xbd6ec499	-0.05829296
40	0xbd87facd	-0.06639633
41	0x3cfc3b5c	0.030790024
42	0xbe32d914	-0.17465621
43	0x3dfa4dff	0.12221908
44	0xbcf00470	-0.029298991
45	0xbdbe5260	-0.092930555
46	0xbd16a150	-0.036774933
47	0xbda14549	-0.07874543
48	0xbda135d1	-0.07871593
49	0x3d893ead	0.067014076
50	0xbb3ba161	-0.0028630125
51	0x3d2aeed2	0.041731663
52	0xbde7407b	-0.112915955
53	0xbda82cbb	-0.08211657
54	0xbe18af53	-0.14910631
55	0x3dd26283	0.10272696
56	0xbdbec92b	-0.093157135
57	0xbdfdb636	-0.123882696
58	0xbd3947fd	-0.04523467
59	0xbcaef76f	-0.02135822
60	0xbdc13d92	-0.09435572
61	0xbdca369a	-0.09873696
62	0x3d75c7ff	0.060005184
63	0x3cdfb291	0.027306827
64	0x3d5f40b3	0.05450506
65	0x3b2b846b	0.0026171457
66	0xbac1d83d	-0.0014789175
67	0xbdddaa0e	-0.10823451
68	0xbe0aa170	-0.13538146
69	0xbcc1b778	-0.023647055
70	0x3c71be4b	0.014754842
71	0xbd9f9864	-0.07792738
72	0x3c951eef	0.018203227
73	0xbe545d45	-0.20738705
74	0xbd9504b1	-0.072762854
75	0xbe5f6e97	-0.2181953
76	0xbde26e72	-0.11056222
77	0xbe0d8e50	-0.13823819
78	0xbd7a248a	-0.061070003
79	0xbdb90bd2	-0.09035458
80	0xbe22a74e	-0.15884134
81	0x3d407c34	0.04699345
82	0x3d5db88d	0.05413108
83	0xbcc62756	-0.024188679
84	0xbd9bab52	-0.07601036
85	0xbdbfdff2	-0.09368886
86	0xbd094159	-0.033509586
87	0xbd3e87b6	-0.046516143
88	0xbcd9f831	-0.026607605
89	0xbe09e1d7	-0.13465057
90	0xbe4b9ab1	-0.19883229
91	0xbe0f9347	-0.14021026
92	0x3a990f7a	0.0011677586
93	0x3c2de181	0.010612846
94	0xbdafdeb4	-0.08587399
95	0xbab4c610	-0.0013791937
96	0xbdc3903f	-0.09548997
97	0xbe29b8d2	-0.1657441
98	0x3d3f3467	0.046680834
99	0xbd272b23	-0.040812623
100	0xbe0491ba	-0.12946215
101	0x3ce0365e	0.027369674
102	0xbd99a8d3	-0.07502904
103	0x3dbf1398	0.09329909
104	0x3d1d6588	0.038426906
105	0x3c759eea	0.014991501
106	0xbaf1b9ef	-0.0018442253
107	0xbcba8ae4	-0.022771306
108	0xbd77f2aa	-0.060534157
109	0x3af2f876	0.0018537182
110	0x3d84986f	0.06474387
111	0xbd3e331a	-0.046435453
112	0x3c8aea05	0.016957292
113	0xbd876b6e	-0.066122875
114	0xbdc38c3b	-0.09548231
115	0x3c2f9e03	0.010718825
116	0xbdde2025	-0.10845975
117	0xbd6cad66	-0.057782553
118	0xbce3be82	-0.027800802
119	0xbcc92f8d	-0.024558807
120	0xbe077621	-0.13228656
121	0xbda48925	-0.08033971
122	0x3df0c970	0.11757171
123	0xbda0510d	-0.07827959
124	0xbc16c50b	-0.009202252
125	0x3e22d1c3	0.1590033
126	0xbd6d3480	-0.057911396
127	0x3a8aed28	0.0010599243
128	0x3a726c46	0.00092477014
129	0xbd2b9356	-0.041888557
130	0x3dd41a72	0.103566065
131	0xbe084693	-0.13308172
132	0xbd13a9e3	-0.03605069
133	0xbd50d0e5	-0.050980467
134	0xbcfc8e98	-0.030829713
135	0xbd989cc9	-0.074517794
136	0xbbcb93e4	-0.0062126983
137	0xbdb80538	-0.089853704
138	0x3d825657	0.06364124
139	0x3db76466	0.08954696
140	0x3d567259	0.052355144
141	0x3d567ac6	0.05236318
142	0x3d8fa323	0.07013538
143	0x3da99b8d	0.08281622
144	0xbce811bf	-0.028328774
145	0xbc953e3f	-0.018218158
146	0x3d81bc0c	0.06334695
147	0x3d28ec54	0.041241005
148	0xbe1789ff	-0.14798735
149	0xbcdd152d	-0.026987636
150	0x3ddb347a	0.107033685
151	0x3dcacd15	0.099023975
152	0xbe03f169	-0.1288506
153	0x3b8a02fb	0.004211781
154	0xbc9f3820	-0.019435942
155	0xbdcffc5b	-0.10155555
156	0x3d871e8a	0.06597622
157	0x3de79a55	0.113087334
158	0x3dca0836	0.09864847
159	0xbddef4a4	-0.10886505
160	0x3d991fa1	0.07476736
161	0x3e03393a	0.12814799
162	0x3cc1236b	0.023576459
163	0x3d1e6ea0	0.03867972
164	0x3debe50c	0.115182966
165	0xbbafb271	-0.005361848
166	0x3d953bab	0.072867714
167	0x3df6daec	0.12053475
168	0xbd917a06	-0.07103352
169	0xbd12cd62	-0.0358404
170	0x3e06c592	0.13161305
171	0xbd7d30d5	-0.061814148
172	0x3cdbdba9	0.02683814
173	0x3d39f995	0.045404036
174	0xbcce5b3e	-0.025189992
175	0x3d1003b1	0.03515977
176	0x3db67cdb	0.08910533
177	0xbd7a356e	-0.06108611
178	0x3e52bac5	0.2057906
179	0x3dcc41b3	0.09973469
180	0xbd27d5f3	-0.040975522
181	0x3db662fb	0.08905598
182	0x3df05f3c	0.117369145
183	0x3c5ef2c7	0.013607687
184	0xbd24c879	-0.040230248
185	0x3c2fd7c5	0.010732596
186	0xbdb7b974	-0.08970919
187	0xbcdbdced	-0.026838744
188	0xbb37684f	-0.0027985757
189	0x3e122d84	0.14275175
190	0x3da1f38d	0.07907782
191	0xbdeeb920	-0.116564035
192	0x3c2597f7	0.010107032
193	0x3cac2cd9	0.021017479
194	0x3bce46ed	0.006295076
195	0xbc8e1e35	-0.017348388
196	0x3d0d050d	0.034428645
197	0xbd5566e9	-0.052100096
198	0x3c2fc7a9	0.010728755
199	0xbd7b8d71	-0.061414186
200	0x3dd36478	0.10321897
201	0x3d78d7c2	0.060752638
202	0x3d6de2c5	0.058077592
203	0xbd903890	-0.070420384
204	0xbcfa156c	-0.030527793
205	0x3e74ee0b	0.23918931
206	0xbc84dda9	-0.016218977
207	0x3d9a718b	0.07541188
208	0x3d9ed056	0.07754581
209	0xbde40b70	-0.11134994
210	0x3d935d2f	0.07195508
211	0x3cab7281	0.020928623
212	0x3e021366	0.12702712
213	0x3c458e0d	0.012057793
214	0x3e1c68cb	0.1527435
215	0x3d8cb079	0.06869597
216	0xbd6f93d3	-0.058490586
217	0xbdd2f3df	-0.10300421
218	0xbd82f76b	-0.063948475
219	0x3dc51349	0.09622819
220	0x3c15e3ec	0.009148579
221	0x3e3d2153	0.18469743
222	0xbd18958c	-0.037251994
223	0xbd25bf46	-0.040465616
224	0x3d520061	0.051269893
225	0x3daa755d	0.083231665
226	0xbbb3a8c8	-0.005482767
227	0xbe0490c4	-0.12945849
228	0x3dec2371	0.115301974
229	0xbd1e8e23	-0.03870977
230	0xbd747813	-0.059684824
231	0xbc86b29a	-0.016442586
232	0xbb75cd2b	-0.0037506323
233	0x3d0c4a54	0.034250572
234	0xbd08dbfb	-0.033412915
235	0xbd98b5a6	-0.07456522
236	0x3e23ed3c	0.16008466
237	0x3ca87cfc	0.02056741
238	0xbc4b96a3	-0.012426051
239	0xbc1c863a	-0.0095534865
240	0xbbc1b6b5	-0.005911673
241	0x3d4739f4	0.048639253
242	0x3d899d71	0.06719483
243	0x3e2e5195	0.17023309
244	0xbd57c44d	-0.05267744
245	0x3d4da698	0.050207704
246	0xbd685c18	-0.056728452
247	0xbca41ff7	-0.020034773
248	0x3e20a089	0.1568624
249	0xbca6fdca	-0.020384688
250	0xbe15e86f	-0.14639448
251	0xbd134ebd	-0.035963763
252	0x3d3b4274	0.04571767
253	0xbde42faa	-0.11141904
254	0x3bdafe57	0.0066831517
255	0x3a96a091	0.0011491944

fc2.bias f4 [64]
0	0xbd8e1d37	-0.06939166
1	0x3e36bc27	0.17845212
2	0xbd8275fe	-0.063701615
3	0x3dc86c0f	0.097862355
4	0x3e4c8747	0.19973479
5	0x3e7e912a	0.24860063
6	0x3e929237	0.28627178
7	0xbe0d9e88	-0.13830006
8	0x3d98bc65	0.074578084
9	0xbcc20825	-0.023685524
10	0x3d9562f5	0.07294265
11	0x3e40e1ab	0.18836085
12	0xbe0dab73	-0.13834934
13	0x3e760de0	0.2402873
14	0x3e862a02	0.26203924
15	0xbe131af5	-0.14365752
16	0x3eb60a19	0.3555458
17	0x3e669dc4	0.2252112
18	0xbd1546f0	-0.036444604
19	0x3bbe5ebf	0.0058096345
20	0x3daefafe	0.08543967
21	0x3e1c00e0	0.15234709
22	0x3e1b8748	0.15188324
23	0x3e46985e	0.19394061
24	0x3e8284ad	0.2549185
25	0x3dc5682e	0.09639011
26	0x3e369579	0.17830457
27	0x3e8eb823	0.2787486
28	0x3e2df15d	0.16986604
29	0x3dcd9c86	0.1003962
30	0x3e7523ea	0.23939481
31	0xbd6a1b07	-0.05715468
32	0x3e5cb461	0.21553184
33	0x3e768197	0.24072872
34	0x3e710d94	0.23540336
35	0xba57d292	-0.00082329765
36	0x3e2c30d2	0.16815498
37	0x3e3eb0fa	0.18622199
38	0xbd40eada	-0.047098972
39	0xbdbe0f08	-0.09280211
40	0x3e6194b4	0.22029382
41	0x3e00338c	0.12519664
42	0xbcfcf8a1	-0.030880274
43	0x3d4abab5	0.049494464
44	0x3e5bb9ed	0.21457644
45	0x3e9b9c6d	0.3039278
46	0x3e4d7505	0.2006417
47	0x3e8f007d	0.2793006
48	0x3e40c8c1	0.18826582
49	0xbcda00c8	-0.0266117
50	0xbcb31410	-0.021860152
51	0xbe207bf4	-0.15672284
52	0xbcc38135	-0.023865322
53	0xbd29d0a2	-0.041458733
54	0x3db4b4f8	0.088235795
55	0x3e039511	0.12849833
56	0xbdf9d55f	-0.121989004
57	0x3ddba22b	0.107242905
58	0xbd494e82	-0.049147137
59	0x3d89264e	0.06696759
60	0xbda1fcdc	-0.07909557
61	0x3e864396	0.2622344
62	0xbdff2e9b	-0.12460061
63	0x3ea2b124	0.31775773

fc3.weight f4 [32, 64]
0	0xbcfe9f01	-0.031081678
1	0x3cbabbdc	0.022794656
2	0x3d6306ab	0.05542628
3	0xbabbf2ec	-0.0014339364
4	0xbdb9b5e5	-0.09067897
5	0xbe0e94d0	-0.13923955
6	0xbe444d3f	-0.19170092
7	0x3ce0a174	0.027420737
8	0xbcdbcaa5	-0.026830027
9	0xbdf9173d	-0.121626355
10	0xbe20e060	-0.15710592
11	0xbdeab2d9	-0.11459894
12	0xbdc254d4	-0.09488836
13	0x3d6e2336	0.05813905
14	0xbe2e015b	-0.16992705
15	0x3cd5e868	0.026111796
16	0x3d32d0c4	0.043656126
17	0x3d2fb800	0.042900085
18	0x3daa514b	0.08316287
19	0xbdb8e20c	-0.0902749
20	0xbd1d6be0	-0.038432956
21	0xbde0eadd	-0.109822966
22	0xbc42b606	-0.011884218
23	0xbe1a3a3e	-0.1506128
24	0xbe84cad1	-0.25935987
25	0xbd2f0897	-0.0427328
26	0xbe03b814	-0.12863189
27	0xbe5de557	-0.21669517
28	0xbe2bf7ef	-0.16793798
29	0xbe127851	-0.1430371
30	0xbe1e315a	-0.15448514
31	0xbdcd292c	-0.100176185
32	0xbdd962b7	-0.106145315
33	0x3cbd6858	0.023121044
34	0xbcc54575	-0.024080971
35	0x3dcf45d1	0.10120738
36	0x3c2e1a05	0.010626321
37	0x3c2c2155	0.010505994
38	0xbd4682c4	-0.04846455
39	0x3d73e5d8	0.059545368
40	0xbc823cb5	-0.015898088
41	0xbe3ac8a6	-0.18240604
42	0x3d446332	0.047946163
43	0x3d82420f	0.06360256
44	0xbe14cfe7	-0.14532433
45	0xbd9bbab6	-0.07603972
46	0xbdb00f7e	-0.08596705
47	0xbe23972a	-0.15975633
48	0xbca14447	-0.019685877
49	0x3cdc84bd	0.026918763
50	0xbdbaba59	-0.09117574
51	0x3d8e288e	0.06941329
52	0x3db78fa9	0.08962948
53	0x3ca0ce81	0.019629719
54	0x3da0ff0e	0.07861148
55	0xbe5942db	-0.2121691
56	0xbc31ffa4	-0.010864172
57	0xbdeb0b22	-0.11476733
58	0x3d34157c	0.0439658
59	0xbd7acad7	-0.0612286
60	0x3d5f25ea	0.054479517
61	0xbd218ed0	-0.039442837
62	0xbdd59d68	-0.104304135
63	0x3dbc3c9d	0.091912486
64	0x3dc18f66	0.09451179
65	0xbc1ff311	-0.009762541
66	0xbd1465b7	-0.036229815
67	0x3d126e7b	0.035749894
68	0xbcb813a6	-0.022470307
69	0xbe182edc	-0.14861625
70	0xbca049f6	-0.019566517
71	0x3d08d742	0.03340841
72	0xbdb473c2	-0.088111416
73	0xbc865dc8	-0.01640214
74	0x3ca92f0e	0.02065232
75	0xbc8710e2	-0.016487543
76	0x3cd3df19	0.025863217
77	0xbd9d902a	-0.07693513
78	0xbd1d8a80	-0.038462162
79	0x3db62e2b	0.088955246
80	0x3dabb45e	0.08384012
81	0x3dde4873	0.10853662
82	0xbe6ba7b1	-0.23013188
83	0xbde55947	-0.11198669
84	0xbddfe0db	-0.1093156
85	0xbd677343	-0.056506407
86	0xbd82d309	-0.06387908
87	0xbdf14126	-0.11780004
88	0xbe27b4c9	-0.16377558
89	0xbdf8761f	-0.12131905
90	0xbb2dad2f	-0.002650093
91	0xbe14d157	-0.14532982
92	0xbe23f257	-0.16010414
93	0xbdf08d96	-0.117457554
94	0xbd0d822f	-0.03454798
95	0xbe105ff9	-0.1409911
96	0xbd856e8d	-0.065152265
97	0xbd646650	-0.055761635
98	0xbd741d64	-0.05959834
99	0x3dd4d3a9	0.103919335
100	0xbda9be22	-0.08288218
101	0xb9cda672	-0.00039224658
102	0xbe026ddd	-0.12737222
103	0x3db3e689	0.087842055
104	0xbdc5d4ac	-0.096597046
105	0xbdd00d6a	-0.101588085
106	0x3daa865f	0.083264105
107	0xbd8fb50c	-0.07016954
108	0xbd1c4311	-0.038149897
109	0xbc759a81	-0.01499045
110	0xbdf68791	-0.12037576
111	0xbe088d7d	-0.13335223
112	0xbe0d9e61	-0.13829948
113	0xbcaa4068	-0.020782664
114	0x3db3f5ae	0.08787094
115	0x3aa74291	0.0012760927
116	0xbd848335	-0.06470338
117	0x3dee0301	0.11621667
118	0xbdddaf83	-0.10824492
119	0xbd4b5fd1	-0.049651925
120	0x3dbc6d08	0.092004836
121	0xbce8b2e9	-0.028405624
122	0x3dae6a28	0.085163414
123	0x3da43a62	0.08018948
124	0x3e04f87a	0.12985411
125	0xbe080e14	-0.1328662
126	0x3d9d1810	0.07670605
127	0xbc7cc03c	-0.015426692
128	0xbdfe45e3	-0.124156736
129	0x3df8f7d0	0.121566415
130	0x3d3c9f53	0.04605038
131	0xbb154cb6	-0.002278132
132	0x3d7375c0	0.059438467
133	0x3d833a0f	0.06407558
134	0xbd1bd88e	-0.03804832
135	0xbe3057cd	-0.17220993
136	0x3e1a6c36	0.15080342
137	0x3d44327a	0.0478997
138	0x3df03ccd	0.11730347
139	0xbd53c9f0	-0.051706254
140	0x3cd426b1	0.025897356
141	0xbd6d1219	-0.057878587
142	0x3d78f6c6	0.060782216
143	0x3c3b0293	0.011414188
144	0x3d301cb1	0.042996112
145	0xbc842d0f	-0.016134767
146	0xbddad182	-0.10684492
147	0xbdefcf70	-0.117094874
148	0x3db36293	0.08759036
149	0xbd753027	-0.059860375
150	0xbd4c35f2	-0.049856134
151	0xbdae7b4b	-0.0851961
152	0x3d8f745f	0.07004618
153	0x3dd16c92	0.10225786
154	0x3d8bdabb	0.06828829
155	0x3dade077	0.08490079
156	0x3da1ff48	0.07910019
157	0x3d56b3a3	0.05241741
158	0x3da882a2	0.08228041
159	0xbd916208	-0.07098776
160	0x3dc31499	0.09525413
161	0x3e1353a8	0.14387381
162	0xbd907cc3	-0.070550464
163	0xbdb1a4b9	-0.086739965
164	0x3de02f97	0.10946577
165	0xbd26e474	-0.040745214
166	0xbd9a701f	-0.07540917
167	0xbc47fd45	-0.01220638
168	0x3dd68e11	0.10476316
169	0x3d778221	0.060426835
170	0x3d4005dc	0.046880588
171	0xbc34d1c4	-0.01103634
172	0x3df5836b	0.119879566
173	0x3df05e1c	0.117367
174	0xbc36e3b8	-0.011162691
175	0x3db75132	0.08951034
176	0x3d83056c	0.063975185
177	0x3d24d8d7	0.040245857
178	0x3ddf1e9d	0.10894511
179	0xbe13d02c	-0.1443488
180	0x3daf1b8a	0.085501745
181	0x3d9a654a	0.075388506
182	0x3dd36ae1	0.1032312
183	0xbd6b1d1d	-0.05740081
184	0xbccdf506	-0.02514125
185	0x3d977186	0.073947
186	0xbda91c94	-0.08257404
187	0x3d80d562	0.062906995
188	0xbd2aefe1	-0.041732673
189	0xbc939afa	-0.018018235
190	0x3dd6046f	0.104500644
191	0x3d5e7e75	0.054319818
192	0x3d4bcb73	0.04975457
193	0xbcdf2253	-0.027238047
194	0x3c9ac540	0.018892884
195	0x3d80b504	0.06284526
196	0x3d9f69d8	0.0778386
197	0xbcefe97d	-0.02928614
198	0x3d5001f2	0.050783105
199	0xbe3c1b9e	-0.1836991
200	0xbcf0f08d	-0.029411579
201	0xbccd678b	-0.025073787
202	0x3e079e73	0.13244037
203	0xbcb4896c	-0.022038184
204	0xbd64c393	-0.055850577
205	0x3e197f4f	0.1498997
206	0x3e1c7900	0.15280533
207	0xbda18b1d	-0.07887862
208	0x3e29cd22	0.16582158
209	0x3e042844	0.12905985
210	0xbd9d19b3	-0.07670917
211	0xbd5f8f7b	-0.054580193
212	0xbd513cfb	-0.051083546
213	0x3d17767b	0.036978226
214	0x3d27779d	0.040885556
215	0xbcaf36d0	-0.021388441
216	0x3e0e154c	0.13875312
217	0x3d702119	0.058625314
218	0x3dd68a95	0.10475651
219	0xbd906f6b	-0.07052501
220	0xbce421cc	-0.027848147
221	0x3df884d4	0.1213471
222	0xbc483d87	-0.0122217005
223	0xbd100f72	-0.03517098
224	0x3ced9737	0.029002769
225	0x3e0e9c13	0.13926725
226	0x3c8d7562	0.017267887
227	0x3d814ecb	0.06313857
228	0xbdd8386a	-0.10557635
229	0x3e4bacea	0.1989018
230	0xbd3a9928	-0.045556217
231	0x3da78314	0.08179298
232	0x3d921ad5	0.07134024
233	0xbd93bcec	-0.07213768
234	0xbd850d2f	-0.06496655
235	0x3e0d4794	0.13796836
236	0x3dde4f98	0.10855025
237	0x3dae9d79	0.08526129
238	0x3dbaaec4	0.09115365
239	0x3cff5869	0.031170087
240	0x3de2b485	0.110695876
241	0xbc83929d	-0.016061122
242	0x3cb0ae15	0.021567384
243	0xbdb4e9e8	-0.088336766
244	0xbd4a57b6	-0.049400054
245	0xbdc42a0f	-0.095783345
246	0x3e0b5136	0.13605198
247	0x3daee034	0.08538857
248	0xbd84e49d	-0.06488917
249	0xbdae7e4a	-0.085201815
250	0xbdd37f88	-0.10327059
251	0xbbb2101c	-0.0054340493
252	0x3d47d3a1	0.04878581
253	0xbca96ccc	-0.020681761
254	0xbc5ac1ec	-0.013351899
255	0x3e02d81c	0.12777752

fc3.bias f4 [32]
0	0x3e3f51d1	0.18683554
1	0x3d43a7ae	0.047767334
2	0x3e3051ab	0.17218654
3	0x3e59043c	0.21193022
4	0xbd92311b	-0.071382724
5	0x3e296b76	0.165449
6	0xbd910a1f	-0.070820086
7	0x3e8dea5d	0.27717867
8	0x3e52819c	0.20557255
9	0x3ea85441	0.3287678
10	0x3e9a9637	0.3019273
11	0x3d82e915	0.06392113
12	0x3e2f9161	0.17145301
13	0x3e13c771	0.1443155
14	0x3e1343e1	0.14381362
15	0x3e0c2d63	0.13689189
16	0x3e0edd23	0.13951544
17	0x3debdf33	0.11517181
18	0x3e826272	0.25465733
19	0x3ea3a28f	0.3195996
20	0x3e20e5a6	0.15712604
21	0x3e9c951f	0.3058252
22	0x3e4eff7d	0.20214649
23	0x3ea6e609	0.32597378
24	0x3d233313	0.03984363
25	0x3db7c048	0.089722216
26	0x3e376ea0	0.17913294
27	0x3e8266f8	0.25469184
28	0x3e4a126e	0.19733593
29	0x3e6ca533	0.23109894
30	0x3cd0922d	0.025460327
31	0x3e8553f0	0.26040602

fc4.weight f4 [1, 32]
0	0x3daa6fcd	0.083221056
1	0x3dad534b	0.084631525
2	0xbdc9768f	-0.098370664
3	0xbe0ec419	-0.13941993
4	0x3da794f0	0.081827044
5	0x3e4f6789	0.2025434
6	0xbd0a0f1a	-0.03370581
7	0xbdd2bbb7	-0.1028971
8	0x3dd620c6	0.1045547
9	0xbe3edc66	-0.18638763
10	0xbe0718a8	-0.13193
11	0x3e24321f	0.16034745
12	0x3eb4c3c2	0.353056
13	0x3df566b8	0.11982483
14	0xbc81d071	-0.015846463
15	0x3e79464c	0.24343222
16	0x3e0225f0	0.12709785
17	0x3dd8ee2a	0.10592301
18	0xbd8bb02e	-0.06820713
19	0xbd2a094b	-0.04151277
20	0x3d033635	0.032034118
21	0xbddfedac	-0.10934004
22	0xbd5b4854	-0.053535774
23	0xbd84d44b	-0.06485804
24	0x3e10a449	0.1412517
25	0x3e3305b7	0.17482649
26	0x3e19e2d0	0.15027928
27	0xbe0fdbfa	-0.14048758
28	0xbd657470	-0.056019247
29	0xbe07ef1a	-0.13274804
30	0x3e249b9d	0.16074987
31	0xbe07a886	-0.1324788
