python model Testing/Website/har/backend/best_steal_model.pt (torch, 48812 bytes, 7 tensors)

fc1.weight f4 [128, 7]
0	0xbbc6dfce	-0.00606916
1	0xbf06244d	-0.5239914
2	0xbb8b88da	-0.0042582573
3	0xbe4cf8a5	-0.20016725
4	0x3dd7d294	0.105382115
5	0xbc70ddbc	-0.014701303
6	0xbe251c09	-0.16123976
7	0x3d9dd56e	0.07706724
8	0x3cb4d178	0.022072539
9	0x3d982bb7	0.07430213
10	0x3cad58aa	0.021160442
11	0x3c9fa4bc	0.019487731
12	0xbb7441fc	-0.0037270775
13	0x3ecc230e	0.39870495
14	0xbd5e54c8	-0.054280072
15	0xbbcb46b1	-0.0062034954
16	0x3cdcc197	0.02694778
17	0xbec4b747	-0.3842108
18	0x3e9cac1f	0.30600068
19	0xbcc9c4af	-0.024629919
20	0xbea7e87a	-0.32794553
21	0xbe015462	-0.12629846
22	0x3d82b66e	0.06382452
23	0x3e741bcb	0.23838727
24	0x3e2c79e1	0.16843368
25	0x3cce3d3c	0.025175683
26	0x3de4dd25	0.111749925
27	0xbeeaaf0d	-0.45836678
28	0x3e0d920d	0.13825245
29	0xbdbf0dab	-0.09328779
30	0xbe55565b	-0.20833723
31	0x3e7a8925	0.24466379
32	0xbde8c490	-0.11365616
33	0x3d0b6284	0.0340295
34	0x3e3250a8	0.1741358
35	0x3cd9c033	0.026580906
36	0xbf03b74f	-0.5145158
37	0x3aa436da	0.0012528554
38	0xbe033bf4	-0.12815839
39	0x3e3d56c4	0.1849013
40	0xbd70dcff	-0.05880451
41	0x3ebfee41	0.3748646
42	0xbd4176f4	-0.047232583
43	0x3dde8f20	0.10867143
44	0xbe6c2dd7	-0.23064362
45	0x3d85620b	0.06512841
46	0x3d9ea8f3	0.07747068
47	0xbcf24cb2	-0.029577587
48	0xbeeacd86	-0.45859927
49	0xbda69765	-0.08134345
50	0x3e31bc28	0.17356932
51	0xbe95eb7b	-0.2928122
52	0xbd807895	-0.06272999
53	0x3e4e5226	0.20148525
54	0xbdd81448	-0.10550743
55	0x3dc0bb47	0.0941072
56	0x3e41cfbe	0.18926904
57	0xbebe8cb7	-0.37216732
58	0xbe27ccfa	-0.16386786
59	0xbea7cd4e	-0.32773823
60	0xbd0f590c	-0.03499703
61	0xbdffe362	-0.12494542
62	0x3df8dd50	0.12151587
63	0xbddaf6f1	-0.106916316
64	0xbda5b71c	-0.08091566
65	0x3dda5ac8	0.106618464
66	0x3e4b1919	0.19833793
67	0xbe887bce	-0.26656955
68	0x3d61f4fd	0.05516528
69	0xbd210799	-0.039313886
70	0xbe4fa823	-0.20278983
71	0xbee5dbc2	-0.44894224
72	0xbe4e913d	-0.20172592
73	0xbe34a22b	-0.17639987
74	0xbe2557ca	-0.1614677
75	0x3e1e7c97	0.15477215
76	0x3f0a52e1	0.54032713
77	0x3a4ac172	0.0007734514
78	0x3e43c579	0.19118299
79	0xbd62799f	-0.05529177
80	0xbe78610a	-0.24255767
81	0x3df93770	0.12168777
82	0xbd9803d4	-0.07422605
83	0x3f01d0f1	0.50709444
84	0x3e0454b9	0.12922944
85	0xbe6904ae	-0.22755691
86	0x3e35ab96	0.17741236
87	0xbd6b2bd1	-0.057414833
88	0xbd47d3db	-0.048786025
89	0xbd698381	-0.057010178
90	0xbe821def	-0.25413463
91	0xbe7ae27a	-0.24500456
92	0xbe340c98	-0.17582929
93	0x3e714e2f	0.23564981
94	0x3d88fe60	0.06689143
95	0x3d093cc3	0.033505213
96	0x3dbe9dac	0.09307417
97	0x3ebb5b96	0.36593312
98	0xbd2324ec	-0.039830133
99	0xbeca69a2	-0.39533716
100	0xbe82fbe1	-0.25582793
101	0xbda427f1	-0.08015431
102	0x3e774435	0.24147113
103	0x3e7982ec	0.24366349
104	0x3ddabcf2	0.1068057
105	0xbdb69bd1	-0.08916438
106	0xbe9c4b95	-0.30526415
107	0x3e5ddf8f	0.21667312
108	0xbdf85290	-0.121251225
109	0x3e182015	0.14855988
110	0xbddb8165	-0.107180394
111	0x3e7df933	0.24802093
112	0x3e14dcd6	0.14537367
113	0xbf07df63	-0.53075236
114	0xbde4f84d	-0.11180172
115	0xbd1c0532	-0.038090892
116	0xbdb3a6ef	-0.087720744
117	0xbcca60bf	-0.024704335
118	0x3f1b6997	0.6070799
119	0xb99376fa	-0.0002812667
120	0xbd82c2db	-0.06384822
121	0x3cea9231	0.028634163
122	0xbd322240	-0.043489695
123	0x3c9c93cd	0.019113446
124	0xbc2851bd	-0.010273394
125	0x3eadacc7	0.3392088
126	0xbd372890	-0.044716418
127	0x3dfb9d05	0.122858085
128	0xbc15fd54	-0.009154636
129	0x3d86c5d8	0.065807045
130	0xbd82dca7	-0.06389742
131	0x3c1e946a	0.009678939
132	0xbef7bdaf	-0.48386905
133	0xbe2db4ce	-0.16963503
134	0xbdb22475	-0.0869836
135	0x3cc8d170	0.02451393
136	0xbdcecac5	-0.10097269
137	0x3e215df3	0.15758495
138	0x3dd7b4c8	0.10532528
139	0x3eb6f3e4	0.3573295
140	0xbdec8cfd	-0.11550329
141	0xbf1316b1	-0.574565
142	0x3e24d8ce	0.1609833
143	0x3e401fcf	0.18762134
144	0xbe7a0ff5	-0.2442015
145	0xbce4182c	-0.027843557
146	0x3eb20847	0.3477194
147	0x3ba000d2	0.0048829103
148	0xbebeb944	-0.3725072
149	0x3e646766	0.22305068
150	0x3bc0643a	0.005871323
151	0xbe13a4cc	-0.14418334
152	0xbe43ecfc	-0.19133371
153	0x3e595de8	0.21227229
154	0xbe797c3d	-0.243638
155	0xbe21b6f7	-0.15792452
156	0xbd810039	-0.062988706
157	0x3e0e9030	0.1392219
158	0xbd506ccf	-0.050885018
159	0x3e49514e	0.19659922
160	0xbe26c4c9	-0.16286005
161	0xbe4fd35d	-0.20295472
162	0x3edf2d5b	0.4358929
163	0xbe9a0f02	-0.30089575
164	0xbe1aeab0	-0.15128589
165	0xbe1a3818	-0.1506046
166	0x3defb41f	0.11704277
167	0xbe2b21c8	-0.16712105
168	0x3d7d66e9	0.06186572
169	0xbee9557d	-0.45573035
170	0xbda69b88	-0.08135134
171	0x3ead3db8	0.3383615
172	0xbd85f285	-0.065403976
173	0x3ebf4a4b	0.3736137
174	0xbe6ead34	-0.23308259
175	0xbd701719	-0.058615778
176	0xbdfad74f	-0.12248098
177	0xbe18646a	-0.14882055
178	0x3ddd689e	0.1081097
179	0x3dbc053a	0.091806844
180	0xbde721a5	-0.11285714
181	0x3e587a0f	0.21140312
182	0xbe832b46	-0.25618953
183	0xbeb22643	-0.34794816
184	0x3e9cf469	0.3065522
185	0xbcdee195	-0.027207175
186	0x3d9aba39	0.075550504
187	0x3e4187cd	0.1889946
188	0x3e0740e5	0.13208349
189	0x3e9f15be	0.31071275
190	0x3cb77533	0.022394752
191	0x3e5435b0	0.20723605
192	0x3e8832f1	0.26601365
193	0xbb0393d4	-0.0020077126
194	0xbe6c26a4	-0.23061615
195	0x3ebaf5b3	0.3651558
196	0xbe3c370e	-0.18380377
197	0xbefe42f7	-0.49660465
198	0xbe884aac	-0.2661947
199	0x3e1c1999	0.1524414
200	0xbe1a15f1	-0.15047432
201	0x3dd10fd9	0.10208101
202	0x3ec3598c	0.38154256
203	0xbe6b47b2	-0.22976568
204	0xbe5b5cdd	-0.21422143
205	0x3eb3a6aa	0.35088092
206	0xb902af30	-0.00012463029
207	0x3d84461b	0.06458684
208	0x3e578769	0.21047749
209	0x3e0cf956	0.13766989
210	0x3e1aa972	0.15103701
211	0xbed33454	-0.4125086
212	0xbde21d5d	-0.11040757
213	0xbe49d166	-0.19708785
214	0x3e560023	0.2089849
215	0xbe6d6ced	-0.23186083
216	0x3e5c6134	0.21521455
217	0xbd9ec4d0	-0.07752383
218	0x3ec9a671	0.39384797
219	0xbe1c3bfc	-0.15257257
220	0xbcb7e676	-0.02244876
221	0x3e1dbf25	0.15404947
222	0x3e3b6c23	0.1830297
223	0xbe0be847	-0.13662826
224	0xbd49edc4	-0.049299017
225	0x3d9120a7	0.07086306
226	0xbe2531d0	-0.16132283
227	0xbe22e6f8	-0.1590842
228	0x3d959bc1	0.07305098
229	0x3e17a50e	0.14809057
230	0x3e9f3d2c	0.31101358
231	0xbd83500f	-0.06411754
232	0x3e96a485	0.29422393
233	0xbde7b6ee	-0.11314188
234	0xbc0c86b5	-0.0085770385
235	0xbd7f5d47	-0.062344816
236	0x3d311376	0.04323145
237	0xbe47544a	-0.19465747
238	0x3c925a33	0.017865276
239	0x3e345d9c	0.17613834
240	0x3c832849	0.01601042
241	0xbd5821cf	-0.052766617
242	0xbe1d2897	-0.15347515
243	0xbddab50a	-0.10679062
244	0xbea33d16	-0.31882542
245	0xbe97f95b	-0.2968243
246	0xbe33e573	-0.17567997
247	0xbded0625	-0.115734376
248	0x3e83d764	0.25750268
249	0xbe196dfd	-0.14983363
250	0xbe5f719c	-0.21820682
251	0x3e425a7b	0.18979828
252	0xbe8f1d06	-0.2795183
253	0xbf0b0166	-0.5429901
254	0x3e321952	0.17392471
255	0x3c9ceb38	0.01915513

fc1.bias f4 [128]
0	0x3e164b90	0.14677262
1	0x3eba03cd	0.36331025
2	0xbe975c0f	-0.29562423
3	0xbe91e860	-0.284976
4	0x3ee5afed	0.44860783
5	0x3e2b713f	0.16742419
6	0xbc007778	-0.007840984
7	0xbeab3633	-0.33439788
8	0x3e29ffee	0.16601536
9	0xbeadc76a	-0.33941203
10	0x3e525b40	0.20542622
11	0x3ee819ce	0.45332187
12	0xbd8151eb	-0.06314453
13	0x3ed4ed05	0.41587082
14	0x3e47a97d	0.19498248
15	0x3eb97ad2	0.36226517
16	0xbe45d1e1	-0.19318344
17	0x3eec5fc5	0.46166816
18	0xbeb9e0ef	-0.36304423
19	0x3ea8b1f1	0.3294826
20	0xbdcbf0da	-0.09958048
21	0x3ece81dc	0.4033345
22	0xbe6b8d61	-0.2300315
23	0xbe1840ca	-0.14868465
24	0xbe30b219	-0.17255439
25	0x3f005e21	0.5014363
26	0x3ea918cb	0.33026728
27	0xbe8bcf55	-0.2730662
28	0x3cd320a3	0.025772398
29	0xbc3786f0	-0.011201605
30	0x3e15bf33	0.14623718
31	0xbe327b6f	-0.17429899
32	0xbeb65ebf	-0.3561916
33	0xbe07912e	-0.13238975
34	0xbec684fa	-0.38773328
35	0xbe260d35	-0.16215976
36	0xbd75c50e	-0.06000238
37	0x3e277e46	0.16356763
38	0xbeb81afd	-0.3595809
39	0x3eb0b8ad	0.34515896
40	0x3eff87e4	0.49908364
41	0xbec779b1	-0.3896003
42	0x3d8f8140	0.07007074
43	0xbe199f40	-0.15002155
44	0xbe25dcf6	-0.16197571
45	0xbe1a31f1	-0.15058114
46	0x3e6b12a2	0.22956327
47	0x3ee860f0	0.45386457
48	0xbe044865	-0.12918241
49	0xbe128de2	-0.14311936
50	0x3eb81ceb	0.35959563
51	0x3e89273c	0.26787746
52	0xbec5a47a	-0.38602048
53	0xbf00d1bc	-0.5032003
54	0xbeaf9c89	-0.34299114
55	0xbea3fc63	-0.32028493
56	0xbe81ff62	-0.25390154
57	0xbe4acf72	-0.19805697
58	0x3ed30f51	0.41222623
59	0x3dd573f4	0.10422507
60	0xbd88444c	-0.066536516
61	0x3e793019	0.24334754
62	0xbd8d5473	-0.06900873
63	0xbec6a5d5	-0.38798395
64	0xbe8c50b7	-0.2740533
65	0x3e84780d	0.2587284
66	0x3e4e33a4	0.20136887
67	0x3e245597	0.16048275
68	0xbd5c0c37	-0.053722586
69	0x3edae2bf	0.4275112
70	0xbede5852	-0.43426758
71	0x3e396996	0.18106684
72	0xbdc91cd3	-0.09819951
73	0xbc2fac58	-0.010722242
74	0xbe301738	-0.17196357
75	0x3e0fc389	0.14039434
76	0x3e886675	0.2664067
77	0xbcacaa65	-0.021077344
78	0xbee0bf6e	-0.4389605
79	0x3ec5abf9	0.38607767
80	0xbeb2a7c9	-0.34893635
81	0xbd72156b	-0.059102457
82	0x3ed8a53a	0.42313558
83	0xbe8b0714	-0.27153838
84	0xbe661e0d	-0.22472401
85	0x3eb6860e	0.3564915
86	0xbe8640d5	-0.26221338
87	0xbe538bfa	-0.20658866
88	0x3ee7ade2	0.4524985
89	0xbe64dc7e	-0.22349736
90	0xbd9b620e	-0.07587062
91	0xbe83439b	-0.25637516
92	0xbe5b8357	-0.21436821
93	0x3e252650	0.16127896
94	0xbeb3426d	-0.35011616
95	0x3ed6e3a1	0.41970542
96	0x3e20241a	0.15638772
97	0xbea2bfea	-0.31787044
98	0x3e6e7448	0.23286545
99	0x3eafbf44	0.34325612
100	0xbe78b729	-0.2428862
101	0xbec16647	-0.37773344
102	0xbec13834	-0.37738192
103	0x3c30b373	0.0107849715
104	0xbe6c8e88	-0.23101246
105	0xbe1e6311	-0.15467478
106	0x3e50fbef	0.20408605
107	0xbeca6804	-0.39532483
108	0x3e78e92c	0.24307698
109	0xbe1df808	-0.15426648
110	0x3d01b0a7	0.03166261
111	0xbd561b9e	-0.05227243
112	0x3ede8fbf	0.43469045
113	0xbe8d5cf8	-0.27609992
114	0x3e6eda56	0.23325476
115	0xbe63c9cc	-0.22244948
116	0x3efdcc4f	0.49569938
117	0xbd2e6ab0	-0.042582214
118	0x3e38bc80	0.18040657
119	0x3d3b8ba6	0.045787476
120	0xbde17828	-0.11009246
121	0x3e105eda	0.14098683
122	0x3e63ca07	0.22245036
123	0xbeaeaf93	-0.34118327
124	0xbd31fbcb	-0.04345302
125	0xbe18b53b	-0.14912884
126	0x3d17dbdc	0.03707491
127	0xbe2e8574	-0.17043096

fc2.weight f4 [64, 128]
0	0xbe20021e	-0.15625808
1	0xbca0d839	-0.019634353
2	0x3d6956d0	0.056967556
3	0x3e1b8d77	0.15190683
4	0xbe586b93	-0.21134786
5	0xb9f34fea	-0.00046408112
6	0x3d338e38	0.043836802
7	0xbd99d3be	-0.0751109
8	0xbe21cbaf	-0.15800355
9	0x3da3e2d8	0.080022514
10	0x3c9f215d	0.019425089
11	0x3c4f8fdf	0.012668579
12	0xbc1bf752	-0.009519415
13	0xbe403bdc	-0.18772835
14	0xbcceddce	-0.02525225
15	0xbc19d761	-0.009389729
16	0xbdddd7d9	-0.10832185
17	0xbd88e31d	-0.066839434
18	0x3da648dc	0.081193656
19	0xbe215dcf	-0.15758441
20	0xbd5796f3	-0.05263419
21	0xbdc95a8f	-0.09831726
22	0xbd83c2d2	-0.064336434
23	0x3cd778e7	0.026302768
24	0xbe22a68d	-0.15883847
25	0xbe74a55c	-0.23891205
26	0xbc1c6350	-0.009545162
27	0x3d7630ec	0.06010525
28	0xbe7dc37b	-0.24781601
29	0xbe150dd8	-0.14556062
30	0xbe5b1618	-0.21395147
31	0x3e11596e	0.14194271
32	0x3cf3a168	0.02974005
33	0x3e3abb68	0.18235552
34	0x3de07551	0.10959876
35	0xbdb094d9	-0.086221404
36	0xbd634318	-0.055483907
37	0xbded8e40	-0.11599398
38	0x3ce53e7e	0.0279839
39	0xbd9f004c	-0.077637285
40	0x3c3deee5	0.011592601
41	0xbcb25d9d	-0.021773154
42	0x3d9d559a	0.07682343
43	0xbd61b976	-0.05510851
44	0x3dc048b4	0.09388867
45	0x3d2665ac	0.040624306
46	0x3e124206	0.14282998
47	0x3cb90ff6	0.022590619
48	0x3d863f9a	0.065551
49	0x3d1fa5b9	0.038976405
50	0x3cc1c6ca	0.02365436
51	0x3d85ef10	0.06539738
52	0x3e0ef710	0.13961434
53	0x3dcdf090	0.10055649
54	0xbc22a17d	-0.009926197
55	0x3c53c91c	0.012926366
56	0x3d53c652	0.051702805
57	0xbdd52aed	-0.10408578
58	0xbc6e7462	-0.014554115
59	0x3dc14d3c	0.094385594
60	0x3d950c44	0.0727773
61	0xbdea7452	-0.114479676
62	0x3d237a63	0.03991164
63	0xbe1385f2	-0.14406565
64	0x3c3b6be3	0.011439296
65	0x3e009505	0.12556846
66	0xbe16cee8	-0.14727366
67	0xbd6d4221	-0.057924394
68	0x3d434868	0.047676474
69	0xbe07e9dd	-0.13272806
70	0xbcbebb82	-0.02328277
71	0x3ceef1cc	0.029168032
72	0xbd1ba5df	-0.037999984
73	0xbd4f1033	-0.05055256
74	0x3e95d7e1	0.29266265
75	0xbe02ec8d	-0.1278555
76	0xbdc1e486	-0.094674155
77	0x3da06d97	0.078334026
78	0x3d04e042	0.03244043
79	0xbd9e7b1f	-0.07738327
80	0x3dbe28d5	0.09285132
81	0xbd97d84f	-0.074143045
82	0x3d0d7733	0.034537505
83	0x3d2b6257	0.04184183
84	0x3ae84a1c	0.0017722282
85	0x3dbb4df0	0.09145725
86	0x3d091db1	0.03347558
87	0x3d40c0c5	0.04705884
88	0x3dc08660	0.0940063
89	0x3d023948	0.03179291
90	0xbd6332ec	-0.055468485
91	0x3d515d65	0.05111446
92	0xbbdf1aa3	-0.0068085953
93	0xbddaa16b	-0.10675319
94	0xbdf24e4b	-0.118313394
95	0xbdaf9fac	-0.08575377
96	0x3da69953	0.08134713
97	0x3d875221	0.06607462
98	0x3ce51058	0.027961895
99	0xbdbaa2f0	-0.09113109
100	0xbd521839	-0.05129263
101	0x3b2d35b0	0.0026429705
102	0x3b38c314	0.0028192447
103	0xbda1bf36	-0.07897799
104	0x3ceb267b	0.028704872
105	0x3d547108	0.051865608
106	0xbddc2ea1	-0.10751081
107	0x3d924612	0.07142271
108	0xbe86a64c	-0.2629875
109	0xbc386175	-0.011253704
110	0x3df63a54	0.12022844
111	0xbd6ade91	-0.057341162
112	0x3de231aa	0.11044629
113	0x3d73893c	0.05945705
114	0x3d85809f	0.06518673
115	0xbda11542	-0.07865383
116	0xbc7b1a57	-0.015326104
117	0xbd6a4cd6	-0.057202183
118	0x3e0abdaa	0.13548914
119	0xbdb26980	-0.08711529
120	0x3cd212e6	0.025643777
121	0xbcce485e	-0.025180992
122	0xbe414845	-0.18875225
123	0xbcce8788	-0.02521111
124	0xbe3f2ff5	-0.18670638
125	0x3e15e284	0.1463719
126	0x3ce91cdb	0.028456142
127	0x3d1fe0b3	0.03903265
128	0xbd82a693	-0.06379428
129	0x3ddb7ff5	0.10717765
130	0xbe1ba702	-0.15200427
131	0xbe57830a	-0.21046081
132	0xbc000e8d	-0.007815969
133	0x3e18b022	0.1491094
134	0xbe161f4b	-0.14660375
135	0x3d251cf8	0.04031083
136	0xbd9903b9	-0.07471413
137	0x3c56744c	0.013089251
138	0x3dc62c9c	0.09676477
139	0x3e10525e	0.1409392
140	0xbdcf6423	-0.101265214
141	0xbd7dcf8e	-0.061965518
142	0xbd8db97c	-0.06920144
143	0x3c50b2c8	0.012737937
144	0x3e68a692	0.22719792
145	0x3e60861e	0.21926162
146	0xbe3d1453	-0.18464784
147	0x3de42649	0.11140115
148	0x3e8abc88	0.27096963
149	0x3da8c9ab	0.0824159
150	0x3d3f9cc1	0.04678035
151	0x3d5f6f8d	0.054549742
152	0xbd8b887e	-0.06813143
153	0x3b2bc03d	0.0026207112
154	0x3d0d16b2	0.034445472
155	0xbda7c6e1	-0.0819223
156	0x3e04c64f	0.12966274
157	0x3d7d3265	0.061815638
158	0xbcb28109	-0.021790044
159	0xbd95f381	-0.07321835
160	0xbde80353	-0.11328759
161	0xbdf9fbce	-0.12206231
162	0xbdb07491	-0.08615983
163	0x3cdfe51d	0.02733093
164	0x3d3db332	0.046313472
165	0x3e1d1311	0.15339305
166	0x3cd5c51f	0.026094971
167	0x3e135bf8	0.14390552
168	0xb9d67126	-0.00040901563
169	0xbde38d6e	-0.1111096
170	0x3ca3cb4a	0.019994397
171	0xbcc4fed8	-0.0240473
172	0xbd755569	-0.059895907
173	0x3e74ff6a	0.23925558
174	0x3e07f52d	0.13277121
175	0x3d7e5d74	0.062100843
176	0xbd0dcad6	-0.034617268
177	0xbd39e110	-0.045380652
178	0xbd2b80a6	-0.041870736
179	0x3dbe6fd8	0.09298676
180	0x3db9bfea	0.09069808
181	0xbe486a3c	-0.19571775
182	0x3b6f3a54	0.0036503272
183	0x3e0334f3	0.12813167
184	0x3decc5f0	0.11561191
185	0xbd2eb347	-0.04265144
186	0x3db8a6d4	0.09016195
187	0xbcd52ae1	-0.026021423
188	0x3d42fa41	0.047601942
189	0x3cffd26c	0.031228267
190	0x3d6f21f6	0.058381997
191	0x3dbfef0b	0.09371766
192	0xbe252d46	-0.16130552
193	0x3b86dc32	0.004115605
194	0x3dcbc21a	0.09949131
195	0x3e511119	0.20416678
196	0xbc65130d	-0.013981593
197	0x3c70dc7e	0.014701007
198	0xbd6910e3	-0.05690087
199	0xbc39b9a5	-0.011335765
200	0xbd4fb343	-0.050708067
201	0x3e3f66bc	0.18691534
202	0xbabde281	-0.0014487059
203	0xbcfd06e6	-0.030887078
204	0x3da8b68c	0.08237943
205	0xbc9f838d	-0.019471908
206	0xbd9b527a	-0.075840905
207	0x3de3e11a	0.11126919
208	0x3dd61531	0.10453261
209	0x3cae816c	0.021301948
210	0x3d2674d4	0.04063876
211	0xbe85cd0f	-0.2613301
212	0xbe1c9ed1	-0.15294959
213	0x3dd72abc	0.10506198
214	0xbaf6f14e	-0.0018840225
215	0xbd2d3d29	-0.042294655
216	0x3e0aa308	0.13538754
217	0xbd835996	-0.064135715
218	0x3d6c73bb	0.057727557
219	0xbd9061df	-0.070499174
220	0x3c68454b	0.014176677
221	0xbd487a48	-0.04894474
222	0x3dd132ec	0.10214791
223	0x3d98070b	0.07423218
224	0x3e5af89a	0.21383896
225	0xbd077daf	-0.033078846
226	0x3c3192ac	0.010838192
227	0x3e227a04	0.15866858
228	0x3d4dfa96	0.050287805
229	0xbe823b5f	-0.25435922
230	0xbcefeafe	-0.029286858
231	0x3d9474b3	0.07248821
232	0xbd012c2a	-0.03153626
233	0x3d666eb7	0.05625793
234	0x3e1103e0	0.14161634
235	0xbdb30f81	-0.087431915
236	0x3d4799a9	0.048730526
237	0xbce32a36	-0.027730089
238	0x3be0e348	0.0068630315
239	0x3d38d456	0.045124374
240	0x3c506dce	0.012721492
241	0x3d3a372e	0.04546278
242	0x3ddcb121	0.10775972
243	0xbd94317d	-0.07236002
244	0x3d1b72e6	0.037951373
245	0x3c303f36	0.010757258
246	0x3d89a81e	0.06721519
247	0x3d801de4	0.06255701
248	0x3ce45465	0.027872274
249	0x3dc11c7a	0.094292596
250	0xbd89735b	-0.067114554
251	0xbb44474c	-0.0029949723
252	0x3ddec8dc	0.10878155
253	0x3de2b990	0.110705495
254	0x3d70c269	0.058779154
255	0x3dfb286a	0.12263568

fc2.bias f4 [64]
0	0x3c306650	0.010766581
1	0x3e3325a6	0.1749483
2	0x3ddbfea0	0.10741925
3	0xbcfff294	-0.0312436
4	0x3c8bc6ce	0.01706257
5	0xbd5afa15	-0.053461153
6	0xbd0d28b6	-0.034462653
7	0x3df024a2	0.11725737
8	0x3e3a9b34	0.18223268
9	0xbd3c195b	-0.04592262
10	0x3dfd5409	0.12369544
11	0x3e1470e1	0.14496185
12	0xbcfa8aec	-0.030583821
13	0xbd327b16	-0.043574415
14	0x3e5061e3	0.20349841
15	0x3d89d4ab	0.06730016
16	0x3e0480e4	0.12939793
17	0x3e5c9fb5	0.21545298
18	0x3c722345	0.014778917
19	0x3e2521e4	0.1612621
20	0xbd7d2555	-0.06180318
21	0xbd1139dd	-0.035455573
22	0x3e214ea9	0.15752663
23	0x3e0bf057	0.13665901
24	0xbc472755	-0.012155374
25	0xbc59c2a0	-0.013291031
26	0x3e287bdd	0.164535
27	0x3e85bab6	0.26119012
28	0x3daae714	0.08344856
29	0x3e4775c1	0.19478513
30	0x3c0ed63b	0.008718069
31	0xbc1b9ac3	-0.009497347
32	0x3e6f2d9f	0.23357247
33	0x3e5b16ae	0.2139537
34	0x3c1c356f	0.009534224
35	0xbcefc7eb	-0.029270133
36	0x3e05a2e0	0.13050413
37	0x3e801b8e	0.25021023
38	0x3e429914	0.19003707
39	0x3e4e541f	0.20149277
40	0x3e2ccab9	0.16874208
41	0xbe046f11	-0.12932993
42	0x3e8267b5	0.25469747
43	0x3e8537e4	0.26019204
44	0x3e441be0	0.19151258
45	0xbe1c2835	-0.15249713
46	0x3e12f41e	0.14350936
47	0x3e153dc4	0.14574343
48	0x3e6fdbb1	0.2342365
49	0x3dd26aac	0.10274252
50	0x3da4157b	0.080119096
51	0x3bb61540	0.0055567324
52	0x3e2d1cf9	0.16905583
53	0x3e33d561	0.17561866
54	0x3e968b98	0.29403377
55	0x3cb3e584	0.021960028
56	0xbdd65d6e	-0.10467039
57	0x3e80f5ca	0.25187522
58	0x3e88a10c	0.2668537
59	0x3e3ba1d7	0.18323456
60	0x3e8e078c	0.27740133
61	0x3e64bf64	0.22338635
62	0x3e0d69e8	0.13809931
63	0x3db184cb	0.086679064

fc3.weight f4 [32, 64]
0	0xbd2106db	-0.03931318
1	0x3d43a7b2	0.04776735
2	0x3e049475	0.12947257
3	0x3de8d924	0.11369541
4	0x3d67230c	0.056429908
5	0x3ddbcabd	0.10732029
6	0xbe405b23	-0.18784766
7	0x3db31cf2	0.08745755
8	0x3c11f186	0.008907681
9	0xbe23dab8	-0.16001403
10	0x3dd6b2cb	0.10483321
11	0xbb4c1a1a	-0.0031143487
12	0xbd048c8e	-0.032360606
13	0x3dcca426	0.09992246
14	0x3ccbbcda	0.024870325
15	0xbd1fcfc3	-0.039016496
16	0x3b55fdb5	0.0032652442
17	0x3dd7c98a	0.105364874
18	0x3da08135	0.07837144
19	0x3db356e3	0.08756807
20	0xbd388fe6	-0.045059107
21	0xbe16db57	-0.14732109
22	0x3d624934	0.055245593
23	0x3d8b090e	0.067888364
24	0xbde7ab57	-0.11311977
25	0xbbca9c97	-0.0061832177
26	0x3d91b455	0.07114474
27	0x3d0d320c	0.034471557
28	0x3cbc76a1	0.023005785
29	0x3dbc6df0	0.092006564
30	0xbd801967	-0.06254845
31	0x3af2fa3d	0.0018537712
32	0x3c918e36	0.017768007
33	0x3d8248e0	0.06361556
34	0xbd383ae6	-0.044978045
35	0xbe05a4ee	-0.13051197
36	0x3e12ea28	0.14347136
37	0x3e0cd0c4	0.13751513
38	0xbcbab260	-0.022790134
39	0xbd1c0d07	-0.03809836
40	0x3e18deb4	0.14928705
41	0x3de7b95f	0.113146536
42	0x3e114d6e	0.14189693
43	0xbd16561c	-0.036703214
44	0x3c321229	0.0108685875
45	0xbd8eacdf	-0.06966566
46	0x3e07b164	0.13251263
47	0x3e141077	0.14459406
48	0xbd56c565	-0.052434344
49	0x3cfa5d28	0.030561998
50	0xbbd76d27	-0.0065742913
51	0xbd463b61	-0.048396472
52	0xbd4922ea	-0.049105562
53	0xbd906463	-0.07050397
54	0x3d813d64	0.063105375
55	0xbd84a6bd	-0.06477115
56	0xbe00c71e	-0.12575957
57	0x3e1b489b	0.15164416
58	0x3e1dc2f0	0.15406394
59	0x3d470649	0.04858998
60	0xbd80e507	-0.062936835
61	0x3b48e99b	0.0030656818
62	0x3b2b68af	0.0026154926
63	0xbce6245c	-0.02809351
64	0x3d0540ab	0.032532375
65	0x3e0a4c66	0.13505706
66	0xbc200cac	-0.009768646
67	0xbd410193	-0.047120642
68	0xbd121143	-0.035660993
69	0xbcbee428	-0.023302153
70	0xbd72deb0	-0.059294403
71	0x3c7444cc	0.014908981
72	0xbcd0cd98	-0.02548866
73	0xbe58895c	-0.21146148
74	0xbdefd830	-0.11711156
75	0x3d3873e5	0.0450324
76	0xbd11fc36	-0.035640918
77	0xbd80b65f	-0.062847845
78	0x3e052218	0.13001287
79	0xbdd53e35	-0.10412256
80	0xbde0a33d	-0.10968635
81	0x3db822fa	0.08991046
82	0x3ddc2502	0.10749246
83	0xbdff7d8a	-0.124751166
84	0xbd25ad18	-0.04044828
85	0xbe1ed42d	-0.15510626
86	0x3d89a9d3	0.067218445
87	0xbe19b1a1	-0.15009166
88	0xbe35d530	-0.17757106
89	0x3e34bc6e	0.17650005
90	0x3b9a82e3	0.00471531
91	0xbdc4af6b	-0.09603771
92	0x3e05f54f	0.13081859
93	0xbc7d1376	-0.015446534
94	0x3ce5fafe	0.028073784
95	0x3e0487a7	0.12942372
96	0x3da14af1	0.07875622
97	0xbd3ae825	-0.045631547
98	0x3cf6568e	0.03007057
99	0xbda70173	-0.08154573
100	0xbdb96205	-0.09051899
101	0x3d91de9d	0.07122538
102	0x3e10ce11	0.14141108
103	0x3d1815d8	0.037130207
104	0xbd24c60e	-0.040227942
105	0x3dd5a7bb	0.10432383
106	0xbcbd28a9	-0.023090677
107	0x3db01c82	0.085991874
108	0x3d44eb34	0.04807587
109	0x3deb2686	0.11481957
110	0x3dc82f64	0.09774664
111	0xbcd40476	-0.025881033
112	0xbc1d3e75	-0.00959741
113	0xbe126e29	-0.14299835
114	0xbd9535b2	-0.07285632
115	0x3dbe900f	0.09304821
116	0x3da5e26a	0.08099826
117	0xbdc33802	-0.09532167
118	0x3e19a311	0.15003611
119	0x3d489374	0.048968747
120	0xbe290e05	-0.16509254
121	0xbdd65871	-0.104660876
122	0x3dbb1182	0.09134199
123	0x3cd58207	0.026062978
124	0xbd3100e4	-0.04321374
125	0x3d55421f	0.05206501
126	0xbddffec6	-0.10937266
127	0x3e110c43	0.14164834
128	0x3e4f2c25	0.20231684
129	0xbd1ac7e0	-0.037788272
130	0xbe1184a0	-0.14210749
131	0xbd87112b	-0.065950714
132	0x3a32510f	0.000680224
133	0x3c9246e9	0.017856078
134	0x3df2335d	0.11826203
135	0xbe8401dd	-0.25782672
136	0x3bb07a8d	0.005385703
137	0x3dfb7b37	0.12279361
138	0xbdedbb65	-0.11608008
139	0xbbab50ba	-0.005228129
140	0x3e4d4038	0.20044029
141	0x3dd3e9f3	0.10347357
142	0x3bc268d7	0.005932908
143	0xbc057dd1	-0.008147673
144	0x3ba50d66	0.0050369976
145	0xbc7ad083	-0.015308502
146	0xbcf316ba	-0.029673923
147	0xbe3e65a6	-0.18593463
148	0x3e6aa767	0.22915421
149	0x3dccacbc	0.09993884
150	0xbd94ceb0	-0.07265985
151	0xbd18f96a	-0.037347235
152	0x3e30cd05	0.17265709
153	0xbd0b7ae4	-0.034052745
154	0xbe005798	-0.12533414
155	0x3da36b78	0.079794824
156	0xbc25dee6	-0.010123944
157	0xbda62d45	-0.08114103
158	0x3e592083	0.21203808
159	0xbdb17802	-0.08665468
160	0xbab8f1e5	-0.0014110176
161	0xbe4b61a5	-0.19861467
162	0xbdfeddbf	-0.124446385
163	0x3e177a9e	0.14792868
164	0xbdf7b038	-0.12094158
165	0xbe670945	-0.2256213
166	0xbd610f33	-0.054946136
167	0x3d155014	0.03645332
168	0xbd930b4e	-0.071798906
169	0xbcb5579f	-0.022136508
170	0xbe25afbd	-0.1618032
171	0xbdcdddbc	-0.10052058
172	0xbce84b8b	-0.028356334
173	0x3c1e0971	0.009645806
174	0xbd482553	-0.04886372
175	0xbd8fa116	-0.070131466
176	0xbd18408c	-0.03717093
177	0xbda07b5d	-0.0783603
178	0xbe416763	-0.18887095
179	0x3d90a798	0.07063216
180	0xbe580c85	-0.21098526
181	0xbe198fc2	-0.14996246
182	0xbd95ac18	-0.07308215
183	0x3cf8d7e3	0.03037638
184	0x3e3054e5	0.17219885
185	0xbe41bd23	-0.18919806
186	0xbdd76237	-0.1051678
187	0xbe9233f1	-0.28555253
188	0xbddbec48	-0.107384264
189	0x3e139d44	0.14415461
190	0xbd15675e	-0.03647553
191	0xbdb6bcdf	-0.08922743
192	0xbd0fee21	-0.035139207
193	0xbdeddce0	-0.11614394
194	0x3d982618	0.07429141
195	0x3dd05fbc	0.1017451
196	0x3d77fa2e	0.060541324
197	0x3d53d1cd	0.051713753
198	0xbd2e36d2	-0.04253275
199	0x3d98074b	0.07423266
200	0x3d9c295a	0.07625075
201	0xbd258c05	-0.040416736
202	0x3d03bdb9	0.032163355
203	0x3cc0c073	0.023529267
204	0xbdd95464	-0.10611799
205	0xbe086e5f	-0.13323353
206	0xbe094aef	-0.13407491
207	0xbcc9efed	-0.024650538
208	0xbddcdc15	-0.10784165
209	0xbe23b3e9	-0.15986599
210	0xbd63027d	-0.055422295
211	0x3d8c136b	0.06839641
212	0xbd33a19f	-0.043855306
213	0xbe016832	-0.12637404
214	0x3cf28f6d	0.029609406
215	0xbe7fa65b	-0.24965803
216	0xbe1909a7	-0.14945088
217	0xbdc3dcd7	-0.09563606
218	0xbd37a441	-0.04483438
219	0xbd67cb72	-0.056590505
220	0x3c3a5283	0.011372211
221	0x3dddb276	0.10825054
222	0xbd752f0e	-0.059859328
223	0x3d576531	0.052586738
224	0xbc034dac	-0.008014124
225	0xbe0414cb	-0.12898557
226	0xbd978932	-0.07399215
227	0x3c3ee2c5	0.011650746
228	0x3dc0c6f5	0.09412948
229	0xbd804e65	-0.062649526
230	0x3ceaa7d2	0.028644476
231	0x3d86c37c	0.065802544
232	0xbdbe6f1f	-0.092985384
233	0xbda2dd42	-0.07952358
234	0xbde51913	-0.11186423
235	0xbd8125d5	-0.06306044
236	0xbdc97cb6	-0.0983824
237	0xbdb0d5e7	-0.08634549
238	0xbe3e4ccb	-0.18583982
239	0x3d833629	0.064068146
240	0xbcd9283b	-0.026508441
241	0x3d8d17dc	0.068893164
242	0x3c85eba4	0.016347714
243	0x3d4c0aaf	0.049814876
244	0xbd5c368d	-0.05376296
245	0xbcc9119f	-0.024544535
246	0xbe5dfc2d	-0.21678229
247	0x3dbb0b66	0.091330335
248	0xbd95339d	-0.07285235
249	0xbe586fea	-0.21136442
250	0xbe2162ad	-0.15760298
251	0xbe2d13a5	-0.16902025
252	0xbe1e1a36	-0.15439686
253	0x3d62dc95	0.055386145
254	0xbe783a76	-0.24241051
255	0x3d0b037d	0.033938874

fc3.bias f4 [32]
0	0x3ebc0b96	0.3672759
1	0x3e219c03	0.1578217
2	0x3e9f4a4f	0.3111138
3	0xbded8e23	-0.11599376
4	0x3e6e1a10	0.2325213
5	0xbe16480a	-0.14675918
6	0x3e25b248	0.1618129
7	0xbe3e8aa2	-0.18607572
8	0xbe0f13d9	-0.13972415
9	0x3e0eb44c	0.13935965
10	0x3c95ae1c	0.018271498
11	0x3e7bbffc	0.24584955
12	0xbe167fea	-0.14697233
13	0x3ea958a3	0.33075437
14	0x3e8a6a3d	0.27034178
15	0x3e08f0e9	0.1337315
16	0xbd71194f	-0.058862027
17	0x3e1df1fd	0.15424342
18	0x3e8a60ef	0.2702708
19	0x3e544e1f	0.20732926
20	0xbdb665bd	-0.08906124
21	0x3e89dbef	0.2692561
22	0x3e6e163b	0.23250668
23	0x3e563e21	0.20922138
24	0x3e7084ac	0.2348811
25	0x3d63576d	0.055503298
26	0x3de8c80f	0.11366283
27	0x3e198e0b	0.14995591
28	0xbd8e2f8b	-0.06942662
29	0x3e09469f	0.13405846
30	0x3e49f126	0.19720897
31	0xbdc8a4ce	-0.09797059

fc4.weight f4 [1, 32]
0	0xbe145461	-0.14485313
1	0xbd2053f4	-0.039142564
2	0x3e0f5ebb	0.1400098
3	0x3a8df27b	0.0010829711
4	0xbd8e4832	-0.06947364
5	0x3e130ae4	0.14359623
6	0x3e05748a	0.13032737
7	0xbd3a821b	-0.045534234
8	0x3d258ef2	0.040419526
9	0x3e10a4d3	0.14125375
10	0x3c91d54c	0.017801903
11	0xbcc232f3	-0.023705935
12	0xbcc80b0a	-0.024419326
13	0xbda2e808	-0.07954413
14	0x3e87523c	0.26429927
15	0xbe069595	-0.13142999
16	0x3d931b23	0.0718291
17	0xbc7d9eb2	-0.01547973
18	0xbe2096d7	-0.15682541
19	0xbe04b6e3	-0.12960391
20	0x3c3edb1b	0.0116489185
21	0x3e32ba36	0.17453846
22	0x3e8a469a	0.2700699
23	0xbcd449a8	-0.025914028
24	0xbde7ea89	-0.11324031
25	0xbdd27c81	-0.102776535
26	0xbce8bb5a	-0.028409649
27	0xbb219d09	-0.002466025
28	0x3b198e8b	0.002343091
29	0x3e6ba387	0.230116
30	0xbc4acb56	-0.012377581
31	0x3dd6c4b0	0.10486734
