python model Testing/Website/har/backend/best_assist_model.pt (torch, 52484 bytes, 9 tensors)

fc1.weight f4 [128, 9]
0	0x3c2fdf49	0.010734388
1	0x3e3c37d6	0.18380675
2	0x3d5ea105	0.05435278
3	0x3db42975	0.0879697
4	0x3c4df6de	0.012571065
5	0xbe2f92c2	-0.17145827
6	0x3e00a06e	0.12561199
7	0xbb580ebc	-0.0032967767
8	0xbe5c8a65	-0.21537168
9	0x3dcde96f	0.100542895
10	0xbd0f3aad	-0.034968067
11	0xbe0a639d	-0.13514562
12	0x3ce9e6a0	0.028552353
13	0x3d3cd768	0.046103865
14	0x3d121ef8	0.035674065
15	0x3d3def5d	0.046370853
16	0xbd6194b2	-0.055073448
17	0x3edb641e	0.4284982
18	0xbe05f859	-0.13083018
19	0xbeee83ad	-0.46584836
20	0x3e295686	0.16536912
21	0xbe890bb4	-0.2676674
22	0x3e59516a	0.21222463
23	0x3db92aed	0.090413906
24	0x3d2c3d47	0.042050626
25	0xbccadeb2	-0.024764393
26	0x3eae5f09	0.3405688
27	0xbc0c0cc8	-0.008547969
28	0xbeb55c99	-0.3542221
29	0x3d9b5dc4	0.07586244
30	0xbca6abcc	-0.020345591
31	0x3c9c1b88	0.019056097
32	0x3c2a0e4e	0.010379387
33	0xbbb2dc67	-0.005458403
34	0x3cad9172	0.021187518
35	0x3eb04a21	0.34431556
36	0x3d7550db	0.059891563
37	0x3e8e1324	0.27748978
38	0xbd270517	-0.04077634
39	0x3dc7506e	0.097321376
40	0xbec4955b	-0.383952
41	0x3e38f135	0.18060763
42	0xbe8a3c8e	-0.26999325
43	0x3e1deafd	0.15421672
44	0x3be01699	0.0068386314
45	0x3c2d9214	0.01059391
46	0xbe952a37	-0.2913377
47	0x3e396e87	0.18108569
48	0x3bb719c1	0.005587787
49	0xbd974020	-0.07385278
50	0xbd4a31ef	-0.049364027
51	0x3cfe4ba1	0.031041922
52	0x3cd8cac3	0.026463872
53	0x3e7b4ab0	0.2454021
54	0xbd9619e2	-0.073291555
55	0xbe0c0cb1	-0.13676716
56	0xbde29d94	-0.11065212
57	0x3c2677df	0.010160415
58	0x3e5365f0	0.20644355
59	0xbd0af657	-0.033926334
60	0x3d503da5	0.05084004
61	0xbd8d9400	-0.069129944
62	0x3ebd7824	0.37005723
63	0xbcd9c8bc	-0.026584975
64	0xbdd089da	-0.10182543
65	0xbe8e8713	-0.27837428
66	0x3d11a215	0.035554964
67	0x3e1c4075	0.15258963
68	0xbcc4c44d	-0.024019385
69	0xbe053925	-0.1301008
70	0x3dad6300	0.084661484
71	0x3e58e470	0.21180892
72	0xbd339c47	-0.04385021
73	0xbea8e3fe	-0.32986444
74	0x3d20e54f	0.039281186
75	0xbd53864d	-0.05164175
76	0xbd6aa4b0	-0.057285964
77	0x3d6dab3b	0.058024626
78	0xbe38276c	-0.17983788
79	0xbe1ee875	-0.15518363
80	0x3e9ef127	0.3104336
81	0x3d5695be	0.0523889
82	0x3e8bc281	0.27296832
83	0xbe2af41a	-0.1669468
84	0x3d919ebf	0.071103565
85	0xbc95134a	-0.018197674
86	0xbc8dc335	-0.017304996
87	0xbc9abb6f	-0.018888203
88	0x3c16aee2	0.009196969
89	0xbe82de75	-0.25560346
90	0xbdf40f2b	-0.119169556
91	0x3e2b0f9c	0.16705173
92	0xbe845afd	-0.2585067
93	0x3e2d69e5	0.16934927
94	0xbe49625a	-0.19666424
95	0xbdafa691	-0.08576692
96	0x3e108c4c	0.14116019
97	0xbc921800	-0.01783371
98	0x3edc6d06	0.43051928
99	0x3d153dcc	0.036435887
100	0x3d8ef9cc	0.06981239
101	0x3dc56df7	0.09640115
102	0xbd3a5201	-0.04548836
103	0xbd47067d	-0.048590172
104	0x3c91c0f4	0.017792203
105	0xbce3e810	-0.027820617
106	0xbce2d438	-0.027689084
107	0xbecd104f	-0.40051505
108	0xbd047fd2	-0.03234846
109	0xbe077b1c	-0.13230556
110	0x3bd6b96e	0.0065528667
111	0x3b514820	0.003193386
112	0xbd4947e1	-0.049140815
113	0x3d005133	0.031327438
114	0xbbd80377	-0.00659221
115	0x3bea0a72	0.0071423585
116	0x3e78e8d0	0.24307561
117	0x3d474fca	0.048660077
118	0xbe4bf933	-0.1991928
119	0x3e03f5d1	0.1288674
120	0x3c921932	0.01783428
121	0xbcc67e27	-0.024230076
122	0xbe36a82c	-0.1783759
123	0x3dc583d4	0.09644285
124	0x3e0ffa0b	0.14060228
125	0x3e352248	0.17688859
126	0xbd07feb9	-0.033201907
127	0x3e88aab4	0.26692736
128	0xbd96011d	-0.07324431
129	0xbc4647b3	-0.012102055
130	0x3e0e749d	0.13911672
131	0xbd97b90d	-0.074083425
132	0x3c8c896c	0.017155372
133	0x3daf696f	0.08565032
134	0xbed9e937	-0.4256074
135	0x3d912022	0.07086207
136	0xbe50567f	-0.20345496
137	0x3e740d52	0.23833206
138	0xbc903426	-0.017602991
139	0xbe606c67	-0.21916352
140	0x3dbd1837	0.09233134
141	0xbdec34dd	-0.1153352
142	0xbcfec363	-0.031099027
143	0x3ece7f7f	0.40331647
144	0x3def90c0	0.11697531
145	0x3d8b753d	0.06809471
146	0x3e847558	0.25870776
147	0x3d4933ec	0.049121782
148	0xbe6d93b4	-0.23200876
149	0x3d93a5a8	0.07209331
150	0xbdfcd77b	-0.12345787
151	0x3dfcbf5e	0.12341188
152	0xbe94cffc	-0.2906493
153	0x3dbb1a75	0.09135906
154	0xbe849465	-0.25894466
155	0x3e00eb49	0.12589754
156	0x3da26aa9	0.079305
157	0xbc4b95e5	-0.012425874
158	0xbe30a8ee	-0.17251942
159	0x3e3d7ec4	0.18505388
160	0xbe517066	-0.20453033
161	0x3eda433f	0.4262943
162	0xbccb2915	-0.024799863
163	0xbf11c360	-0.56938744
164	0x3d6cae52	0.057783432
165	0x3c3b0ed0	0.011417106
166	0x3c98ea0c	0.01866629
167	0x3c710b56	0.014712175
168	0xbb037cde	-0.002006344
169	0x3c0fc8c0	0.00877589
170	0x3e4a6059	0.19763316
171	0x3b4e6e00	0.003149867
172	0x3e96df27	0.29467127
173	0xbd9323b9	-0.07184548
174	0x3ce37ee5	0.027770469
175	0xbcf31594	-0.029673375
176	0x3bee6d14	0.0072761867
177	0xbc441f21	-0.011970312
178	0xbcba61c0	-0.022751689
179	0xbec4708b	-0.38367113
180	0x3e9c40d8	0.30518222
181	0xbe408b20	-0.18803072
182	0xbdccfe48	-0.10009438
183	0xbdf2cd42	-0.11855556
184	0x3ea5e015	0.32397524
185	0x3dc09913	0.094041966
186	0x3db1258b	0.08649739
187	0xbcc414e4	-0.023935743
188	0x3e1ee374	0.15516454
189	0xbdfc441e	-0.1231768
190	0xbe271ba8	-0.16319144
191	0xbe8875bc	-0.26652324
192	0x3e2f4804	0.17117316
193	0x3e4af425	0.19819696
194	0xbdeb0dd9	-0.114772506
195	0xbe350842	-0.17678931
196	0xbbf765fc	-0.0075499993
197	0xbd9b6883	-0.075882934
198	0xbbb34f8c	-0.005472129
199	0xbe0b5207	-0.1360551
200	0x3d2aab79	0.041667435
201	0xbd308ff2	-0.043106027
202	0x3d2a3f84	0.04156448
203	0xbc154b02	-0.009112122
204	0x3cfeba59	0.031094717
205	0xbb3051fd	-0.0026904338
206	0x3e79c7f4	0.24392682
207	0x3ddaad9a	0.10677643
208	0x3e7861aa	0.24256006
209	0x3dd41ca6	0.10357027
210	0xbe7e2dd0	-0.24822164
211	0xbe886a2d	-0.26643506
212	0xbddc9c8e	-0.10772048
213	0xbe5fa140	-0.21838856
214	0xbcd4c324	-0.025971957
215	0x3ea115d5	0.3146197
216	0x3dd66b64	0.10469702
217	0xbf25128b	-0.6448142
218	0x3e85d23a	0.26136953
219	0xbe2c4700	-0.1682396
220	0x3c8709c5	0.01648415
221	0x3dd80721	0.10548235
222	0xbd427335	-0.04747315
223	0x3d36c89f	0.04462492
224	0x3eaa4c35	0.33261266
225	0xbbaa6a39	-0.005200651
226	0x3e1b38be	0.15158364
227	0x3c6a42c6	0.014298147
228	0x3cab1565	0.020884225
229	0xbd326426	-0.04355254
230	0xbaa76398	-0.001277077
231	0xbca20dab	-0.019781908
232	0x3d39ee03	0.045393
233	0xbebcbc8f	-0.3686261
234	0x3c8c3dc2	0.017119292
235	0xbd88c0e9	-0.0667742
236	0xbc84d782	-0.016216043
237	0x3e81ba38	0.25337386
238	0xbceb6555	-0.028734842
239	0x3e7ff176	0.24994454
240	0x3cfa6020	0.030563414
241	0x3df5aa1d	0.11995337
242	0xbe1556cf	-0.14583896
243	0x3c4f736b	0.012661795
244	0xbd8c01f0	-0.06836307
245	0xbd958ced	-0.0730227
246	0xbdbc3049	-0.09188897
247	0x3e3c81d9	0.18408908
248	0xbe84e605	-0.2595674
249	0x3d11b830	0.035576046
250	0xbe0bcce5	-0.1365238
251	0x3eccc8f2	0.3999706
252	0x3e445949	0.19174685
253	0x3e194894	0.14969093
254	0xbd8a680e	-0.06758128
255	0xbe2a91de	-0.16657206

fc1.bias f4 [128]
0	0xbef2048b	-0.4726909
1	0x3edaca86	0.42732638
2	0x3d77d072	0.060501523
3	0x3eac60e4	0.33667672
4	0xbe7f5006	-0.2493287
5	0x3f095dbc	0.5365865
6	0x3e8dc4d9	0.27689245
7	0x3eae3a2c	0.34028757
8	0x3e45d99d	0.19321294
9	0xbe675623	-0.22591452
10	0x3e91a523	0.28446302
11	0xbf072113	-0.5278484
12	0x3f15eeac	0.5856731
13	0x3d901c04	0.070365936
14	0xbeca88fb	-0.39557633
15	0x3ef61467	0.4806244
16	0xbedb2104	-0.42798626
17	0x3e938a4a	0.28816444
18	0xbe3aa6f4	-0.1822775
19	0xbeb315f3	-0.34977683
20	0xbd9fedcf	-0.0780903
21	0xbea5bd5c	-0.32371032
22	0x3ed1c59c	0.40971076
23	0x3c98259d	0.018572623
24	0xbe34ec5b	-0.17668287
25	0xbf240794	-0.64074063
26	0xbf01534f	-0.50517744
27	0x3e4d2d6b	0.20036857
28	0xbe844541	-0.25834087
29	0x3f134286	0.5752338
30	0xbef58ef2	-0.4796062
31	0x3ea9c5d2	0.33158737
32	0x3e982639	0.29716662
33	0xbea5f408	-0.32412744
34	0xbf1a42fb	-0.60258454
35	0x3e56ee5a	0.20989361
36	0x3ed48eef	0.415153
37	0xbf305a47	-0.6888775
38	0x3f081416	0.5315565
39	0x3eaecaf1	0.34139207
40	0x3e3c2517	0.18373524
41	0xbe3516b0	-0.17684436
42	0xbe2eb8dc	-0.17062706
43	0xbe530ac9	-0.20609583
44	0x3e638b8e	0.22221205
45	0x3e03b3e1	0.12861587
46	0xbeb7ad79	-0.35874537
47	0x3ec3b396	0.3822295
48	0xbef2452a	-0.47318393
49	0xbe667b67	-0.22508012
50	0x3e5d50b7	0.21612822
51	0xbe90d1cd	-0.28285065
52	0x3f01a3fb	0.5064084
53	0x3e9be1f9	0.3044584
54	0xbebd271e	-0.36943907
55	0xbec622bc	-0.38698375
56	0xbe8cea27	-0.27522394
57	0x3dd4c2c2	0.103887096
58	0xbeeee334	-0.46657717
59	0x3df693d8	0.12039918
60	0x3d9d8c02	0.0769272
61	0xbecc70f9	-0.3992994
62	0xbf103164	-0.56325364
63	0xbd725419	-0.059162233
64	0x3edcdf06	0.43138903
65	0x3e8ef880	0.27923965
66	0x3edd5b17	0.4323356
67	0x3e517ff1	0.20458962
68	0xbf00c1da	-0.50295794
69	0x3f0ad74a	0.54234755
70	0xbe02e8e4	-0.12784153
71	0x3eb4c944	0.35309803
72	0xbedb748d	-0.4286236
73	0xbe8e8bf9	-0.27841166
74	0xbec4773e	-0.38372225
75	0xbe47f5b5	-0.19527324
76	0x3f05550e	0.5208291
77	0x3f050c0d	0.51971513
78	0xbe83c537	-0.257364
79	0xbd507f4a	-0.050902642
80	0xbf0ea8e5	-0.5572646
81	0x3eb3a64a	0.35087806
82	0xbec9c4a0	-0.39407825
83	0xbe92f728	-0.2870419
84	0xbefe2100	-0.49634552
85	0xbf160daf	-0.5861463
86	0xbd0e2847	-0.03470638
87	0xbe848e28	-0.25889707
88	0xbe322fe2	-0.17401078
89	0x3f10cf26	0.56566083
90	0x3d4193a8	0.047259957
91	0x3efaec58	0.4900844
92	0x3ea7f4e8	0.32804036
93	0xbe19c3e2	-0.1501613
94	0xbeefba34	-0.4682175
95	0xbe53d293	-0.20685796
96	0xbd8a9b29	-0.06767876
97	0x3e56730c	0.20942324
98	0xbe92c1bc	-0.28663433
99	0xbedeac03	-0.4349061
100	0xbef666be	-0.4812526
101	0xbcaa945b	-0.020822695
102	0xbef96c46	-0.4871542
103	0xbf19bcf7	-0.6005396
104	0x3f100dca	0.5627104
105	0xbecc633a	-0.39919454
106	0xbe326478	-0.17421138
107	0xbeaa22b7	-0.3322961
108	0xbeb997c6	-0.36248606
109	0x3d86be08	0.06579214
110	0x3ee293f5	0.44253507
111	0x3f1995cb	0.5999419
112	0x3ec740cd	0.38916627
113	0xbe911594	-0.28336775
114	0x3ead1225	0.33802906
115	0xbeed66f3	-0.46367607
116	0xbe9b52b5	-0.30336538
117	0x3e2a3d1d	0.16624875
118	0x3eeec175	0.4663197
119	0xbf0b19bc	-0.5433614
120	0x3f1e833f	0.61919016
121	0xbedb9282	-0.42885214
122	0xbf0e4e34	-0.5558808
123	0xbeac2e0d	-0.33628884
124	0xbea23149	-0.31678227
125	0xbe864ba4	-0.26229584
126	0x3cedbf1a	0.029021788
127	0x3e8f5b26	0.27999228

fc2.weight f4 [64, 128]
0	0xbe18185f	-0.14853047
1	0x3c912d97	0.017721934
2	0x3d318335	0.04333802
3	0x3df8211f	0.12115692
4	0xbe3e40b6	-0.18579373
5	0xbc3d2603	-0.011544707
6	0x3e306097	0.17224346
7	0xbd0095df	-0.03139293
8	0xbb9ec4df	-0.004845246
9	0xbdc84aa4	-0.097798616
10	0xbc116cc2	-0.008876028
11	0xbd9ecdea	-0.07754119
12	0xbcdcd02f	-0.026954738
13	0xbd18fb56	-0.037349068
14	0xbd83544f	-0.06412565
15	0xbd7532f6	-0.059863053
16	0xbd96fbcb	-0.073722444
17	0x3e06ce58	0.13164651
18	0x3f3b4b08	0.73161364
19	0xbe8376d7	-0.25676605
20	0x3c458906	0.012056595
21	0xbd03075b	-0.031989437
22	0xbd314ad8	-0.043284267
23	0xbd678c80	-0.056530476
24	0x3ea253e2	0.31704623
25	0x3ddfa3d5	0.1091992
26	0x3cc3a7f7	0.023883803
27	0x3d8841bd	0.066531636
28	0xbd5684ec	-0.052372858
29	0x3b3e55b7	0.002904279
30	0x3dc1cdfc	0.094631165
31	0x3d824034	0.06359902
32	0x3bf25bb5	0.0073961862
33	0xbd145282	-0.036211498
34	0xbdd16c28	-0.10225707
35	0xbdafe24d	-0.08588085
36	0x3dd106b6	0.10206358
37	0xbe5f060e	-0.21779653
38	0x3d20ae0c	0.039228484
39	0x3d35af4c	0.04435663
40	0xbd977bc1	-0.07396651
41	0xbd058780	-0.032599926
42	0x3e29cbae	0.16581604
43	0xbc514f4b	-0.012775253
44	0x3befa98d	0.007313913
45	0x3c8cfc7e	0.017210241
46	0x3d5b6f1d	0.053572763
47	0x3e2be921	0.1678815
48	0xbe9e907f	-0.30969617
49	0xbd2caa69	-0.042154703
50	0xbc87d4bb	-0.01658093
51	0xbd9153a8	-0.07096034
52	0x3d43f98c	0.04784541
53	0xbda30135	-0.079592146
54	0xbca12461	-0.019670667
55	0xbda6e8d6	-0.08149879
56	0x3c96d9e9	0.018414455
57	0x3dd24ae7	0.10268193
58	0xbe618ee1	-0.2202716
59	0x3ce9603a	0.028488267
60	0x3e16a2f1	0.14710595
61	0xbe127be9	-0.1430508
62	0xbd49aa7c	-0.049234852
63	0xbc2a4be4	-0.01039407
64	0x3dc0a4a0	0.094064
65	0x3dffac80	0.12484074
66	0xba59b867	-0.0008305371
67	0x3dc09129	0.09402687
68	0xbd0d4d36	-0.034497462
69	0x3d7889d7	0.06067833
70	0x3ed12896	0.40851277
71	0xbcd64c67	-0.026159478
72	0xbd9fe842	-0.078079715
73	0xbc7da864	-0.015482042
74	0xbe283ca1	-0.16429378
75	0xbd0992bb	-0.0335872
76	0x3d1850b9	0.037186358
77	0x3d3f6d79	0.04673526
78	0xbd935562	-0.0719402
79	0x3ea4813b	0.32129845
80	0xbee21359	-0.44155386
81	0xbd169a61	-0.03676832
82	0xbcb83e57	-0.022490663
83	0x3e1ec029	0.15502991
84	0xbd29a53f	-0.041417357
85	0xbdb0180d	-0.08598337
86	0x3d32528e	0.04353576
87	0x3e9b2793	0.3030363
88	0x3e397938	0.18112648
89	0xbcb71438	-0.022348508
90	0x3d37872d	0.044806648
91	0x3cac35ee	0.02102181
92	0x3e23c46d	0.15992899
93	0x3d89711c	0.06711027
94	0xbe4248c0	-0.18973064
95	0x3d859833	0.0652317
96	0x3e63cfa9	0.22247185
97	0x3e13429a	0.14380875
98	0xbd0ba5b7	-0.034093585
99	0xbdb77293	-0.089574
100	0xbe5dfb0b	-0.21677797
101	0x3dc89a75	0.09795085
102	0xbda004bc	-0.07813403
103	0x3cbad7e8	0.02280803
104	0x3c46e7fe	0.012140272
105	0xbeab4156	-0.33448285
106	0x3c4ceb2d	0.012507242
107	0xbb9551e5	-0.0045568817
108	0x3e4b7a9d	0.19870992
109	0x3eae3138	0.34021926
110	0x3d10ef80	0.035384655
111	0xbcb1caa4	-0.021703072
112	0x3ded84cc	0.115975946
113	0xbe4142c1	-0.18873121
114	0x3d937f07	0.07201963
115	0xbe4f2c3f	-0.20231722
116	0x3c7a9cc6	0.015296167
117	0x3c98ed3c	0.01866781
118	0xbd6bf663	-0.05760802
119	0xbe37ef9a	-0.17962494
120	0x3ac69508	0.0015150616
121	0xbd40d923	-0.047082078
122	0x3cff5170	0.031166762
123	0x3d338ae4	0.04383363
124	0x3e1e698e	0.15469953
125	0x3dabc13c	0.08386466
126	0x3ce5b983	0.02804256
127	0x3a377785	0.0006998706
128	0x3d5c4b39	0.053782675
129	0x3d863b01	0.06554223
130	0x3c7442b9	0.014908486
131	0x3d97c086	0.07409768
132	0x3bc03d41	0.005866677
133	0xbc6333d0	-0.0138673335
134	0x3c2f2157	0.010689101
135	0xbcbc143b	-0.022958865
136	0x3d2edabb	0.042689066
137	0xbe4160ba	-0.18884555
138	0xbbe9ab22	-0.0071309963
139	0xbe0badbb	-0.13640492
140	0x3d2c097d	0.042001236
141	0xbbe45051	-0.0069675823
142	0xbdda0940	-0.106462955
143	0xbc4d44aa	-0.012528578
144	0xbdd72d90	-0.10506737
145	0x3b28ece9	0.0025775975
146	0x3f2617c5	0.6488002
147	0xbdd2d43d	-0.102943875
148	0x3d588339	0.05285952
149	0xbce1b866	-0.027553748
150	0x3dc69841	0.09697009
151	0x3c62ab7a	0.0138348285
152	0x3eb88c1f	0.36044404
153	0x3e017563	0.12642436
154	0x3bbfd793	0.005854556
155	0xbc0508a8	-0.00811974
156	0xbd4cb7cc	-0.04997997
157	0xbb814fa0	-0.0039462596
158	0x3d068917	0.032845583
159	0x3de41608	0.111370146
160	0xbd3c594e	-0.045983605
161	0x3db601c0	0.088870525
162	0xbe157111	-0.14593913
163	0x3da796be	0.08183049
164	0x3e268b7b	0.16264145
165	0xbed963eb	-0.42459044
166	0x3cca6a86	0.024708997
167	0x3bed14ff	0.007235169
168	0x3d217a38	0.039423198
169	0x3e168dd0	0.14702535
170	0x3e1a3a69	0.15061344
171	0xbc4413c6	-0.011967605
172	0xbd34056e	-0.04395049
173	0xbc8e2810	-0.017353088
174	0x3d4e5f03	0.05038358
175	0x3ce5944a	0.028024811
176	0xbebf9805	-0.3742067
177	0xbdaac0fe	-0.083375916
178	0x3bca1668	0.006167222
179	0xbd031e6f	-0.032011446
180	0x3baea965	0.005330252
181	0x3c36a6fb	0.01114821
182	0xbd4dbdb1	-0.050229732
183	0x3a27bdb0	0.000639881
184	0x3cafd740	0.021464944
185	0xbd07f010	-0.033187926
186	0xbe07d055	-0.13263066
187	0x3d84b883	0.06480505
188	0x3e0ef229	0.13959564
189	0xbe179b12	-0.14805248
190	0xbe4a0c83	-0.19731335
191	0xbe0ab1ea	-0.13544431
192	0x3b841c62	0.004031704
193	0x3de2955d	0.11063645
194	0x3ba2655d	0.004955931
195	0x3e05bece	0.13061067
196	0xbe1af08d	-0.15130825
197	0xbc16162d	-0.009160561
198	0x3eb471c9	0.3524306
199	0xbbee2c26	-0.0072684465
200	0xbe02cad3	-0.12772684
201	0xbaa7122c	-0.0012746505
202	0xbdfe0f38	-0.124052465
203	0x3c8c3d30	0.01711902
204	0xbd01d16d	-0.031693865
205	0x3d7767ca	0.060401715
206	0x3d7f0e05	0.06226923
207	0x3deff2d5	0.117162384
208	0xbe919bca	-0.2843917
209	0x3d4be72b	0.049781006
210	0x3c186459	0.0093012685
211	0x3e1eba57	0.1550077
212	0xbe852e11	-0.26011708
213	0x3c1f7266	0.009731865
214	0x3d861028	0.0654605
215	0x3e5101e3	0.20410876
216	0x3dba3ce1	0.09093643
217	0xbc8a7676	-0.01690219
218	0x3dd2487a	0.1026773
219	0xbcfefd16	-0.03112654
220	0x3de5fd56	0.112299606
221	0x3de559d0	0.11198771
222	0xbded32f3	-0.115819834
223	0xbdf61370	-0.12015426
224	0x3d95f1de	0.07321523
225	0x3d3022da	0.043001987
226	0xbe3325fe	-0.17494962
227	0xbe2adb39	-0.1668519
228	0xbe17da56	-0.14829382
229	0x3dae9c3d	0.08525894
230	0xbe040d32	-0.12895659
231	0xbe4b92cb	-0.19880216
232	0x3caccc1d	0.021093423
233	0xbed17a7c	-0.4091376
234	0x3d64191a	0.055688
235	0xbda99e28	-0.08282119
236	0x3e14572b	0.14486377
237	0x3e888454	0.26663458
238	0x3ccae4e3	0.024767345
239	0xbda6d108	-0.08145338
240	0x3d743c21	0.059627656
241	0xbc9129fe	-0.017720219
242	0x3e408840	0.18801975
243	0xbdcdfa06	-0.10057454
244	0x3c80187d	0.015636677
245	0xbca592b4	-0.020211555
246	0xbdb064a6	-0.08612947
247	0xbe3dbcbc	-0.18529028
248	0xbcbe7ff5	-0.023254374
249	0xbe844a8c	-0.25838125
250	0xbe3accc7	-0.18242179
251	0x3d35d3aa	0.04439131
252	0x3e4a2d27	0.19743787
253	0x3de7fc97	0.113274746
254	0x3cad74d7	0.021173878
255	0x3ccde8c5	0.025135407

fc2.bias f4 [64]
0	0x3de722a2	0.112859026
1	0x3e2db257	0.16962563
2	0x3d754534	0.05988045
3	0x3e18380c	0.1486513
4	0x3d9699ec	0.07353577
5	0xbd97d62d	-0.07413898
6	0x3d9f84cd	0.077890016
7	0x3d02474f	0.031806286
8	0x3e4a1ec0	0.19738293
9	0xbd3e0c6d	-0.04639857
10	0x3e303eff	0.17211531
11	0x3e096a00	0.13419342
12	0x3ddf66d1	0.109082825
13	0x3e2a957e	0.16658589
14	0x3dcb9189	0.09939868
15	0xbdbc91ad	-0.09207473
16	0x3d323f7e	0.043517582
17	0x3dbf6667	0.093457036
18	0x3c1ee6ef	0.009698614
19	0xbd539ceb	-0.05166332
20	0x3d97fd77	0.074213915
21	0x3dce56a4	0.10075119
22	0x3c7ba026	0.015358007
23	0xbe434f12	-0.19073132
24	0xbd24b2ff	-0.040209766
25	0xbd85108e	-0.06497298
26	0x3df3ea14	0.11909881
27	0xbe2bc216	-0.16773257
28	0x3e35a8fa	0.1774024
29	0xbdb3e961	-0.08784748
30	0x3e22e827	0.15908872
31	0xbda4022f	-0.08008229
32	0x3da62a04	0.081134826
33	0xbdd3b84a	-0.10337885
34	0x3e5367f0	0.20645118
35	0xbe23fd8a	-0.16014686
36	0xbd8fdd4c	-0.07024631
37	0xbde869ce	-0.11348306
38	0x3ddaf227	0.10690718
39	0x3dd3d4e4	0.1034334
40	0x3e057c2e	0.13035652
41	0x3b8e7bfb	0.0043482757
42	0x3bbe1164	0.005800413
43	0xbdbf4b87	-0.093405776
44	0x3d382780	0.044959545
45	0x3d8e41ea	0.06946166
46	0x3d8323f8	0.06403345
47	0xbe562912	-0.20914105
48	0x3da3faf9	0.080068536
49	0x3e029e51	0.12755705
50	0xbe2afba6	-0.16697559
51	0x3d8e4871	0.06947411
52	0xbdfc2076	-0.12310879
53	0xbd9afb8e	-0.075675115
54	0xbdc674b5	-0.09690229
55	0x3dea003f	0.11425828
56	0xbe461bc2	-0.19346526
57	0x3d5bb220	0.05363667
58	0x3e279780	0.16366386
59	0x3d64ec0c	0.055889174
60	0xbdb69f2a	-0.08917077
61	0x3dfa5de6	0.12224941
62	0x3d838658	0.064221084
63	0x3e27ebd8	0.16398561

fc3.weight f4 [32, 64]
0	0x3db6025a	0.08887167
1	0xbcf79935	-0.030224422
2	0x3d5942bf	0.05304217
3	0xbbe78d08	-0.007066373
4	0x3ca0e467	0.01964016
5	0xbe7af2ea	-0.24506727
6	0x3d9cf609	0.07664115
7	0x3e3f6a82	0.18692973
8	0x3e5194b8	0.20466888
9	0xbe01634e	-0.12635538
10	0x3e858eed	0.26085606
11	0x3ea0f3ae	0.31435913
12	0xbcd26d97	-0.025687022
13	0x3deb9f12	0.1150495
14	0x3e5a7f4c	0.21337622
15	0xbe1204c9	-0.14259638
16	0x3e04b422	0.1295934
17	0x3dc49560	0.095988035
18	0x3ea05b50	0.31319666
19	0x3d6f8d9b	0.058484655
20	0x3dac2b24	0.08406666
21	0xbc0de72d	-0.008661074
22	0x3dcbe8a5	0.09956483
23	0xbe107658	-0.14107645
24	0x3e8aab54	0.27083838
25	0xbddafe41	-0.10693026
26	0x3e0f318d	0.13983746
27	0x3c8dc845	0.01730741
28	0x3dac9af0	0.084279895
29	0xbe472a0d	-0.19449635
30	0x3de3e026	0.11126737
31	0xbdb6d270	-0.089268565
32	0x3e9213ed	0.28530827
33	0xbe9bf69f	-0.30461594
34	0x3e73bdc2	0.23802856
35	0xbea096b6	-0.31364983
36	0xbef203d1	-0.47268537
37	0xbe9cd353	-0.30629978
38	0x3c5d70f3	0.013515699
39	0x3e159bc6	0.14610204
40	0xba94b59b	-0.0011345627
41	0x3cb8a2dc	0.022538595
42	0xbba40ef2	-0.0050066644
43	0xbe80792a	-0.2509244
44	0xbb0ce966	-0.002150142
45	0x3d5cef78	0.053939313
46	0x3d3b9b26	0.045802258
47	0x3cb123f7	0.021623595
48	0x3d5bd987	0.053674247
49	0x3d44d535	0.048054893
50	0xbe516c46	-0.2045146
51	0x3d35cd10	0.044385016
52	0xbe1bbfb2	-0.15209845
53	0xbdd70069	-0.10498125
54	0xbe115c86	-0.14195451
55	0x3c2aa88b	0.01041616
56	0xbd534cce	-0.05158692
57	0x3d29fa9a	0.041498758
58	0x3e40207a	0.18762389
59	0xbccb3201	-0.024804117
60	0xbeb81936	-0.35956734
61	0x3df8202a	0.1211551
62	0x3d806635	0.062694944
63	0x3d9afe06	0.075679824
64	0x3dd3c620	0.10340524
65	0xba97354f	-0.0011536273
66	0x3da9029b	0.0825245
67	0x3d139163	0.036027323
68	0x3e332ab8	0.17496765
69	0xbd1fd5aa	-0.039022125
70	0x39fad985	0.0004784578
71	0x3e259912	0.16171673
72	0x3df94392	0.12171091
73	0xbd784eb4	-0.060621932
74	0x3e25f741	0.16207601
75	0x3e979446	0.2960531
76	0x3daeb5ba	0.08530755
77	0x3d962ad3	0.07332387
78	0x3df60261	0.120121725
79	0xbe0c46bc	-0.13698858
80	0x3e328439	0.17433251
81	0x3ddab8d6	0.10679786
82	0x3ee33334	0.44375002
83	0x3c8b94db	0.017038753
84	0x3d2ac6bc	0.041693434
85	0x3dce8146	0.10083251
86	0x3c720fb7	0.0147742545
87	0xbde92357	-0.11383694
88	0x3e9d3ec9	0.30711964
89	0xbe045545	-0.12923153
90	0x3d9a7be5	0.07543162
91	0xbe0dc85a	-0.1384596
92	0x3db1080f	0.08644115
93	0xbde45824	-0.11149624
94	0x3cdf83d3	0.027284538
95	0xbe6028c1	-0.21890546
96	0x3e2177e8	0.15768397
97	0xbd3ac490	-0.045597613
98	0x3e1d4265	0.15357359
99	0xbe180b66	-0.14848098
100	0xbdc77d9c	-0.09740755
101	0xbe657ed9	-0.2241167
102	0xbcadd118	-0.021217868
103	0x3e5a5ce0	0.21324492
104	0x3dac1ddd	0.084041335
105	0x3e208bc4	0.15678316
106	0x3da63b9a	0.08116837
107	0xbda147bc	-0.0787501
108	0x3e0858d7	0.1331514
109	0x3c119699	0.008886003
110	0x3d86494e	0.065569505
111	0xbde78f3a	-0.11306615
112	0x3ccd00e6	0.025024842
113	0x3d9a3558	0.07529706
114	0xbe470e1d	-0.19438978
115	0x3e0976e8	0.13424265
116	0x3cb0eeae	0.021598186
117	0xbd8b04e5	-0.06788043
118	0xbd998284	-0.07495597
119	0x3dbb9521	0.091593035
120	0xbdfc3a02	-0.123157516
121	0x3db4082f	0.087906234
122	0x3e2a4ea1	0.16631557
123	0x3dc07ae8	0.093984425
124	0xbdea47cb	-0.11439475
125	0x3e0c18df	0.13681363
126	0x3b4804f8	0.003052054
127	0x3d83ee50	0.06441939
128	0xbcf045f4	-0.029330231
129	0x3df8ecad	0.12154517
130	0x3ddd37a7	0.108016305
131	0x3caa0de6	0.02075858
132	0x3e6b8b99	0.23002471
133	0xbe8cf43f	-0.27530095
134	0xbd1341f3	-0.035951566
135	0x3e2bef14	0.1679042
136	0x3dde3182	0.108492866
137	0xbe691a3c	-0.22763914
138	0x3df5ddb0	0.12005174
139	0x3e02b250	0.12763333
140	0x3d3e3fc8	0.046447545
141	0x3d906d50	0.070521
142	0x3e7895ec	0.2427594
143	0xbdce1c59	-0.10064001
144	0x3dc22013	0.09478774
145	0x3cb690e1	0.02228588
146	0x3eb7b883	0.3588296
147	0xbd0b7370	-0.034045637
148	0x3d67f423	0.05662931
149	0xbaf3fe21	-0.0018615165
150	0x3deaf9a5	0.11473397
151	0xbe2b8621	-0.16750385
152	0x3e9a9bd5	0.30197015
153	0xbd53f4d7	-0.05174717
154	0x3de7e958	0.11323804
155	0xbe35eb29	-0.17765488
156	0x3db571e4	0.088596135
157	0xbe92eba8	-0.28695416
158	0x3df7a794	0.1209251
159	0xbe073168	-0.1320244
160	0x3e451057	0.19244514
161	0xbe7e4abe	-0.248332
162	0x3db5c7fb	0.08876034
163	0xbea152cc	-0.31508482
164	0xbead0abc	-0.33797252
165	0xbea863e8	-0.32888722
166	0x3d73499e	0.05939638
167	0x3e547f2f	0.20751642
168	0x3d0e7e4b	0.03478841
169	0x3d829279	0.06375594
170	0x3c8aeaac	0.016957603
171	0xbe802b7e	-0.25033182
172	0xbc8410e0	-0.016121328
173	0x3c537659	0.012906634
174	0x3d0d3118	0.034470648
175	0xbdea0347	-0.11426406
176	0x3d2c6192	0.042085238
177	0xbb878ca0	-0.004136637
178	0xbe978243	-0.2959157
179	0x3d866758	0.0656268
180	0xbe9fbc3e	-0.31198305
181	0x3d478b51	0.048716847
182	0xbe503b07	-0.20335017
183	0x3de985cf	0.11402475
184	0xbe8d9363	-0.2765151
185	0x3dbff4ef	0.09372889
186	0x3e1bdc49	0.15220751
187	0x3d2ad5db	0.041707855
188	0xbe8c819a	-0.27442628
189	0x3df793bf	0.12088727
190	0x3ce382ea	0.027772386
191	0x3cb50e5b	0.022101572
192	0xbe81c1bc	-0.2534312
193	0xbe812cfe	-0.2522964
194	0xbdb44626	-0.08802442
195	0x3d0a43e7	0.033756163
196	0xbd530e73	-0.05152745
197	0x3e38f12e	0.18060753
198	0xbd277964	-0.04088725
199	0xbe3c6b1e	-0.18400237
200	0xbd97a4d7	-0.074044876
201	0x3b91a034	0.0044441465
202	0xbd0849ee	-0.03327363
203	0xbde4fa80	-0.111805916
204	0xbe32f50d	-0.17476292
205	0xbd47cfae	-0.048782043
206	0xbcbcd86c	-0.023052417
207	0x3e3c5595	0.18392022
208	0xbe5b9fa7	-0.21447621
209	0xbe27ae5c	-0.16375107
210	0x3cca35af	0.024683801
211	0x3ed5d467	0.41763613
212	0xbe4ee288	-0.20203602
213	0xbd3bb3a5	-0.04582562
214	0xbe3e5e94	-0.18590766
215	0x3e3836cf	0.17989658
216	0xbe382a2e	-0.1798484
217	0x3ec6de62	0.3884154
218	0xbe035356	-0.12824759
219	0x3f0013e3	0.50030345
220	0x3d7f3a69	0.062311564
221	0x3de6a9b9	0.11262841
222	0xbe8d7b48	-0.2763312
223	0x3e8fb062	0.28064257
224	0xbdf837ea	-0.1212004
225	0x3d997245	0.07492498
226	0x3ca35d98	0.01994209
227	0x3e489783	0.19589047
228	0x3dd85ea9	0.1056493
229	0x3ded60c9	0.11590726
230	0xbe60542f	-0.21907113
231	0xbdf3af2b	-0.11898645
232	0xbe4419b4	-0.1915043
233	0xbcfc65d1	-0.030810269
234	0x3b80239b	0.0039104945
235	0xbc049fdf	-0.008094757
236	0x3b8b0997	0.0042430866
237	0xbe06a6c3	-0.13149552
238	0xbe1d2b3b	-0.15348522
239	0x3ef411d9	0.47669867
240	0xbe12b7f0	-0.14327979
241	0xbe2cd9e8	-0.1688
242	0x3e54073a	0.20705882
243	0xbdd799f7	-0.10527413
244	0x3da81954	0.08207956
245	0x3ea472d2	0.3211885
246	0x3eb7fadc	0.35933578
247	0xbe704268	-0.23462832
248	0x3e8de6c9	0.27715138
249	0xbd4c1d30	-0.049832523
250	0xbde1be30	-0.110226035
251	0xbd52a417	-0.05142602
252	0x3d9d0ebc	0.07668826
253	0xbe3fa947	-0.18716918
254	0xbddfb911	-0.109239705
255	0xbe50b27e	-0.2038059

fc3.bias f4 [32]
0	0x3d1dc972	0.03852219
1	0x3d6f58fe	0.05843448
2	0x3d820577	0.063486986
3	0x3dbba225	0.09161786
4	0x3d75af8b	0.059981864
5	0x3ce7253e	0.028216
6	0x3d816c01	0.06319428
7	0x3d10563a	0.035238482
8	0x3dc0568c	0.093915075
9	0x3da6bad0	0.081411004
10	0x3db377a7	0.08763056
11	0x3d5d0095	0.053955633
12	0x3d1fe88a	0.039040126
13	0x3d80e60d	0.06293879
14	0x3ddf99ed	0.10918031
15	0x3da6d692	0.08146395
16	0x3d0a1313	0.033709597
17	0x3d2006f2	0.039069124
18	0x3c926bf2	0.017873738
19	0x3d0ad36c	0.033893034
20	0x3d4b81c9	0.04968432
21	0x3dd3ff5d	0.10351441
22	0x3d8a22e8	0.06744939
23	0x3d444e89	0.04792646
24	0x3cf8acbd	0.030355806
25	0x3d21b99d	0.039483655
26	0x3d11eb5b	0.035624843
27	0x3ba093f5	0.0049004504
28	0x3d0a8e84	0.03382732
29	0x3da7b99a	0.081896976
30	0x3db5b243	0.08871891
31	0x3d9fd19b	0.07803651

fc4.weight f4 [16, 32]
0	0x3d0f2818	0.034950346
1	0x3d57d365	0.052691836
2	0x3d68fb38	0.056880206
3	0xbf65736c	-0.89629245
4	0x3d529673	0.05141301
5	0x3dad0181	0.084475525
6	0x3cbe1f13	0.023208177
7	0xbf8f9eb6	-1.122031
8	0x3d032fd5	0.032028038
9	0x3cbd2014	0.023086585
10	0xbf8565c3	-1.042168
11	0x3cd435a2	0.02590448
12	0xbf80309e	-1.0014837
13	0xbf816df7	-1.0111684
14	0x3c7a56dd	0.015279499
15	0x3d0cca7a	0.034372784
16	0x3d05d60b	0.03267483
17	0x3dac6fa1	0.08419729
18	0x3b46f174	0.003035632
19	0xbf824c2d	-1.0179497
20	0x3d25fc52	0.040523835
21	0x3d51e66d	0.05124514
22	0x3d84798f	0.06468498
23	0x3d75bcf0	0.059994638
24	0x3d33772a	0.043814816
25	0xbf661bbe	-0.8988608
26	0x3de7cefd	0.11318777
27	0x3bd804d8	0.0065923743
28	0x3d1d6e46	0.038435243
29	0x3d3ff76f	0.04686683
30	0x3d8fb643	0.070171855
31	0xbf50246b	-0.8130557
32	0x3c381aab	0.011236827
33	0x3d9274ad	0.071511604
34	0x3da0bc4d	0.078484155
35	0xbf15793d	-0.5838812
36	0x3d86f6aa	0.06590016
37	0x3da70372	0.08154954
38	0x3d0e0fbf	0.034682985
39	0xbf5ab7b6	-0.8543657
40	0x3d61815d	0.05505501
41	0x3d3a1bc3	0.045436632
42	0xbf4e3f4c	-0.80565333
43	0x3dd7f52a	0.10544808
44	0xbf4ceaac	-0.8004558
45	0xbf473d88	-0.77828264
46	0x3d366e89	0.04453901
47	0x3d14c85d	0.036323894
48	0x3d84c6d3	0.06483235
49	0x3bf0f289	0.007353131
50	0x3dba86e1	0.09107757
51	0xbf5d480b	-0.86438054
52	0x3d7acf5d	0.061232913
53	0x3d4f98f2	0.05068297
54	0x3d41192c	0.047143146
55	0x3dc742ec	0.09729561
56	0x3d414222	0.04718221
57	0xbf574e2b	-0.8410365
58	0x3d3b273d	0.045691717
59	0x3df350c0	0.11880636
60	0x3db7d9af	0.08977067
61	0x3c8054c6	0.015665423
62	0x3d6f384b	0.058403295
63	0xbf092227	-0.5356774
64	0x3d2de574	0.04245515
65	0x3cf0c108	0.02938892
66	0x3d272d59	0.04081473
67	0xbf1a1055	-0.6018117
68	0x3cf11d77	0.029432995
69	0x3d79e8f8	0.061013192
70	0x3d5447b4	0.051826194
71	0xbf63cff4	-0.88989186
72	0x3c9dabae	0.019246902
73	0x3c7b7f3c	0.015350159
74	0xbf6dbddd	-0.92867833
75	0x3d6ab8b7	0.057305064
76	0xbf415119	-0.7551437
77	0xbf522054	-0.8208058
78	0x3c508367	0.012726641
79	0x3d7295d9	0.059224937
80	0x3dcf1c9d	0.101128794
81	0x3db1c3bf	0.08679914
82	0x3c89e0ba	0.01683079
83	0xbf51db0e	-0.81974876
84	0x3a2682e6	0.0006351903
85	0x3d32a6a0	0.043615937
86	0xbbc67ee6	-0.006057608
87	0x3d7bae33	0.061445426
88	0x3db1630a	0.08661468
89	0xbf4b7823	-0.7948019
90	0x3ca3bdd6	0.019987982
91	0x3dc4f346	0.09616713
92	0x3d3aa1b9	0.045564387
93	0x3d5f5f59	0.05453429
94	0x3d214c6f	0.039379533
95	0xbf47a5d4	-0.7798741
96	0x3d96f475	0.07370845
97	0x3c82c5a9	0.015963392
98	0x3d229014	0.039688185
99	0xbf3c7707	-0.7361912
100	0x3d3a01b0	0.045411766
101	0x3d4d2a38	0.05008909
102	0xb9e12b8d	-0.00042947792
103	0xbf6cef19	-0.92552334
104	0x3d6736eb	0.05644886
105	0x3d98f0a3	0.07467773
106	0xbf71302c	-0.9421413
107	0x3d1ffb32	0.039057918
108	0xbf653ef0	-0.8954916
109	0xbf566110	-0.83741856
110	0x3d452c36	0.048137866
111	0x3c8765ab	0.016527971
112	0x3c58750b	0.013211499
113	0x3d802386	0.062567756
114	0x3d386672	0.045019574
115	0xbf66db44	-0.9017832
116	0x3d9bcda2	0.07607581
117	0x3d00ea67	0.031473543
118	0x3d55ad60	0.052167296
119	0xbc28d1c2	-0.010303916
120	0x3d424d58	0.047437042
121	0xbf756b08	-0.9586644
122	0x3dce1b78	0.10063833
123	0x3db47695	0.0881168
124	0x3d945e6e	0.072445735
125	0x3d135501	0.035969738
126	0x3d302d60	0.043012023
127	0xbf41d1c7	-0.7571072
128	0xbe79e850	-0.24405026
129	0xbe4b095d	-0.1982779
130	0xbe0df78e	-0.13863966
131	0x3dd15726	0.102217
132	0xbeacc055	-0.33740488
133	0xbe38a5b8	-0.18031967
134	0xbea26148	-0.31714845
135	0x3e914e27	0.28379938
136	0xbe5a6629	-0.21328034
137	0xbe6f5805	-0.2337342
138	0x3e1d6949	0.15372194
139	0xbe9b235f	-0.30300424
140	0x3e1fd482	0.15608409
141	0x3e09e01f	0.13464402
142	0xbe81b387	-0.2533228
143	0xbe3f6b58	-0.18693292
144	0xbe5beb33	-0.2147644
145	0xbe9e19f5	-0.3087918
146	0xbe4a1da8	-0.19737875
147	0x3e6b36c9	0.22970118
148	0xbec6d4f5	-0.38834348
149	0xbea9aa23	-0.33137617
150	0xbe6525a9	-0.22377647
151	0xbe8dbe89	-0.2768443
152	0xbea65cb4	-0.32492602
153	0x3df3ea9b	0.11909982
154	0xbe7677f3	-0.24069194
155	0xbea1d337	-0.31606457
156	0xbe8dbdba	-0.27683812
157	0xbe4641dc	-0.19361061
158	0xbe13d403	-0.14436345
159	0x3db8bce9	0.09020407
160	0x3d8c61e6	0.0685461
161	0x3c7f5a52	0.015585499
162	0x3d1c6cd0	0.03818971
163	0xbf48c0ca	-0.7841917
164	0x3bd58b84	0.0065168757
165	0x3d4f0784	0.050544277
166	0x3cc33c1c	0.023832373
167	0xbf693354	-0.91093946
168	0x3d19a4c9	0.037510667
169	0x3d0d653f	0.034520384
170	0xbf88a692	-1.0675833
171	0x3d6d3dbe	0.05792021
172	0xbf7e138c	-0.99248576
173	0xbf81a678	-1.0128927
174	0x3cc3fecb	0.023925206
175	0x3c40003f	0.011718809
176	0x3d945100	0.07242012
177	0x3d0b299e	0.033975236
178	0x3cb87eda	0.022521425
179	0xbf7f6542	-0.9976388
180	0x3d8d7520	0.069071054
181	0x3c6d5b54	0.014487106
182	0x3cc6ffa2	0.024291817
183	0x3d4ff670	0.05077213
184	0x3d2d6b29	0.042338524
185	0xbf776ef5	-0.9665368
186	0x3cf79ffa	0.03022765
187	0x3d0a79c8	0.033807546
188	0x3b911bc9	0.004428361
189	0x3cee0004	0.029052742
190	0x3d0f61cf	0.035005387
191	0xbf55c7f5	-0.83508235
192	0x3d27fd98	0.04101333
193	0x3da7527a	0.08170028
194	0x3dbbdd64	0.09173086
195	0xbf284db8	-0.6574359
196	0x3d5421b5	0.051789958
197	0xbcaa0fd9	-0.02075951
198	0x3d906569	0.070505925
199	0xbf62bae2	-0.8856641
200	0x3d189ae9	0.03725711
201	0x3d05714d	0.032578755
202	0xbf6ed441	-0.93292624
203	0x3d8f159c	0.069865435
204	0xbf49316b	-0.7859103
205	0xbf5353e7	-0.825499
206	0x3d61a03b	0.05508445
207	0x3d595c0b	0.053066295
208	0x3d776b93	0.060405325
209	0x3d95c8f7	0.073137216
210	0x3dcf2344	0.10114148
211	0xbf581eb0	-0.84421825
212	0x3d829b27	0.06377249
213	0x3c38930a	0.011265526
214	0x3d88e0ac	0.06683478
215	0x3d3a2e84	0.045454517
216	0x3cb3a056	0.02192704
217	0xbf460ecb	-0.7736632
218	0x3dd811d5	0.10550276
219	0x3dec24f2	0.11530484
220	0x3d86b883	0.065781616
221	0x3d1143b2	0.03546495
222	0x3d9786d9	0.07398767
223	0xbf31a655	-0.6939443
224	0x3de693b2	0.112586394
225	0x3d44111b	0.047867876
226	0x3dd7ec08	0.10543066
227	0xbf2ecae5	-0.6827834
228	0x3dc7fe3c	0.09765288
229	0x3d431492	0.04762704
230	0x3d86dbaa	0.06584866
231	0xbf6a29ee	-0.9147023
232	0x3d6b84b3	0.0574996
233	0x3daef013	0.08541884
234	0xbf527f99	-0.8222595
235	0x3dc3c154	0.09558359
236	0xbf5168aa	-0.8180033
237	0xbf414758	-0.75499487
238	0x3d56e10e	0.052460723
239	0x3d845303	0.06461146
240	0x3d27f98c	0.04100947
241	0x3dbb1292	0.091344014
242	0x3dae07c2	0.084975734
243	0xbf67c262	-0.9053098
244	0x3ced4d38	0.028967485
245	0x3d52bdd6	0.051450573
246	0x3c9cbfc2	0.019134406
247	0x3c19d88d	0.009390009
248	0x3d381d2c	0.044949695
249	0xbf5486d6	-0.83018243
250	0x3d33e314	0.04391773
251	0x3cfcc291	0.030854495
252	0x3d6f8a5d	0.058481563
253	0x3d38b02b	0.045089882
254	0x3d91a507	0.071115546
255	0xbf11ed24	-0.5700247

fc4.bias f4 [16]
0	0x3e3c3b73	0.18382053
1	0x3e4ebcff	0.20189284
2	0x3e32ec1d	0.17472883
3	0x3e5abcc9	0.21361078
4	0x3f087cf2	0.5331565
5	0x3e48ad11	0.1959727
6	0x3e5d4ee9	0.21612133
7	0x3e55c6ed	0.20876665
8	0x3e623a3b	0.22092526
9	0x3f06628b	0.52494115
10	0x3e928b67	0.2862198
11	0x3eff33c2	0.49844176
12	0x3e323b0a	0.17405334
13	0x3efd7251	0.4950128
14	0x3ee365d1	0.44413617
15	0x3f0318b4	0.5120957

fc5.weight f4 [1, 16]
0	0xbe3276bf	-0.1742811
1	0xbdf6013c	-0.12011954
2	0xbe28e7cd	-0.16494675
3	0xbe1cdf6b	-0.15319602
4	0x3ec47c5e	0.38376135
5	0xbe54a870	-0.20767379
6	0xbdfff6fe	-0.12498282
7	0xbdfec85b	-0.124405585
8	0xbde7988e	-0.11308394
9	0x3ee56ff9	0.4481199
10	0xbda09415	-0.078407444
11	0x3eaa3513	0.33243617
12	0xbe3a2656	-0.18178686
13	0x3f01bb4a	0.50676405
14	0x3f08abd2	0.53387177
15	0x3eb2e760	0.3494215
