python model Testing/best_points_model.pt (torch, 58552 bytes, 7 tensors)

fc1.weight f4 [128, 26]
-0.45370594 -0.17457207 -0.41990167 -1.0555053 1.1647294 0.8825066 -0.9831631 0.3235539
1.5541034 -0.32513723 0.5116971 -0.6620621 -0.1361003 -0.2370909 -1.06632 -0.22271395
-0.5488434 1.3958936 1.5119636 -0.23810332 1.45797 0.989948 -3.476463 1.9638785
0.0015268918 1.2795819 0.18941274 -1.01082 -1.6022241 -1.0753365 0.07093936 -0.1200311
-0.77934766 -0.22338176 -0.11601656 0.25326568 0.17893966 -0.10078568 -0.6159291 0.37890434
-0.5205092 -0.42014644 0.3496041 -0.0052937674 0.22450316 -0.089462966 0.23868297 -0.23752224
0.2908414 -0.34040698 -0.50368536 3.7074976 -0.40597683 0.9618773 1.3950354 0.6594556
0.69215345 -0.75812626 0.14245524 0.2790789 0.582092 -1.0240873 0.49146074 -0.47833315
-0.46479347 -0.8408707 -0.5559141 -0.8968407 0.035001468 -0.94282275 0.091877595 0.08572428
-0.7543141 -0.047586888 2.2044141 -0.9098864 -1.8795623 -0.27921432 0.014977075 -2.6444602
-2.6383407 0.34094605 -0.22044873 -1.1042024 -0.5488128 0.19124906 -1.4093655 0.048195414
0.23614758 -0.037044473 -0.2329598 0.74817437 -0.08697134 -0.07075922 -0.2200563 0.24911703
0.056410376 0.16944659 -0.096945874 0.038140405 0.25262856 0.16354398 -0.29825988 2.0498068
-0.5348233 1.4480184 1.9861737 0.20687263 -0.24351647 0.30887866 -0.22255322 -0.0026532738
0.347996 0.66111 -0.60626227 0.110054605 -0.3018144 0.19191763 -0.012687912 0.375886
-0.011927651 -0.04905167 0.13617732 0.19769531 -0.35131297 -0.31300414 0.12891915 0.30506623
-0.13994557 -5.891751 1.0659168 -0.40908098 0.4528583 -0.3183724 -0.42541718 -0.131533
-1.1159629 -0.02267634 0.1710875 -0.33127326 -0.028428525 -0.41584516 0.07151265 1.5469052
-1.2558097 -0.6087 1.7867345 -0.6860538 0.1900245 1.0372602 0.44057342 0.31546476
-0.25690332 -0.99349487 -0.7889243 -1.9275668 -0.18145898 -1.3355924 -1.4334362 0.99490094
0.73426336 -0.9497444 2.5903516 -0.79146296 -0.5134842 1.0079129 -0.25355342 -0.6816542
0.5698449 -0.6353071 0.61504096 0.88256246 -0.17405795 -0.8107597 0.65097237 -0.39559242
-0.52185893 3.98572 -0.33293796 -2.1697736 1.625996 0.2300884 0.096942194 1.4895855
1.7839459 0.5187929 0.04873081 0.2812791 -0.6997078 0.3538077 0.5482645 0.4689583
-0.74366266 -0.37352353 -0.8305593 0.31351236 0.022123093 -0.25620028 0.49452642 0.007088604
0.13587385 0.073081955 0.30427873 -0.45103282 0.043039147 0.611996 0.08408991 -6.123464
0.87636167 0.24451664 0.03283327 -0.28305876 0.40677345 0.13755423 -0.67085826 -0.25986844
-0.041225623 -0.71895075 -0.4480929 1.5295492 1.3352431 1.5704973 0.49163803 -0.5695825
-0.49651024 -0.8208706 -0.50723153 0.2697594 -0.8096771 1.0614747 -0.20350519 -0.84999734
0.12570179 -3.333768 -0.42299756 -1.0206852 -1.030405 1.3801389 -0.05871236 0.77291316
-1.3545908 0.18568462 -1.7068038 1.0141459 -0.005060543 0.0034151825 -0.58969444 -0.47036758
-0.5881701 -0.35976902 0.115838446 0.5934812 -0.05337552 1.1736815 -1.0610775 1.2773201
00000000: 254c e8be 05c3 32be 5afd d6be cc1a 87bf
00000010: da15 953f f4eb 613f 94b0 7bbf dba8 a53e
00000020: dcec c63f 6378 a6be 95fe 023f e77c 29bf
00000030: e15d 0bbe f5c7 72be 2c7d 88bf 200f 64be
00000040: 0081 0cbf a4ac b23f 0688 c13f 5bd1 73be
00000050: c39e ba3f 3b6d 7d3f 5f7e 5ec0 5f60 fb3f
00000060: fd21 c83a 57c9 a33f 6af5 413e 8d62 81bf
00000070: ae15 cdbf a0a4 89bf a848 913d ded2 f5bd
00000080: 5483 47bf 30be 64be 179a edbd 0aac 813e
00000090: f53b 373e b968 cebd 88ad 1dbf c0ff c13e
000000a0: 1740 05bf 6f1d d7be 4fff b23e 5777 adbb
000000b0: 28e4 653e 5c38 b7bd 4f69 743e 0839 73be
000000c0: 2ae9 943e d349 aebe 86f1 00bf a447 6d40
000000d0: 32dc cfbe 973d 763f 8590 b23f 15d2 283f
000000e0: f830 313f 9014 42bf c9df 113e 6ee3 8e3e
000000f0: fb03 153f 4b15 83bf bea0 fb3e 15e8 f4be
00000100: 69f9 edbe 4d43 57bf 6350 0ebf 5a97 65bf
00000110: b35d 0f3d d55c 71bf 522a bc3d 3690 af3d
00000120: bb1a 41bf 78ea 42bd 1f15 0d40 51ee 68bf
00000130: 7f95 f0bf 2ef5 8ebe 6862 753c d63e 29c0
00000140: 93da 28c0 7b90 ae3e 50bd 61be 8156 8dbf
00000150: ff7e 0cbf cbd6 433e 1766 b4bf 8e68 453d
00000160: acd0 713e f2bb 17bd 048d 6ebe 5b88 3f3f
00000170: 081e b2bd 36ea 90bd 7056 61be 8918 7f3e
00000180: 910e 673d 6883 2d3e 8f8b c6bd 1d39 1c3d
00000190: 8858 813e 1378 273e 85b5 98be 0930 0340
000001a0: 2eea 08bf ab58 b93f f13a fe3f 6bd6 533e
000001b0: 625c 79be 5825 9e3e fee4 63be 8ce2 2dbb
000001c0: 882c b23e 813e 293f 0134 1bbf 4f64 e13d
000001d0: 6b87 9abe 0e86 443e f6e0 4fbc 2174 c03e
000001e0: 326c 43bc 67ea 48bd 1172 0b3e a470 4a3e
000001f0: 4bdf b3be 1442 a0be 6203 043e a431 9c3e
00000200: e44d 0fbe 3989 bcc0 f66f 883f 1073 d1be
00000210: 0bdd e73e b501 a3be 48d0 d9be 96b0 06be
00000220: dfd7 8ebf bbc3 b9bc 9031 2f3e a69c a9be
00000230: f0e2 e8bc a8e9 d4be 3975 923d fd00 c63f
00000240: 5fbe a0bf c3d3 1bbf b7b3 e43f 39a1 2fbf
00000250: c895 423e f1c4 843f d792 e13e 9984 a13e
00000260: d588 83be ae55 7ebf f1f6 49bf 82ba f6bf
00000270: 62d0 39be b1f4 aabf d67a b7bf d4b1 7e3f
00000280: aff8 3b3f 7322 73bf 52c8 2540 519d 4abf
00000290: b373 03bf 4a03 813f c1d1 81be e480 2ebf
000002a0: 5be1 113f 7ca3 22bf 5373 1d3f 9def 613f
000002b0: 3f3c 32be f38d 4fbf 20a6 263f 178b cabe
000002c0: 8c98 05bf 0916 7f40 d876 aabe 92dd 0ac0
000002d0: a320 d03f 4b9c 6b3e a189 c63d bdaa be3f
000002e0: 5758 e43f 9dcf 043f f599 473d d003 903e
000002f0: 0d20 33bf 4826 b53e 105b 0c3f 4d1b f03e
00000300: ad60 3ebf 7a3e bfbe 899f 54bf b184 a03e
00000310: 7d3b b53c af2c 83be 9132 fd3e 8547 e83b
00000320: 8422 0b3e feab 953d 6cca 9b3e c6ed e6be
00000330: d149 303d c5ab 1c3f 5537 ac3d 6bf3 c3c0
00000340: 3d59 603f 9262 7a3e 2e7c 063d 14ed 90be
00000350: 9c44 d03e 04db 0c3e 5ebd 2bbf 7a0d 85be
00000360: 33dc 28bd 280d 38bf 6f6c e5be 45c8 c33f
00000370: 3fe9 aa3f 0e06 c93f fbb7 fb3e 29d0 11bf
00000380: 9736 febe 9324 52bf edd9 01bf e71d 8a3e
00000390: 0047 4fbf 67de 873f aa63 50be 6d99 59bf
000003a0: f8b7 003e 745c 55c0 2393 d8be d0a5 82bf
000003b0: 50e4 83bf 64a8 b03f 5f7c 70bd a3dd 453f
000003c0: 3b63 adbf 1c24 3e3e 8c78 dabf 88cf 813f
000003d0: e9d2 a5bb 41d1 5f3b 37f6 16bf 05d4 f0be
000003e0: 5192 16bf a533 b8be b53c ed3d 62ee 173f
000003f0: 4aa0 5abd 323b 963f 63d1 87bf 3a7f a33f

fc1.bias f4 [128]
-9.761012 2.2628438 -4.6504006 -4.831359 -4.4011793 -6.8176255 -5.07274 -4.6415486
-2.4761274 -2.3310485 -3.650803 1.2944583 -2.9800165 -4.4713964 -0.53712034 -8.807052
-4.2806206 -5.439003 -9.127131 -5.7068925 -1.4761611 -6.5947266 -8.526548 -7.1164026
-4.175666 -7.337765 4.4227514 -0.59087515 1.191403 -3.3030164 2.3877487 0.14995258
-5.9643064 -10.558491 -3.0324438 -4.5304294 1.3430054 1.1615388 -0.00018096062 -3.020113
-2.733604 -6.5176225 -2.6944375 -2.1686263 -4.6743846 -1.3608133 3.722506 -5.444546
-7.1832824 -3.8990402 -0.2953119 -6.7958283 -3.7888544 0.98418856 1.1291372 -7.2086473
-0.7314308 3.6311386 -3.2245822 0.5188137 -4.187767 -4.777527 -7.16696 -3.9674153
-5.075238 -4.9141955 -7.1759524 -4.4080734 -1.6975026 -1.7031648 -7.865762 -1.0443146
-3.5160418 -4.7834835 -4.25469 -5.7265134 -1.8993175 -5.2125473 -7.883506 -4.412361
-5.891426 -4.8198004 -2.5244446 -2.371885 -4.6647687 -7.002736 -3.8566084 -4.6947575
-3.4636555 -5.660274 0.16696158 -5.860254 -4.4825115 -4.981714 -4.7832413 -2.4122953
2.1459916 -6.0309477 -9.141538 -5.0973716 -5.2806196 -0.21777353 -8.044272 -9.906101
1.4739997 -4.2744784 -4.527218 -2.0718493 -4.632676 -8.169831 -4.39313 0.9072014
1.5386859 -2.184399 -1.4981257 -3.4352 -1.6163627 -5.6563144 -4.685454 -9.054926
1.7892053 -0.52523476 -2.788635 -0.27531096 -5.7442408 -6.534603 -4.2735214 -6.9568033
00000000: 1b2d 1cc1 6fd2 1040 15d0 94c0 7e9a 9ac0
00000010: 76d6 8cc0 fd29 dac0 e353 a2c0 9187 94c0
00000020: df78 1ec0 e62f 15c0 c2a6 69c0 cfb0 a53f
00000030: 97b8 3ec0 ae15 8fc0 b880 09bf afe9 0cc1
00000040: d8fa 88c0 500c aec0 bb08 12c1 dd9e b6c0
00000050: d9f2 bcbf 0008 d3c0 be6c 08c1 92b9 e3c0
00000060: 0e9f 85c0 f9ce eac0 2e87 8d40 9843 17bf
00000070: e57f 983f 9f64 53c0 e0d0 1840 2b8d 193e
00000080: 99db bec0 94ef 28c1 8f13 42c0 47f9 90c0
00000090: 9ae7 ab3f 4ead 943f 3fc0 3db9 8849 41c0
000000a0: 5ef3 2ec0 5d90 d0c0 aa71 2cc0 c6ca 0ac0
000000b0: 8f94 95c0 212f aebf 8a3d 6e40 b939 aec0
000000c0: 73dd e5c0 e089 79c0 1f33 97be 6d77 d9c0
000000d0: 977c 72c0 c8f3 7b3f 9187 903f 3dad e6c0
000000e0: 0d3f 3bbf 9364 6840 8e5f 4ec0 fad0 043f
000000f0: 3002 86c0 80e1 98c0 bc57 e5c0 22ea 7dc0
00000100: 5a68 a2c0 1741 9dc0 67a1 e5c0 f00e 8dc0
00000110: c447 d9bf 4e01 dabf 53b4 fbc0 1aac 85bf
00000120: d406 61c0 4c12 99c0 6c26 88c0 993f b7c0
00000130: d61c f3bf 30cd a6c0 ae45 fcc0 1032 8dc0
00000140: 9086 bcc0 ce3b 9ac0 8090 21c0 f7cc 17c0
00000150: c945 95c0 6a16 e0c0 acd2 76c0 743b 96c0
00000160: 88ac 5dc0 f720 b5c0 faf7 2a3e 3387 bbc0
00000170: bc70 8fc0 336a 9fc0 5010 99c0 0c63 1ac0
00000180: ed57 0940 86fd c0c0 bd43 12c1 ab1d a3c0
00000190: d6fa a8c0 0600 5fbe 57b5 00c1 647f 1ec1
000001a0: 06ac bc3f 87c8 88c0 f8de 90c0 2e99 04c0
000001b0: e23e 94c0 a1b7 02c1 8594 8cc0 5a3e 683f
000001c0: a9f3 c43f 31cd 0bc0 95c2 bfbf 51da 5bc0
000001d0: f9e4 cebf 8700 b5c0 3def 95c0 fae0 10c1
000001e0: ae04 e53f c975 06bf ff78 32c0 8ff5 8cbe
000001f0: d2d0 b7c0 781b d1c0 b0c0 88c0 229e dec0

fc2.weight f4 [64, 128]
-0.76363707 -1.4608699 0.80810213 1.7372515 -0.25609615 3.2965922 -2.32052 -0.28405353
-0.3508561 -2.1874688 -0.3267626 -0.28794158 -0.18642604 -0.39501283 -0.095374405 0.9247647
-0.61141247 -0.6378092 2.0416129 0.861169 0.1678654 0.7145488 2.2951443 -1.6642624
0.9541054 -1.3167797 -0.62617296 -1.1341164 -2.4345238 -0.34765258 -0.6111159 0.40407124
-1.038795 3.0047824 -0.19233419 0.092830196 -1.347411 -1.6184806 -0.13426283 -2.2581391
-0.25796607 2.9161937 0.6727367 -0.3801233 1.4491932 -1.6848387 -1.5489199 0.81835943
4.284172 -1.4538966 -0.93089014 -1.6316495 0.99358535 -1.862256 -2.6871874 0.6300238
-1.5720997 -0.50476146 -1.2014318 -0.351767 -0.61646545 0.24109189 2.3466928 -0.4569132
-0.29550114 -0.52105683 2.5212157 -0.42239672 -0.18129489 -0.25206712 0.57876766 -1.5742965
-0.3261042 -0.49665582 -0.083746776 0.5162002 -2.718842 0.46169963 1.9923495 -0.3635667
-0.2346625 -0.3778937 -0.23998964 -0.04109276 -0.46196797 1.5472549 1.0105641 0.46251383
-1.6780025 1.340045 -0.657664 -2.3350153 0.67579967 -1.3312488 -2.5562336 -0.024901593
-2.244054 0.6775208 4.686434 0.74272346 0.06125099 -0.12533364 0.94168395 2.041156
-1.0627656 -0.8589719 -0.35428086 -0.22476001 -0.5194192 -3.0374808 -0.35407883 -1.6361506
-0.8432567 -0.14052938 -1.235779 -2.8984456 -0.11272103 1.2929622 -0.44415763 1.8887604
-1.1423453 -0.01507376 -0.15254389 -0.040338095 1.7341316 3.2519586 3.2626126 -1.730708
6.5842285 0.19784097 0.022310715 2.912732 0.47470465 6.306627 5.122369 -0.3529037
-0.33209282 0.8395136 -2.740505 0.008797755 -1.5292904 0.4694474 -1.9939345 6.3002996
4.032952 0.2743805 7.8084035 3.5545094 0.8835415 6.518035 7.745328 1.8799444
1.7349496 7.031183 0.10665262 0.99063087 0.021006357 -0.49054015 0.0622515 0.6262965
3.5087574 4.6364293 -1.4755256 1.5033121 0.1878691 0.5983712 -1.538668 -0.47484967
-0.75495917 -1.452662 0.5120958 0.9680667 1.5184158 0.9692645 0.59460247 2.075305
3.5984323 -1.4672989 -0.14799164 4.616429 1.1511168 0.57157916 0.17433596 6.2289243
0.5088731 0.098437674 0.41729763 -0.4194854 1.103766 -5.3687444 6.467859 1.2241427
-2.2592795 1.0053301 7.652264 -1.483231 -2.0927289 -0.66170084 5.6324205 -0.2076542
-2.06942 1.3259946 0.77053523 2.6899233 0.044436663 -0.66170543 7.836223 -1.3381598
-5.6580315 2.0936391 0.40817267 -3.3335183 -0.67701715 5.3389044 1.2949145 3.399323
1.3521973 -1.0621581 0.4745221 2.176492 0.6337929 6.1603303 2.0139441 -1.115606
-0.1379013 0.54068273 9.909592 -2.2043896 0.8540777 -0.69585526 6.590323 8.613786
0.007762765 -1.4157821 0.06746314 0.47713855 0.76241285 13.53229 1.4920388 -0.04435616
0.018130774 -0.37100658 -0.0009840674 1.6970241 -0.66751593 4.078952 1.2503371 5.2309437
0.18060449 -0.75358725 -1.5761454 -0.84743136 3.5582442 -3.3888218 -1.6972979 4.717577
00000000: b87d 43bf c9fd babf c8df 4e3f 425e de3f
00000010: 091f 83be 5efb 5240 6683 14c0 776f 91be
00000020: 69a3 b3be 7dff 0bc0 6d4d a7be 146d 93be
00000030: 78e6 3ebe 1f3f cabe a853 c3bd 61bd 6c3f
00000040: 8785 1cbf 7747 23bf c9a9 0240 9275 5c3f
00000050: e8e4 2b3e acec 363f a5e3 1240 8d06 d5bf
00000060: 4040 743f 3d8c a8bf df4c 20bf ba2a 91bf
00000070: 3dcf 1bc0 85ff b1be 1772 1cbf 6de2 ce3e
00000080: 3cf7 84bf 5b4e 4040 41f3 44be c21d be3d
00000090: f777 acbf 5f2a cfbf 327c 09be 5a85 10c0
000000a0: 2114 84be eba2 3a40 7938 2c3f 859f c2be
000000b0: 2a7f b93f cba8 d7bf 0243 c6bf 0180 513f
000000c0: f017 8940 4919 babf d14e 6ebf e4d9 d0bf
000000d0: 9c5b 7e3f 685e eebf e1fa 2bc0 3d49 213f
000000e0: 903a c9bf 0c38 01bf 84c8 99bf ce1a b4be
000000f0: aed0 1dbf cbe0 763e 3730 1640 87f0 e9be
00000100: ed4b 97be fb63 05bf 995b 2140 6244 d8be
00000110: 5ea5 39be f10e 81be 1e2a 143f 8c82 c9bf
00000120: 21f7 a6be ac49 febe 6e83 abbd b225 043f
00000130: 8201 2ec0 e563 ec3e 4f05 ff3f 6a25 babe
00000140: 5e4b 70be 487b c1be d8bf 75be e250 28bd
00000150: 1187 ecbe 730c c63f 2a5a 813f 9dce ec3e
00000160: c9c8 d6bf 9886 ab3f ab5c 28bf e470 15c0
00000170: 3501 2d3f 5c66 aabf 5599 23c0 6dfe cbbc
00000180: 959e 0fc0 0172 2d3f 44f7 9540 2023 3e3f
00000190: 51e2 7a3d 7657 00be 3312 713f 4da2 0240
000001a0: b408 88bf 95e5 5bbf 4d64 b5be 7d27 66be
000001b0: a8f8 04bf 1666 42c0 d249 b5be 626d d1bf
000001c0: acdf 57bf efe6 0fbe 022e 9ebf 2280 39c0
000001d0: 49da e6bd c97f a53f a168 e3be e7c2 f13f
000001e0: 5f38 92bf eff7 76bc 7734 1cbe 8f39 25bd
000001f0: 06f8 dd3f 1720 5040 a5ce 5040 d787 ddbf
00000200: 00b2 d240 d396 4a3e f6c4 b63c 336a 3a40
00000210: 7d0c f33e e3cf c940 72ea a340 cbaf b4be
00000220: 1208 aabe 5dea 563f 6f64 2fc0 7624 103c
00000230: cabf c3bf 695b f03e 3f39 ffbf 0e9c c940
00000240: f10d 8140 9a7b 8c3e 71de f940 157d 6340
00000250: c72f 623f be93 d040 bad9 f740 05a2 f03f
00000260: d412 de3f 73ff e040 b06c da3d fc99 7d3f
00000270: 8615 ac3c 1428 fbbe 6efb 7e3d f854 203f
00000280: 7b8f 6040 a15d 9440 06de bcbf 886c c03f
00000290: c260 403e db2e 193f 13f3 c4bf 7f1f f3be
000002a0: 0145 41bf d4f0 b9bf b618 033f 38d3 773f
000002b0: 735b c23f b821 783f de37 183f ccd1 0440
000002c0: b74c 6640 73d0 bbbf 1f8b 17be c9b9 9340
000002d0: cc57 933f 0353 123f 2085 323e 5953 c740
000002e0: 8245 023f b199 c93d 09a8 d53e cac6 d6be
000002f0: 3448 8d3f c1cc abc0 b3f8 ce40 b5b0 9c3f
00000300: 0998 10c0 a8ae 803f 59df f440 83da bdbf
00000310: 45ef 05c0 3a65 29bf ca3c b440 4da3 54be
00000320: 6171 04c0 31ba a93f cc41 453f b427 2c40
00000330: 3803 363d 8765 29bf 57c2 fa40 d248 abbf
00000340: 980e b5c0 2ffe 0540 02fc d03e 5d58 55c0
00000350: ff50 2dbf 4ed8 aa40 c2bf a53f 828e 5940
00000360: cd14 ad3f ccf4 87bf 90f4 f23e a54b 0b40
00000370: 4040 223f 6d21 c540 76e4 0040 2dcc 8ebf
00000380: 0036 0dbe 2f6a 0a3f b08d 1e41 b814 0dc0
00000390: d6a4 5a3f 9223 32bf ede3 d240 11d2 0941
000003a0: cb5e fe3b 5938 b5bf 1d2a 8a3d 814b f43e
000003b0: 7d2d 433f 4384 5841 21fb be3f ceae 35bd
000003c0: fd86 943c 93f4 bdbe d3fb 80ba 1638 d93f
000003d0: 53e2 2abf c686 8240 0c0b a03f e463 a740
000003e0: 62f0 383e 18eb 40bf 22bf c9bf 43f1 58bf
000003f0: 46ba 6340 75e2 58c0 0f41 d9bf 64f6 9640

fc2.bias f4 [64]
-4.421823 2.320845 -12.750916 -9.830136 -15.735051 -1.4355084 2.0379565 10.836435
-7.000671 1.8715749 -7.8036165 -0.5751952 -1.3442969 3.423689 -0.17838518 -7.6601405
-0.18907674 -1.3069036 -8.537539 -11.562766 -1.444883 -14.413193 3.5684822 -17.495117
-12.057944 -1.4147455 7.1498747 -0.60841674 3.6767373 -11.670941 -5.3674793 -10.084099
6.951232 -2.7420194 -17.108307 2.1834435 4.521708 0.653693 -1.2505957 4.9206553
0.10497499 -0.307299 3.9128513 2.6444316 3.0766897 4.4401197 2.648528 3.921489
2.9353094 -1.9553841 -2.2162273 -10.613636 -15.617944 2.4059074 -5.5149226 -1.5285108
6.7830744 1.8429773 -2.1007638 2.6797023 1.1254618 -0.93023 -0.10513679 -1.9498138
00000000: 937f 8dc0 b988 1440 c003 4cc1 3d48 1dc1
00000010: c5c2 7bc1 bdbe b7bf e16d 0240 0a62 2d41
00000020: 7f05 e0c0 c48f ef3f 3ab7 f9c0 fe3f 13bf
00000030: ec11 acbf b81d 5b40 9baa 36be df1f f5c0
00000040: 559d 41be 9e48 a7bf c299 08c1 1701 39c1
00000050: edf1 b8bf 709c 66c1 0362 6440 00f6 8bc1
00000060: 57ed 40c1 6116 b5bf c6cb e440 33c1 1bbf
00000070: aa4f 6b40 2dbc 3ac1 64c2 abc0 7858 21c1
00000080: 7e70 de40 3f7d 2fc0 d0dd 88c1 8abd 0b40
00000090: d5b1 9040 6d58 273f 8513 a0bf 0276 9d40
000000a0: 21fd d63d 4b56 9dbe 286c 7a40 5e3e 2940
000000b0: 7ce8 4440 7615 8e40 7c81 2940 adf9 7a40
000000c0: 1cdc 3b40 074a fabf abd6 0dc0 74d1 29c1
000000d0: 19e3 79c1 63fa 1940 3f7a b0c0 3ea6 c3bf
000000e0: f20e d940 aee6 eb3f ea72 06c0 3e80 2b40
000000f0: 220f 903f 8e23 6ebf f551 d7bd 8093 f9bf

fc3.weight f4 [32, 64]
-0.20834662 -0.09856798 0.12196451 -0.0822499 0.2807323 -0.12725964 -0.2686674 -0.041262668
-0.23041731 -0.13870403 0.11513713 -0.08031836 -0.18418357 -0.13862519 -0.18320376 -0.40337864
-0.43187535 0.009245301 0.42457977 -0.008611387 -0.9031671 0.03376931 -0.04380336 0.026810123
0.26590398 -0.61903495 0.21379147 -0.2937356 0.24464382 -0.050209288 -0.06472695 0.40153405
0.054074667 -0.3295923 0.37357607 -0.17580031 0.1514389 -0.6708004 -1.3761219 0.21676898
-0.10617033 -0.4949663 -0.274984 -0.06263758 -0.26949745 0.351104 0.049875822 -0.39756432
-0.26469684 -0.032334343 -0.35969815 -0.27902725 -0.36458197 0.0304772 -0.23772874 -0.34437338
0.065859325 -0.2428659 0.042102538 -0.037274897 -0.03202388 -0.33173946 -0.3596104 -0.25728086
0.33791164 -0.41554216 -0.025701627 0.017166391 0.10879538 -0.5385368 -0.44179013 -0.43882275
-0.12646826 -0.32522458 -0.034623444 -0.028549725 -0.015631504 -0.4652343 -0.072171085 -0.3332899
0.36056238 0.26509348 0.41182187 0.79486215 -0.06605617 0.020127233 -0.37870312 -0.22449893
-0.100856304 -1.0281634 -0.41297 -0.3128425 0.003675302 -0.27275798 -0.27041078 0.7354721
-0.0065303715 0.11198764 0.25186762 -0.466343 -0.48448303 0.016214587 -0.8851736 0.022600321
0.23193148 0.47962338 -0.34978035 -0.69951236 -0.48568702 -0.10036752 -0.42606422 -0.11574539
-0.35330167 0.41169676 -0.95191264 0.60920674 -0.67253935 -0.7710772 0.16179498 -0.1184026
0.37533897 -0.57758474 -0.30600312 -0.54820406 -0.6551855 -0.31049982 -0.0751577 -0.43892807
-0.06447748 0.012880713 0.4804802 0.38631454 -0.34393537 0.27278176 -0.25507212 -0.1068983
0.35801777 0.07111144 0.079639524 -0.254146 -0.27334976 0.07465653 1.3178518 -0.07540758
-0.1924044 0.24111058 0.41583633 0.29778275 -0.33819795 -0.50685364 -0.3757985 0.049512334
0.37090954 0.46109182 -0.03285848 0.14169888 0.16175938 -0.8557341 -0.3821184 0.3665278
0.49827537 0.37801728 0.30129838 -0.37386993 0.06886089 1.0717857 -0.29139575 0.28828603
0.16812328 0.35946876 -0.27951482 -0.05183819 -0.06377378 0.386334 0.08214344 -0.16702735
0.15982468 -0.70218444 -0.47639576 0.34217516 -0.5169001 -0.19207293 0.6086202 -0.7336696
-0.25090143 0.14224866 -0.44172844 -0.69307727 0.13624512 -0.4018767 -0.17042965 0.12009601
0.18146439 -3.4087136 -0.43876877 -0.41995305 0.8073578 -1.5958735 -1.5079137 -1.459896
-1.0805775 -3.029341 -0.8407314 -0.2537501 0.21885614 -5.892519 -0.9195889 -1.1718658
0.25116187 -0.08858615 1.150112 1.7856243 -0.552036 -0.21509546 -1.7035843 -0.084669456
-0.07528102 -3.116927 0.12433852 -0.28898898 -4.878197 -0.9501784 -1.1224407 0.868004
-0.27118626 -1.5520306 1.0684123 -2.2370315 -0.73139495 -2.7136524 -5.6863823 -0.16835842
-1.7651374 0.44847852 -4.7663174 -3.7733526 -4.053146 -3.6695857 -4.1496186 -1.1649524
-4.2056456 0.26231936 -4.895733 1.1905613 -0.62062365 -4.157514 -1.3015561 -1.0108751
-0.1204244 -3.8877664 -0.11641419 -1.9412948 -2.085021 0.30409375 -2.0625618 -0.62962246
00000000: d158 55be 02de c9bd 87c8 f93d a372 a8bd
00000010: 25bc 8f3e 5a50 02be c68e 89be 0b03 29bd
00000020: 84f2 6bbe 6e08 0ebe 04cd eb3d f47d a4bd
00000030: 9e9a 3cbe c3f3 0dbe c499 3bbe a587 cebe
00000040: c41e ddbe 9a79 173c 8562 d93e c616 0dbc
00000050: f635 67bf b051 0a3d 276b 33bd e7a0 db3c
00000060: 9124 883e 1379 1ebf 27ec 5a3e 8364 96be
00000070: e983 7a3e 41a8 4dbd 908f 84bd df95 cd3e
00000080: 667d 5d3d 52c0 a8be 5d45 bf3e ff04 34be
00000090: cd12 1b3e 93b9 2bbf c324 b0bf b0f8 5d3e
000000a0: d46f d9bd 396c fdbe b4ca 8cbe 2248 80bd
000000b0: 92fb 89be e7c3 b33e 974a 4c3d 8d8d cbbe
000000c0: 5886 87be 0471 04bd 5b2a b8be a9dc 8ebe
000000d0: 7daa babe 52ab f93c 2a6f 73be b551 b0be
000000e0: 41e1 863d d7b1 78be b673 2c3d 90ad 18bd
000000f0: 792b 03bd c1d9 a9be db1e b8be 51ba 83be
00000100: c102 ad3e f1c1 d4be 388c d2bc 88a0 8c3c
00000110: 1dd0 de3d 8cdd 09bf 5132 e2be 60ad e0be
00000120: e580 01be d683 a6be 50d1 0dbd 1de1 e9bc
00000130: a40d 80bc 3133 eebe 6fce 93bd f9a4 aabe
00000140: a29b b83e 55ba 873e 51da d23e 167c 4b3f
00000150: 7548 87bd dee1 a43c 60e5 c1be 0ce3 65be
00000160: c08d cebd dc9a 83bf ce70 d3be e42c a0be
00000170: 56dd 703b efa6 8bbe 4873 8abe e647 3c3f
00000180: bafc d5bb c759 e53d cbf4 803e 82c4 eebe
00000190: 290e f8be 74d4 843c bd9a 62bf 4f24 b93c
000001a0: 727f 6d3e 3291 f53e 6916 b3be 3e13 33bf
000001b0: f8ab f8be 7c8d cdbd 1725 dabe eb0b edbd
000001c0: f5e3 b4be ebc9 d23e 8cb0 73bf f9f4 1b3f
000001d0: 8a2b 2cbf 5165 45bf 95ad 253e 107d f2bd
000001e0: 6e2c c03e 98dc 13bf 71ac 9cbe 1a57 0cbf
000001f0: 3dba 27bf d5f9 9ebe 48ec 99bd 2ebb e0be
00000200: c50c 84bd a009 533c 8001 f63e 05cb c53e
00000210: 4c18 b0be 0daa 8b3e d098 82be 7fed dabd
00000220: 1b4e b73e e0a2 913d 0c1a a33d 6d1f 82be
00000230: 80f4 8bbe 86e5 983d 5eaf a83f 4a6f 9abd
00000240: a905 45be b1e5 763e 80e8 d43e fb76 983e
00000250: 4828 adbe 29c1 01bf a968 c0be 72cd 4a3d
00000260: dbe7 bd3e 3a14 ec3e 9d96 06bd 8319 113e
00000270: 40a4 253e 6411 5bbf 06a5 c3be 88a9 bb3e
00000280: f31d ff3e 7b8b c13e c843 9a3e e16b bfbe
00000290: f006 8d3d 4630 893f d331 95be 3a9a 933e
000002a0: 8228 2c3e 4a0c b83e 911c 8fbe 4854 54bd
000002b0: d49b 82bd 92cd c53e d23a a83d 3809 2bbe
000002c0: 15a9 233e 5cc2 33bf 25ea f3be 9531 af3e
000002d0: 9153 04bf c4ae 44be 89ce 1b3f c5d1 3bbf
000002e0: 2776 80be a2a9 113e 3b2a e2be 836d 31bf
000002f0: d783 0b3e c8c2 cdbe 1c85 2ebe e6f4 f53d
00000300: cdd1 393e 5d28 5ac0 4da6 e0be 1604 d7be
00000310: 00af 4e3f 9545 ccbf 5103 c1bf dfdd babf
00000320: 5d50 8abf b9e0 41c0 2c3a 57bf 88eb 81be
00000330: d31b 603e 848f bcc0 2e6a 6bbf b3ff 95bf
00000340: 4a98 803e a86c b5bd df36 933f 568f e43f
00000350: 3b52 0dbf fc41 5cbe 0d0f dabf 2e67 adbd
00000360: ef2c 9abd bb7b 47c0 32a5 fe3d 5df6 93be
00000370: 311a 9cc0 e43e 73bf 23ac 8fbf 8335 5e3f
00000380: edd8 8abe f0a8 c6bf bcc1 883f 862b 0fc0
00000390: b33c 3bbf 7bac 2dc0 d8f6 b5c0 2666 2cbe
000003a0: 06f0 e1bf fa9e e53e ac85 98c0 9c7e 71c0
000003b0: 5fb3 81c0 7eda 6ac0 adc9 84c0 291d 95bf
000003c0: a694 86c0 b94e 863e d8a9 9cc0 5064 983f
000003d0: 31e1 1ebf 5b0a 85c0 6499 a6bf 5b64 81bf
000003e0: 11a1 f6bd 2ad1 78c0 906a eebd 597c f8bf
000003f0: fc70 05c0 2db2 9b3e 0301 04c0 f02e 21bf

fc3.bias f4 [32]
-3.9945033 -7.8404436 -9.031614 -0.043657936 -10.227147 -9.477774 -11.930402 -8.303569
-15.228623 1.446582 -7.6829987 -10.954951 -11.184662 7.0730753 1.8122973 -7.356602
2.3155324 -3.9177296 -9.086681 -9.493239 -3.019491 -9.271829 -4.1028466 -10.728788
0.562465 -9.461988 5.2835364 -6.4157205 -5.1750927 -6.9723773 -11.085141 -10.22603
00000000: f1a5 7fc0 eae4 fac0 7e81 10c1 aad2 32bd
00000010: 65a2 23c1 f6a4 17c1 ede2 3ec1 6bdb 04c1
00000020: 71a8 73c1 9929 b93f 20db f5c0 7b47 2fc1
00000030: 60f4 32c1 a256 e240 5cf9 e73f 4969 ebc0
00000040: af31 1440 15bc 7ac0 0c63 11c1 4fe4 17c1
00000050: 573f 41c0 6959 14c1 854a 83c0 1ea9 2bc1
00000060: b5fd 0f3f 4e64 17c1 bb12 a940 954d cdc0
00000070: 5c9a a5c0 b71d dfc0 bd5c 31c1 d29d 23c1

fc4.weight f4 [1, 32]
0.009148675 -0.032771826 0.021234835 0.023885436 0.06812905 0.062381946 0.0070132026 -0.076408595
-0.031167824 0.043630637 0.05407628 0.008193086 -0.0012457991 0.094839014 0.076036416 -0.010437729
-0.046060767 -0.026633723 -0.06376145 -0.017882213 -0.1855918 -0.025925959 -0.024265137 -0.031415146
0.0919771 -0.05130965 -0.060912315 -0.041659363 -0.006802559 0.028800506 0.08963788 -0.002557965
00000000: 53e4 153c c03b 06bd adf4 ad3c 64ab c33c
00000010: 3e87 8b3d 3684 7f3d 02cf e53b 1c7c 9cbd
00000020: aa53 ffbc 0ab6 323d 177f 5d3d 4b3c 063c
00000030: 154a a3ba f53a c23d fbb8 9b3d 0203 2bbc
00000040: 37aa 3cbd f72e dabc 5d95 82bd b87d 92bc
00000050: c70b 3ebe ad62 d4bc aec7 c6bc 2bad 00bd
00000060: 7d5e bc3d 112a 52bd 317f 79bd 02a3 2abd
00000070: 00e8 debb 0aef eb3c 1194 b73d 88a3 27bb
