python model Testing/best_rebound_model.pt (torch, 72722 bytes, 9 tensors)

fc1.weight f4 [128, 20]
0.5448627 -0.12717259 -0.085609995 0.06289148 0.08607956 0.13514729 0.18700369 -0.10762585
-0.12031521 0.04224213 0.084570415 -0.0019342436 0.019805895 0.10614512 -0.043820515 0.08526718
0.13973226 -0.06181266 0.22591838 0.3699785 0.110727146 -0.49273375 0.123373516 -0.012788796
-0.04587909 0.030124305 0.019066462 -0.06456888 -0.048189737 -0.13787334 -0.010757669 0.05553213
-0.19505791 0.03992479 -0.048439056 0.012902411 0.117337205 -0.049122993 0.17320243 0.4727193
0.08035811 -0.37641412 -0.062303174 0.022477897 -0.069698475 -0.118893474 0.04319811 0.09666012
0.026854929 0.19006641 0.07053144 -0.064226255 -0.03797111 0.14377348 -0.11030393 -0.037109602
-0.021509407 0.06695547 0.049143143 0.39641863 0.037214972 -0.5134256 0.014273712 -0.022681268
0.07746276 -0.10159497 0.039497245 0.07580507 -0.07858334 -0.018976605 0.006152108 -0.12499523
0.043418687 -0.047358043 -0.12482012 0.06020135 -0.039990757 -0.0054691467 0.054865938 0.650505
0.23969167 -0.18232234 0.015605507 0.048400346 0.18110362 0.17805557 0.082925946 -0.23025732
-0.19117452 -0.0017931424 -0.14658491 0.0052457843 0.014552758 0.06390275 0.08092877 -0.10926495
-0.13415092 0.08605957 0.17215337 0.43662345 -0.095830105 0.25563422 -0.22229235 0.14028433
-0.20917253 0.0670499 0.14110808 0.042146124 0.081084184 -0.0005215453 0.14326805 0.21575576
-0.093788646 0.18892239 0.15070352 0.10258952 0.0110393865 0.06415516 0.2450508 0.016271418
0.18204015 -0.099488825 -0.15664764 0.15823576 -0.011662382 -0.21989644 0.06146494 0.022179598
-0.16835693 0.17546397 -0.11606086 0.018806992 0.0088149365 0.124503225 -0.22236405 -0.19569728
-0.079955384 0.10409894 -0.07896818 0.2990687 0.060399424 0.20067374 0.12369355 -0.055162404
0.09545325 -0.06460322 -0.11386294 0.05862109 -0.009588029 0.06861954 -0.21513027 0.043191463
-0.013844473 0.054135203 -0.0674317 -0.17409547 0.08514526 0.02626616 0.027407756 -0.35464624
0.31083825 -0.0843582 0.042868238 -0.07015144 0.20101377 0.14445595 0.061359845 0.06923471
-0.038176313 0.0886544 -0.05472053 0.159708 -0.17207725 0.12219928 0.03217594 0.016013132
0.004016872 0.0055279406 0.1633687 -0.19412954 -0.057918303 -0.27596974 0.1161042 -0.1853471
0.07594809 -0.02975797 0.065581314 0.09818739 -0.10333653 0.17928468 -0.109316304 -0.16540802
-0.122488864 0.05487032 0.06792407 -0.016769733 0.019842936 -0.16436835 0.1508686 0.3159858
0.10702286 -0.29888538 -0.11485212 -0.05499853 -0.16454287 -0.0615585 -0.118009284 0.12184538
0.16181694 0.041721985 0.15878646 0.09273279 -0.069033526 0.06661431 -0.08406714 -0.15957762
0.05692774 0.018711824 0.1239992 0.38987905 -0.100029536 -0.3046898 0.26424935 0.023254022
0.16793756 0.07132802 -0.10931595 0.15454005 0.2172584 -0.21762113 -0.15288627 0.08254978
-0.076111145 0.1283436 0.13667692 -0.112097695 -0.011239675 -0.1929438 -0.13385426 0.043179434
-0.17489271 -0.4465313 0.047657315 -0.012594497 0.23527454 0.0671036 -0.107805856 -0.044313844
-0.118431345 -0.1438982 0.13318634 0.04131353 0.13816401 0.041191958 -0.05216908 -0.18074474
00000000: 1f7c 0b3f 8839 02be 4b54 afbd 40cd 803d
00000010: 7b4a b03d 0d64 0a3e e57d 3f3e f16a dcbd
00000020: d267 f6bd 1506 2d3d 4133 ad3d 7286 fdba
00000030: f93f a23c 9d62 d93d 247d 33bd 8fa0 ae3d
00000040: f915 0f3e 462f 7dbd 2657 673e d26d bd3e
00000050: eac4 e23d 9947 fcbe 41ab fc3d 1988 51bc
00000060: b6eb 3bbd 3fc7 f63c 4531 9c3c b03c 84bd
00000070: 9a62 45bd ab2e 0dbe ef40 30bc a975 633d
00000080: 43bd 47be 2d88 233d 0868 46bd a264 533c
00000090: 7d4e f03d 3135 49bd fa5b 313e 4408 f23e
000000a0: cb92 a43d 5ab9 c0be 9d31 7fbd 9123 b83c
000000b0: 13be 8ebd 6c7e f3bd 80f0 303d bef5 c53d
000000c0: defe db3c c5a0 423e ca72 903d 0e89 83bd
000000d0: 9887 1bbd 5b39 133e 07e7 e1bd 3d00 18bd
000000e0: 7f34 b0bc f31f 893d 524a 493d 62f7 ca3e
000000f0: ba6e 183d dc6f 03bf 4adc 693c 11ce b9bc
00000100: cca4 9e3d 0611 d0bd ddc7 213d b03f 9b3d
00000110: 4df0 a0bd d374 9bbc 9f97 c93b 80fd ffbd
00000120: cbd7 313d 82fa 41bd b1a1 ffbd b195 763d
00000130: 59cd 23bd 8736 b3bb 1bbb 603d 7f87 263f
00000140: bc71 753e b5b2 3abe 3eae 7f3c 713f 463d
00000150: 3a73 393e 3354 363e 14d5 a93d 93c8 6bbe
00000160: 41c3 43be e007 ebba 5b1a 16be d4e4 ab3b
00000170: b16e 6e3c 72df 823d fcbd a53d 4dc6 dfbd
00000180: dc5e 09be 0040 b03d f948 303e 1c8d df3e
00000190: 9342 c4bd 7de2 823e 9ba0 63be b2a6 0f3e
000001a0: 5331 56be 7551 893d a37e 103e 6aa1 2c3d
000001b0: 770f a63d 50b8 08ba dcb4 123e 14ef 5c3e
000001c0: 4314 c0bd df74 413e 0652 1a3e 741a d23d
000001d0: 8bde 343c c863 833d 99ee 7a3e a34b 853c
000001e0: bc68 3a3e ccc0 cbbd 3d68 20be 8e08 223e
000001f0: 9313 3fbc 882c 61be a9c2 7b3d fdb1 b53c
00000200: c265 2cbe d4ac 333e 51b1 edbd 1f11 9a3c
00000210: 866c 103c 8cfb fe3d 67b3 63be de64 48be
00000220: a6bf a3bd d331 d53d 12ba a1bd 881f 993e
00000230: 6365 773d 6b7d 4d3e 0b53 fd3d f9f1 61bd
00000240: fe7c c33d b14e 84bd f930 e9bd ab1c 703d
00000250: 1c17 1dbc 6788 8c3d 1c4b 5cbe 88e9 303d
00000260: eed3 62bc e0bc 5d3d a219 8abd 1546 32be
00000270: a360 ae3d 212c d73c 3b86 e03c 3194 b5be
00000280: 3126 9f3e fec3 acbd 9b96 2f3d 8fab 8fbd
00000290: 8ed6 4d3e 43ec 133e 7654 7b3d edca 8d3d
000002a0: c45e 1cbd 7090 b53d a222 60bd 7e8a 233e
000002b0: 0535 30be 9e43 fa3d ebca 033d f92d 833c
000002c0: f79f 833b ba23 b53b 204a 273e e5c9 46be
000002d0: be3b 6dbd e84b 8dbe 0ac8 ed3d a1cb 3dbe
000002e0: ac8a 9b3d fcc6 f3bc 7f4f 863d 7816 c93d
000002f0: 1aa2 d3bd 6796 373e 3ae1 dfbd b860 29be
00000300: 71db fabd b3bf 603d c61b 8b3d ae60 89bc
00000310: a78d a23c 2d50 28be 4c7d 1a3e e4c8 a13e
00000320: cd2e db3d 8107 99be 9737 ebbd 2346 61bd
00000330: ed7d 28be c424 7cbd daae f1bd 128a f93d
00000340: 57b3 253e ace4 2a3d eb98 223e b0ea bd3d
00000350: 7361 8dbd 156d 883d 652b acbd 5168 23be
00000360: 102d 693d 8a49 993c 4bf3 fd3d 3a9e c73e
00000370: 49dc ccbd 4d00 9cbe b14b 873e 387f be3c
00000380: d3f7 2b3e 6d14 923d 0ae1 dfbd bf3f 1e3e
00000390: fc78 5e3e 13d8 5ebe 388e 1cbe dc0f a93d
000003a0: 29e0 9bbd 816c 033e 09f5 0b3e 7a93 e5bd
000003b0: 9d26 38bc 0f93 45be 1711 09be ebdc 303d
000003c0: 1317 33be c09f e4be 5134 433d 2659 4ebc
000003d0: cfeb 703e 9d6d 893d 51c9 dcbd 6f82 35bd
000003e0: 228c f2bd 0d5a 13be 0062 083e 6038 293d
000003f0: de7a 0d3e e6b8 283d 3faf 55bd 2615 39be

fc1.bias f4 [128]
-0.37889794 0.23218875 0.21933176 0.32147375 0.3212895 -0.50856113 -0.534061 -0.28034642
-0.49148262 0.19793755 0.31806874 -0.21265641 0.0060938965 0.016544128 -0.21445198 -0.41305715
-0.32973132 -0.089975804 -0.5473542 -0.20891708 0.1396234 -0.3568092 -0.30981514 -0.5366107
0.2899106 0.060510986 -0.48390052 -0.58548176 -0.35590616 -0.074823424 -0.23790249 -0.3552626
0.2790117 -0.37433493 -0.63442135 0.20656124 -0.32144508 -0.55081624 0.005693285 -0.45515555
-0.39052016 -0.38786766 -0.33511043 0.28485075 -0.108226955 -0.56395996 -0.47383296 -0.4814437
-0.61273277 -0.4823986 0.1851223 -0.58544356 -0.5488518 -0.35529906 -0.5023353 -0.49208084
0.10901589 0.07657689 0.030519892 -0.052188758 -0.27472642 -0.3757558 -0.34479818 -0.24737725
0.39232635 0.0039557214 0.217981 -0.2595811 0.22021033 -0.19319122 -0.8181461 -0.2806549
-0.42697224 0.42096716 0.12071667 -0.49617758 0.17089382 0.0063101305 -0.55434877 0.42257577
-0.39246124 -0.1239956 -0.56611985 -0.56554735 0.40454784 -0.17581297 -0.39133775 0.13707526
-0.5402882 0.338213 -0.50149536 -0.45219922 -0.27191347 0.36235502 -0.33305556 -0.36690634
0.1216161 -0.5974834 0.2478958 -0.19128636 -0.49112922 0.29393792 -0.46866155 -0.52238053
-0.39025608 -0.3879649 -0.19304119 -0.5964875 -0.027633436 -0.6547386 -0.30992392 -0.0440096
-0.5396526 -0.69892895 -0.6184209 0.32960707 -0.15852919 -0.49219385 0.31431305 -0.07662806
-0.5450509 -0.005978357 -0.061556377 -0.10092603 -0.33430994 0.13290392 -0.6119619 -0.46424672
00000000: e9fe c1be e3c2 6d3e 8198 603e 3598 a43e
00000010: 0f80 a43e 1031 02bf 39b8 08bf 9189 8fbe
00000020: 9ca3 fbbe 24b0 4a3e e8d9 a23e 9ac2 59be
00000030: 4faf c73b 8d87 873c 4d99 5bbe 3a7c d3be
00000040: 8bd2 a8be 3c45 b8bd 681f 0cbf 5cee 55be
00000050: 70f9 0e3e b2af b6be 17a0 9ebe 525f 09bf
00000060: 2a6f 943e 5eda 773d cfc1 f7be 22e2 15bf
00000070: 5539 b6be 063d 99bd b69c 73be fbe4 b5be
00000080: 9fda 8e3e d4a8 bfbe 7069 22bf ca84 533e
00000090: 7394 a4be 4b02 0dbf bc8e ba3b 260a e9be
000000a0: 42f2 c7be 9796 c6be 9893 abbe f5d7 913e
000000b0: 18a6 ddbd ae5f 10bf 3c9a f2be ca7f f6be
000000c0: 0edc 1cbf f3fc f6be b390 3d3e a1df 15bf
000000d0: 8d81 0cbf c2e9 b5be 0c99 00bf 05f2 fbbe
000000e0: b943 df3d 58d4 9c3d da04 fa3c e1c3 55bd
000000f0: f1a8 8cbe 1063 c0be 6389 b0be 7650 7dbe
00000100: 00df c83e ff9e 813b 6936 5f3e d0e7 84be
00000110: d17e 613e ebd3 45be 0672 51bf 00b2 8fbe
00000120: 1b9c dabe 0289 d73e 4d3a f73d fd0a febe
00000130: cafe 2e3e 36c5 ce3b cde9 0dbf da5b d83e
00000140: aef0 c8be 68f1 fdbd 3bed 10bf b6c7 10bf
00000150: e520 cf3e 5108 34be 6c5d c8be 755d 0c3e
00000160: 5450 0abf 412a ad3e 0062 00bf a886 e7be
00000170: 3e38 8bbe 9986 b93e 4286 aabe 26db bbbe
00000180: dd11 f93d acf4 18bf 66d8 7d3e 92e0 43be
00000190: 4a75 fbbe 087f 963e 68f4 efbe bbba 05bf
000001a0: a5cf c7be 56a3 c6be 97ac 45be 68b3 18bf
000001b0: 845f e2bc f39c 27bf 59ae 9ebe 6943 34bd
000001c0: ac26 0abf 02ed 32bf d550 1ebf 42c2 a83e
000001d0: 7a55 22be d500 fcbe a4ed a03e 2cef 9cbd
000001e0: 7588 0bbf 18e6 c3bb 8a22 7cbd 4eb2 cebd
000001f0: ac2a abbe f717 083e 89a9 1cbf bfb1 edbe

fc2.weight f4 [64, 128]
0.30084696 -0.08711601 0.037060205 0.16290976 -0.056240495 -0.0037402925 0.112539105 0.028347801
0.058604654 -0.00721372 -0.0049869376 0.0014287402 0.06311715 0.009858241 0.03583626 -0.06138933
0.34778884 0.092291124 -0.32725686 0.01982134 -0.0053058406 -0.18859802 -0.08864693 -0.5619949
-0.031557072 -0.014927545 0.021082694 0.111567475 0.070557125 -0.1067917 0.1433758 0.029254206
0.026721869 0.05579134 0.41443858 0.10301011 0.11650168 -0.13384871 -0.0012467696 -0.32933
0.34337673 -0.08085767 -0.3022142 0.08757382 0.048053503 -0.13096206 -0.25208163 0.26046804
-0.35910258 -0.37304118 -0.06895319 0.6036281 -0.118132725 -0.09097337 -0.032637183 0.016355755
-0.026185632 0.059683394 -0.16280217 -0.025306046 0.12965564 -0.156119 -0.14274134 -0.35603255
0.020814225 0.10107932 0.15104483 -0.055898357 -0.048704512 0.019601539 -0.123062216 -0.04048276
0.3268334 0.006289429 -0.018340651 0.031159265 -0.020433968 -0.09972638 -0.16435917 -0.085080676
0.003053916 0.005613597 -0.048114255 -0.13434985 0.03860242 -0.18613827 -0.011687581 -0.04184209
0.0073768348 -0.044348914 -0.16139267 -0.14039719 0.016771274 0.040730063 -0.008679542 -0.41516674
-0.059822883 -0.08374957 -0.045181926 -0.1221294 0.21975733 -0.026015002 -0.04028265 -0.19883956
-0.27553007 0.06755306 -0.17501211 -0.10202904 0.16643676 -0.13196261 0.027144952 0.078172535
0.20624398 -0.055654466 -0.03747229 0.02973702 -0.018365229 -0.309637 -0.030261355 -0.06895889
0.28028104 -0.0059097917 -0.0033180842 -0.1304742 0.007958388 0.031067006 -0.05790958 -0.2504521
-0.071447656 -0.08541996 -0.0206711 -0.19707908 0.047850117 -0.34666154 0.15005408 -0.22970472
0.06492779 -0.025888214 0.06095944 0.022125863 0.08909892 -0.01947923 -0.10681573 0.029390128
0.03176357 -0.008255582 -0.025384178 0.10367085 0.11331577 -0.12943467 -0.4670187 -0.27343538
-0.028264917 0.051834166 -0.4326271 0.13808595 0.103529856 -0.15743802 0.019128658 -0.21783285
-0.0002964997 -0.0670025 0.26393798 0.051502377 -0.205892 -0.0016096078 0.16530702 -0.11170101
0.32660246 0.1907002 0.09831655 -0.0046967333 -0.05471186 0.2564876 -0.16236739 0.13240021
-0.14654201 -0.10979005 -0.0030988131 0.6567628 -0.19332077 -0.32454756 0.04875555 -0.09660481
-0.07939664 0.01716718 -0.089295715 0.026696764 0.17320864 0.23919311 0.04068297 -0.059183974
0.03938401 -0.06652021 0.14436546 0.01089611 0.09266459 0.13687342 0.07260191 -0.3459435
0.10103776 0.053309172 -0.059437845 0.0006314112 0.08951879 0.07283977 -0.39134836 -0.030351698
0.2552502 -0.041050542 0.03605059 -0.12387675 0.00041592444 0.17557912 -0.008698476 0.09950199
0.07706044 -0.042636298 -0.14863269 -0.081523135 -0.1860156 -0.025817994 -0.3892499 -0.16400284
-0.053272586 -0.093211114 0.0649702 -0.015949635 0.010924229 -0.087998345 -0.38927287 -0.14436598
0.123607025 -0.20094453 -0.041775256 -0.045894064 0.08130812 0.009281529 0.007779809 0.032270752
0.120956294 0.12883529 0.09387751 -0.06251447 0.07004533 0.086142294 0.038423963 0.029306483
0.24836777 0.08614412 0.07317706 0.029352402 -0.18921216 0.0057713133 -0.11805341 -0.44159403
00000000: 9d08 9a3e e169 b2bd 71cc 173d d1d1 263e
00000010: 6f5c 66bd b21f 75bb e77a e63d a639 e83c
00000020: 6f0b 703d 1261 ecbb 7769 a3bb 9144 bb3a
00000030: 9043 813d 7684 213c 0bc9 123d 6173 7bbd
00000040: 6111 b23e 2103 bd3d 368e a7be 5d60 a23c
00000050: 9edc adbb d71f 41be 868c b5bd e6de 0fbf
00000060: fd41 01bd a992 74bc 9db5 ac3c 7d7d e43d
00000070: 4180 903d 9bb5 dabd 1bd1 123e 84a6 ef3c
00000080: d2e7 da3c 7685 643d 4b31 d43e f7f6 d23d
00000090: 6f98 ee3d a30f 09be a56a a3ba f19d a8be
000000a0: 13cf af3e b598 a5bd d2bb 9abe e759 b33d
000000b0: c0d3 443d eb1a 06be d810 81be 115c 853e
000000c0: 4bdc b7be 41ff bebe 5537 8dbd 5f87 1a3f
000000d0: 92ef f1bd 3f50 babd 91ae 05bd 81fc 853c
000000e0: 4083 d6bc 9376 743d 9db5 26be a04e cfbc
000000f0: 73c4 043e a9dd 1fbe c92a 12be e649 b6be
00000100: 9882 aa3c ad02 cf3d 7fab 1a3e adf5 64bd
00000110: 627e 47bd 6893 a03c 0b08 fcbd 40d1 25bd
00000120: b556 a73e 8e17 ce3b 223f 96bc b741 ff3c
00000130: 2365 a7bc 583d ccbd c54d 28be c73e aebd
00000140: 3524 483b 44f2 b73b 7413 45bd 0293 09be
00000150: 921d 1e3d 089b 3ebe 457d 3fbc 9d62 2bbd
00000160: 60b9 f13b 35a7 35bd 1f44 25be 48c4 0fbe
00000170: e963 893c 91d4 263d a334 0ebc bc90 d4be
00000180: d708 75bd e584 abbd af10 39bd fb1e fabd
00000190: 1108 613e 6a1d d5bc 6cff 24bd 999c 4bbe
000001a0: 4712 8dbe 4259 8a3d 6036 33be 9af4 d0bd
000001b0: 666e 2a3e 3521 07be 175f de3c ec18 a03d
000001c0: 9f31 533e f0f5 63bd 8b7c 19bd 0d9b f33c
000001d0: ad72 96bc be88 9ebe a9e6 f7bc 523a 8dbd
000001e0: ff80 8f3e eda6 c1bb 3774 59bb 079b 05be
000001f0: e663 023c 3c80 fe3c 9932 6dbd 423b 80be
00000200: 2653 92bd a9f0 aebd 7056 a9bc 19cf 49be
00000210: 7cfe 433d 9f7d b1be c7a7 193e b737 6bbe
00000220: dcf8 843d 8513 d4bc 9bb0 793d 4c41 b53c
00000230: 7f79 b63d e892 9fbc 35c2 dabd 91c3 f03c
00000240: 841a 023d 6c42 07bc 7bf2 cfbc 6251 d43d
00000250: 1912 e83d 868a 04be 131d efbe b9ff 8bbe
00000260: d48b e7bc 1050 543d 4d81 ddbe 6766 0d3e
00000270: 7607 d43d 6f37 21be b4b3 9c3c 930f 5fbe
00000280: 8473 9bb9 9b38 89bd e122 873e 28f4 523d
00000290: 5ad5 52be 7af9 d2ba 3e46 293e 80c3 e4bd
000002a0: 7038 a73e ea46 433e 305a c93d 0ee7 99bb
000002b0: 8b19 60bd 5852 833e a343 26be ec93 073e
000002c0: 1c0f 16be 9bd9 e0bd 7515 4bbb 9b21 283f
000002d0: e1f5 45be 192b a6be e6b3 473d bed8 c5bd
000002e0: b59a a2bd 30a2 8c3c ace0 b6bd 2cb3 da3c
000002f0: 9b5d 313e 0aef 743e 30a3 263d e56a 72bd
00000300: 2151 213d bf3b 88bd 8ad4 133e 9985 323c
00000310: efc6 bd3d 8c28 0c3e 4fb0 943d 821f b1be
00000320: e3ec ce3d b85a 5a3d 1975 73bd 4a85 253a
00000330: a155 b73d 042d 953d d05e c8be 20a4 f8bc
00000340: 27b0 823e 9d24 28bd c9a9 133d 18b3 fdbd
00000350: 6f10 da39 03cb 333e 0d84 0ebc b3c7 cb3d
00000360: ddd1 9d3d 66a3 2ebd 2b33 18be 9af5 a6bd
00000370: e07a 3ebe 4280 d3bc c34b c7be 5cf0 27be
00000380: 5b34 5abd 78e5 bebd 190f 853d cfa8 82bc
00000390: 8afb 323c 7a38 b4bd c64e c7be add4 13be
000003a0: ae25 fd3d 67c4 4dbe 881c 2bbd 6afb 3bbd
000003b0: df84 a63d 8e11 183c c5ed fe3b 562e 043d
000003c0: efb7 f73d 66ed 033e da42 c03d 9607 80bd
000003d0: ed73 8f3d 5f6b b03d 7262 1d3d 2614 f03c
000003e0: 1f54 7e3e 546c b03d dbdd 953d 7374 f03c
000003f0: d5c0 41be 491d bd3b fcc5 f1bd 9d18 e2be

fc2.bias f4 [64]
-0.0054180827 -0.20163865 0.002956656 -0.06263946 -0.13073193 -0.10184985 0.11800422 -0.013541968
-0.07028158 -0.14324455 -0.023852173 -0.0008591272 -0.05387598 -0.078239374 -0.6067539 -0.16247256
0.016712552 0.016027363 0.070564374 0.12939124 0.1273514 0.022297904 0.060873453 0.012356447
0.06964743 0.044532303 -0.11397437 0.045903318 -0.057253696 -0.1289461 -0.10770597 -0.08113717
-0.060748693 0.038938995 0.06381231 -0.18331394 -0.06674734 0.050072696 -0.22724481 -0.14802302
-0.23544914 -0.09747104 0.034656845 -0.07511079 0.13074319 -0.121803895 0.12112199 0.034433313
-0.03681432 0.013460917 0.020534255 0.021691525 0.016685046 -0.068775706 -0.21545951 0.024185088
-0.18327674 -0.01374546 -0.09006901 -0.036556862 -0.044292256 -0.06657148 0.013233393 -0.09525
00000000: 2c8a b1bb 5d7a 4ebe 75c4 413b 1e49 80bd
00000010: 97de 05be a796 d0bd 32ac f13d 21df 5dbc
00000020: caef 8fbd b3ae 12be a265 c3bc 0d37 61ba
00000030: 0fad 5cbd f73b a0bd 3954 1bbf 355f 26be
00000040: c3e8 883c d14b 833c 0e84 903d 237f 043e
00000050: 6868 023e 18aa b63c 7156 793d b272 4a3c
00000060: 50a3 8e3d 8167 363d 656b e9bd 1e05 3c3d
00000070: da82 6abd 720a 04be f394 dcbd 3f2b a6bd
00000080: 9fd3 78bd 7f7e 1f3d 07b0 823d a6b6 3bbe
00000090: d4b2 88bd 0719 4d3d ddb2 68be 5993 17be
000000a0: 9419 71be e69e c7bd 56f4 0d3d b0d3 99bd
000000b0: 8be1 053e 5274 f9bd ce0e f83d f209 0d3d
000000c0: 9dca 16bd 2e8b 5c3c 7437 a83c 6db2 b13c
000000d0: 14af 883c 47da 8cbd 6ba1 5cbe ce1f c63c
000000e0: e6ac 3bbe a334 61bc 1a76 b8bd a6bc 15bd
000000f0: cc6b 35bd a156 88bd e0d0 583c 6f12 c3bd

fc3.weight f4 [64, 64]
0.13215043 0.22436066 0.13476305 0.0018713985 -0.1947935 -0.486527 -0.12785186 -0.14010164
-0.21170823 -0.5339635 -0.34225106 0.28237543 -0.29821983 -0.04429798 0.262344 -0.11461682
-0.05669406 -0.088214464 0.123950675 0.04261247 -0.014738612 0.17729133 0.18973006 0.14918324
0.09749929 0.07378497 -0.00438297 0.056894265 0.37873966 -0.15714306 -0.13250937 0.3648036
-0.18710175 -0.0649156 0.060600583 0.01779639 0.27991515 -0.016647039 0.42541623 -0.08621506
0.1447055 -0.14297304 0.036275893 0.28952697 -0.11403362 -0.11485455 -0.035660177 -0.20240748
-0.10377793 -0.0020283605 -0.029480653 0.21923785 0.08573823 0.17410246 0.20481624 0.2741197
0.024347242 -0.049949348 0.24351245 0.0345049 -0.18147506 0.22784369 0.022662431 -0.2160681
0.1394333 0.2651329 0.11742362 -0.3969697 -0.3243719 -0.5290612 -0.23600672 -0.3184396
-0.4395691 -0.5197285 -0.4369613 0.35048905 -0.4942825 0.032950114 0.39296696 -0.24069002
0.0885386 -0.08653498 -0.060816884 0.09035188 0.009351369 0.09146662 0.03290995 0.12674464
-0.06635821 0.10397375 -0.08951202 -0.021084996 0.28603548 -0.19313705 -0.18045908 0.2575299
-0.23348233 -0.23145254 0.0049691326 0.052359857 0.2796774 -0.03081022 0.45466712 -0.11181429
0.11989512 -0.03444177 0.12661128 0.26988605 0.08276609 -0.24029784 -0.096673645 0.083076164
-0.30933285 0.024789287 0.010715496 0.016202707 -0.041434616 0.10389317 0.11402031 0.19720326
0.09227637 -0.12200552 0.16812737 0.27340606 -0.18308505 0.1323895 0.06430494 -0.17529255
-0.021805653 -0.48392314 -0.25412288 0.13254918 0.33300197 0.16548523 0.18888576 0.43188617
0.13891706 -0.023699567 0.015011803 -0.065744355 0.28913024 -0.046021815 -0.21738419 0.1646463
-0.4698711 -0.36085558 -0.20379658 -0.10095909 -0.22284769 -0.12497548 -0.2190583 -0.31451693
-0.37804148 -0.36605978 0.14893363 -0.32886055 -0.16382247 0.2827275 0.20333238 -0.13229528
0.19404572 0.03399385 -0.14504267 -0.19608462 -0.33042285 -0.19255097 -0.22338721 0.14591745
-0.16443296 0.1026898 -0.15128224 -0.42325112 -0.10813357 0.09903452 -0.068968594 -0.20768246
0.27999112 -0.17620969 -0.16282468 -0.23964535 -0.21081528 -0.32482633 -0.34123212 -0.31975996
-0.44055337 0.19565001 -0.63335615 -0.34426346 0.06854036 -0.31380352 -0.35240307 0.20754416
0.1167891 0.15568975 0.17133503 -0.026745986 -0.13603899 -0.21152666 -0.3310196 -0.19711265
-0.0083313845 -0.18306448 -0.11217523 0.35806105 -0.21820424 -0.0061200825 0.32793245 -0.02289387
0.1749377 0.21311949 0.07098515 0.006523649 0.11388468 -0.16949299 0.09679226 0.08587228
0.24555805 0.07132013 -0.32154375 0.20879978 0.13499661 -0.13211921 -0.21104214 0.29474637
-0.25571507 -0.1591977 0.033369917 0.086891346 0.21032535 0.052747834 0.42834625 -0.09521288
0.14846778 -0.32876635 0.10439754 0.17964551 0.10572765 -0.34490877 0.0414888 -0.005841653
-0.22172754 0.071030535 0.11984441 0.06576002 0.011946337 0.23716746 -0.0073124515 0.07066819
0.08303929 -0.1218086 0.32298082 0.13042763 -0.11493732 0.25890094 0.081714526 -0.11661942
00000000: 7152 073e cdbe 653e 53ff 093e b749 f53a
00000010: f277 47be 111a f9be 99eb 02be ce76 0fbe
00000020: 0bca 58be d5b1 08bf 883b afbe 8393 903e
00000030: 45b0 98be cc71 35bd f451 863e 39bc eabd
00000040: 0838 68bd c9a9 b4bd dad9 fd3d 6a8a 2e3d
00000050: 387a 71bc dc8b 353e 9948 423e 7ec3 183e
00000060: b5ad c73d 931c 973d 049f 8fbb f609 693d
00000070: 2aea c13e 1cea 20be 89b0 07be 8ac7 ba3e
00000080: 9a97 3fbe 78f2 84bd 5138 783d bcc9 913c
00000090: 0a51 8f3e 5f5f 88bc 28d0 d93e 8591 b0bd
000000a0: ae2d 143e 8667 12be 0896 143d e13c 943e
000000b0: 758a e9bd dd38 ebbd 6810 12bd e843 4fbe
000000c0: 8689 d4bd 3eee 04bb 6981 f1bc e37f 603e
000000d0: 8697 af3d ea47 323e 59bb 513e 6b59 8c3e
000000e0: de73 c73c b097 4cbd 545b 793e 0355 0d3d
000000f0: 99d4 39be db4f 693e 90a6 b93c f540 5dbe
00000100: 9ac7 0e3e 80bf 873e cb7b f03d 9d3f cbbe
00000110: 1314 a6be 8e70 07bf bfab 71be 840a a3be
00000120: 330f e1be ed0c 05bf 64b9 dfbe 4d73 b33e
00000130: 9912 fdbe b3f6 063d f732 c93e 7277 76be
00000140: ba53 b53d 4039 b1bd 201b 79bd 680a b93d
00000150: 7c36 193c da52 bb3d 95cc 063d 59c9 013e
00000160: d0e6 87bd 30f0 d43d 1452 b7bd 71ba acbc
00000170: 3e73 923e b8c5 45be 44ca 38be f6da 833e
00000180: fe15 6fbe e501 6dbe 1bd4 a23b 4a77 563d
00000190: e031 8f3e b765 fcbc 21ca e83e e4fe e4bd
000001a0: 938b f53d d012 0dbd 63a6 013e 812e 8a3e
000001b0: 4581 a93d a310 76be d5fc c5bd d623 aa3d
000001c0: e060 9ebe e712 cb3c 0c90 2f3c 8abb 843c
000001d0: 58b7 29bd f1c5 d43d 7b83 e93d a7ef 493e
000001e0: 65fb bc3d 08de f9bd 9529 2c3e e1fb 8b3e
000001f0: a67a 3bbe 1d91 073e 4fb2 833d e47f 33be
00000200: c5a1 b2bc c6c4 f7be 651c 82be f9ba 073e
00000210: 3c7f aa3e f674 293e 456b 413e 2f20 dd3e
00000220: 4640 0e3e 9825 c2bc 11f4 753c faa4 86bd
00000230: e108 943e 5f81 3cbd f699 5ebe 0a99 283e
00000240: f292 f0be 10c2 b8be 0db0 50be a4c3 cebd
00000250: 2f32 64be 25f3 ffbd d250 60be 5d08 a1be
00000260: a78e c1be 306c bbbe 0f82 183e 6960 a8be
00000270: 14c1 27be a9c1 903e 5d36 503e 6a78 07be
00000280: ecb3 463e 233d 0b3d 1186 14be 68ca 48be
00000290: 2f2d a9be 152c 45be 9ebf 64be 626b 153e
000002a0: 1d61 28be 084f d23d bbe9 1abe 5fb4 d8be
000002b0: 2275 ddbd 9cd2 ca3d 683f 8dbd b6aa 54be
000002c0: ff5a 8f3e 5070 34be 83bb 26be 9765 75be
000002d0: f6df 57be a34f a6be fab5 aebe 94b7 a3be
000002e0: 3690 e1be 7a58 483e a123 22bf 4d43 b0be
000002f0: e35e 8c3d dbaa a0be 2d6e b4be 7586 543e
00000300: 202f ef3d 226d 1f3e 7372 2f3e 661a dbbc
00000310: ce4d 0bbe 729a 58be 677b a9be e6d7 49be
00000320: 5c80 08bc 4175 3bbe 21bc e5bd c753 b73e
00000330: ef70 5fbe f98a c8bb c3e6 a73e ed8b bbbc
00000340: de22 333e ff3b 5a3e aa60 913d 56c4 d53b
00000350: 5f3c e93d 928f 2dbe 053b c63d cedd af3d
00000360: 9273 7b3e 4a10 923d 62a1 a4be 9ccf 553e
00000370: 8d3c 0a3e 424a 07be 6e1b 58be ffe8 963e
00000380: 16ed 82be b904 23be e5ae 083d 17f4 b13d
00000390: 875f 573e 1d0e 583d 3350 db3e f8fe c2bd
000003a0: f007 183e 1054 a8be 61ce d53d fef4 373e
000003b0: bd87 d83d e297 b0be 29f0 293d 566b bfbb
000003c0: 8b0c 63be 7578 913d fc70 f53d 30ad 863d
000003d0: 92ba 433c 07dc 723e 4a9d efbb 7cba 903d
000003e0: 8110 aa3d ca76 f9bd be5d a53e d28e 053e
000003f0: 4264 ebbd aa8e 843e f259 a73d 2ad6 eebd

fc3.bias f4 [64]
-0.084720835 -0.031675346 0.059196662 -0.023284862 -0.0249245 -0.00303357 -0.048674885 -0.069681615
0.025032243 -0.022440925 -0.05310668 -0.020427296 -0.0033555876 -0.004509367 0.0418522 -0.04187327
0.008925781 -0.028503805 -0.015458915 0.024972828 -0.04688777 -0.066305116 0.03519057 -0.019499784
-0.056314684 0.016942436 -0.021230912 0.04094552 0.001432146 -0.07932185 -0.02722976 0.08494689
-0.028445993 -0.092675105 -0.12628841 -0.0056937197 0.08452415 -0.06651506 0.093465656 -0.031991847
-0.02442486 -0.039283253 -0.09920051 -0.00763384 -0.081028365 0.03256658 -0.24890806 0.09184055
0.003300865 0.04748348 -0.14032306 -0.016858818 -0.060993083 0.13004792 -0.024822101 -0.01849938
-0.06065185 -0.027342275 -0.12675378 0.017656384 -0.011169807 -0.03358572 -0.008159043 -0.050116666
00000000: 1e82 adbd 02be 01bd 3378 723d e5bf bebc
00000010: 772e ccbc dcce 46bb 515f 47bd 3cb5 8ebd
00000020: 6b10 cd3c 08d6 b7bc 6486 59bd 2557 a7bc
00000030: 6be9 5bbb 50c3 93bb 366d 2b3d 4e83 2bbd
00000040: 703d 123c d080 e9bc 6447 7dbc d193 cc3c
00000050: 640d 40bd faca 87bd fd23 103d 03be 9fbc
00000060: 3aaa 66bd ddca 8a3c 73ec adbc 7db6 273d
00000070: d8b6 bb3a 7e73 a2bd f210 dfbc a3f8 ad3d
00000080: 9207 e9bc 72cc bdbd c051 01be 6292 babb
00000090: ff1a ad3d 0c39 88bd ec6a bf3d e209 03bd
000000a0: a516 c8bc 7ae7 20bd a329 cbbd 4b25 fabb
000000b0: 33f2 a5bd 8964 053d c1e1 7ebe e616 bc3d
000000c0: 5353 583b 0a7e 423d d9b0 0fbe 811b 8abc
000000d0: e2d3 79bd 482b 053e b857 cbbc 038c 97bc
000000e0: 136e 78bd e8fc dfbc becb 01be 1fa4 903c
000000f0: 9101 37bc 2e91 09bd 82ad 05bc 2247 4dbd

fc4.weight f4 [32, 64]
0.01736323 0.0675202 -0.15429093 0.082648866 -0.073803544 -0.33438507 -0.81495714 -0.084112234
-0.3028836 -0.10871484 0.07772338 -0.09228055 -0.47621012 -0.79907286 -0.22439726 -0.79789674
-0.46796444 0.037353653 -0.056328237 -0.10168129 0.06867487 -0.4931479 0.052464962 0.0034954548
0.09489382 -0.43419164 -0.12736647 -0.27789974 -0.080027856 0.041729596 0.030958436 0.036452755
-0.13648611 -0.034152135 0.015952902 -0.7573608 -0.054958053 -0.08416809 -0.07423292 -0.46996856
-0.10932579 -0.56900746 0.05530966 0.11909887 -0.46969837 -0.27761993 0.13744517 -0.17285241
-0.5366961 -0.30742165 -0.711588 0.049901407 0.107106164 -0.052626587 0.115998216 0.039491363
-0.068732955 0.14693584 0.054165676 -0.11005735 -0.09030118 0.10095998 -0.6144792 0.054050125
-0.19482614 -0.14303058 0.012929602 -0.027226206 -0.01300607 -0.07426887 0.04395495 -0.14712015
-0.07182798 -0.012408743 -0.13437626 -0.06740179 -0.11918624 -0.043072555 0.10471219 -0.08809296
-0.08325131 -0.050369322 0.005935195 -0.00039798248 0.030513676 0.012898874 -0.016348906 -0.01883673
-0.035656665 0.11644928 -0.020183302 -0.015842982 -0.092041016 -0.17143454 -0.073175065 -0.011573055
-0.007473255 -0.060346864 -0.20025247 0.02353327 -0.037305094 -0.054293152 -0.035771783 0.03390204
-0.015867678 -0.03424105 -0.12857623 0.030164052 -0.08387721 -0.010139833 -0.19483986 0.18427695
-0.08791325 0.019228293 0.06307764 -0.061095994 -0.00966873 0.09684614 -0.08869092 -0.03985344
-0.23382495 -0.09816508 -0.29713696 -0.0060087233 -0.0024752936 0.010145636 0.11400633 -0.052963506
-0.49457785 -0.3997649 -0.00075598626 -0.32029423 -0.1688985 0.052470308 0.087538764 -0.40884876
0.17093857 -0.45512572 -0.3186387 -0.20481054 0.14055623 0.07355483 -0.06916596 0.19137135
-0.16883567 -0.47763768 -0.29632884 -0.17166683 0.051426984 0.116215594 -0.07812551 -0.15004611
-0.59747803 -0.04826587 -0.20927113 -0.06633328 -0.27068046 -0.5265713 -0.5958809 -0.053466856
-0.3720763 -0.5861278 -0.5062811 0.10821765 0.029033238 -0.5889182 -0.1088899 0.18542042
-0.27813503 -0.02327168 -0.53367406 -0.13326232 -0.05303041 -0.09962209 0.09004938 0.023989182
-0.0056280713 -0.13414538 0.02781495 -0.30099574 -0.598713 0.03603768 -0.41936275 -0.4324185
-0.38230065 -0.2037237 -0.25071666 -0.15920143 -0.179111 -0.3035824 -0.012342921 -0.42396486
-0.5840612 -0.63411725 -0.037818935 -0.59488 -0.49723452 0.0654985 -0.0039326847 -0.8545047
0.07476419 -0.7981119 -0.43736026 -0.613665 0.10589897 -0.08145422 0.025988856 0.12698607
-0.004890574 -0.6967053 -0.44749916 -0.22636512 0.010612327 0.02624666 -0.31118855 -0.61491627
-0.94017094 0.016912358 -0.48853788 -0.13148099 -0.77366763 -0.4293885 -0.5743429 -0.05080554
-0.53253114 -0.68600315 -0.32249054 0.22841841 0.10299319 -0.7656934 -0.028324258 0.19612512
-0.45791093 0.043277677 -0.5578885 -0.48571068 0.16205646 0.11299457 0.07007086 0.1039547
0.029997427 -0.06505502 -0.050587095 -0.6688073 -0.7625044 -0.07226535 -0.5932635 -0.7842809
-0.57793653 -0.5408398 -0.32434645 -0.26837918 -0.49146357 -0.55326265 -0.14226604 -0.6978531
00000000: 553d 8e3c 0848 8a3d 71fe 1dbe cf43 a93d
00000010: 5026 97bd 8534 abbe 08a1 50bf 0943 acbd
00000020: 8f13 9bbe e3a5 debd 6f2d 9f3d 96fd bcbd
00000030: d0d1 f3be 0a90 4cbf 65c8 65be f642 4cbf
00000040: 0999 efbe 2500 193d 70b8 66bd 483e d0bd
00000050: 69a5 8c3d e27d fcbe 80e5 563d 0014 653b
00000060: b157 c23d 5e4e debe 5b6c 02be e048 8ebe
00000070: a5e5 a3bd a7ec 2a3d 8c9c fd3c 7c4f 153d
00000080: 04c3 0bbe 1ce3 0bbd a9af 823c 66e2 41bf
00000090: b21b 61bd 5260 acbd 6e07 98bd b89f f0be
000000a0: 33e6 dfbd 79aa 11bf 628c 623d 1cea f33d
000000b0: 4e7c f0be 3324 8ebe 6dbe 0c3e 3900 31be
000000c0: ea64 09bf 5f66 9dbe a22a 36bf 6b65 4c3d
000000d0: 7a5a db3d fa8e 57bd 7990 ed3d b2c1 213d
000000e0: ddc3 8cbd 5976 163e d4dc 5d3d bf65 e1bd
000000f0: d3ef b8bd 1bc4 ce3d 824e 1dbf aa63 5d3d
00000100: 8180 47be 9c76 12be aed6 533c 7e09 dfbc
00000110: 6917 55bc 471a 98bd 1b0a 343d aaa6 16be
00000120: 8c1a 93bd 0a4e 4bbc ee99 09be f309 8abd
00000130: ea17 f4bd d96c 30bd 5873 d63d 156a b4bd
00000140: aa7f aabd 1050 4ebd 067c c23b 4ea8 d0b9
00000150: d1f7 f93c cc55 533c 24ee 85bc 7c4f 9abc
00000160: b90c 12bd f67c ee3d 7457 a5bc 24c9 81bc
00000170: 0080 bcbd 898c 2fbe cfdc 95bd e99c 3dbc
00000180: 35e2 f4bb 462e 77bd fc0e 4dbe d8c8 c03c
00000190: 3acd 18bd 7f62 5ebd 6f85 12bd dedc 0a3d
000001a0: effc 81bc 5840 0cbd 7da9 03be 9a1a f73c
000001b0: d1c7 abbd 8b21 26bc 1a84 47be 19b3 3c3e
000001c0: dd0b b4bd a784 9d3c da2e 813d cb3f 7abd
000001d0: 9869 1ebc 4557 c63d 96a3 b5bd 5c3d 23bd
000001e0: cf6f 6fbe c60a c9bd 5622 98be d3e4 c4bb
000001f0: 8938 22bb e239 263c 277c e93d 43f0 58bd
00000200: 4f39 fdbe fcad ccbe 612d 46ba 9bfd a3be
00000210: baf3 2cbe 1beb 563d 8647 b33d a054 d1be
00000220: 850a 2f3e 3d06 e9be 9d24 a3be dbb9 51be
00000230: f9ed 0f3e eaa3 963d e2a6 8dbd daf6 433e
00000240: 42e3 2cbe ed8c f4be 6ab8 97be 6ec9 2fbe
00000250: 1aa5 523d 7102 ee3d 4400 a0bd b0a5 19be
00000260: 52f4 18bf 6fb2 45bd 2c4b 56be bed9 87bd
00000270: a196 8abe 60cd 06bf a78b 18bf 1000 5bbd
00000280: c980 bebe 790c 16bf a39b 01bf 37a1 dd3d
00000290: 1dd7 ed3c 58c3 16bf ab01 dfbd dade 3d3e
000002a0: b767 8ebe 40a4 bebc dd9e 08bf eb75 08be
000002b0: 6a36 59bd ab06 ccbd cf6b b83d f684 c43c
000002c0: af6b b8bb 685d 09be 2edc e33c 1d1c 9abe
000002d0: 4145 19bf 3f9c 133d b7b6 d6be f565 ddbe
000002e0: e9bc c3be f29c 50be ef5d 80be b305 23be
000002f0: e068 37be 276f 9bbe f739 4abc ec11 d9be
00000300: 0985 15bf 8255 22bf 07e8 1abd 0e4a 18bf
00000310: 8695 febe 1424 863d c0dd 80bb d2c0 5abf
00000320: f81d 993d 1051 4cbf afed dfbe 2619 1dbf
00000330: 8fe1 d83d 78d1 a6bd 95e6 d43c a308 023e
00000340: 1c41 a0bb 475b 32bf 9c1e e5be 42cc 67be
00000350: 53df 2d3c 3c03 d73c 1b54 9fbe 276b 1dbf
00000360: 0baf 70bf c98b 8a3c a321 fabe f4a2 06be
00000370: 150f 46bf cfd8 dbbe 2308 13bf 7819 50bd
00000380: f653 08bf e79d 2fbf 7b1d a5be 84e6 693e
00000390: 18ee d23d 7c04 44bf 4608 e8bc 06d5 483e
000003a0: 4d73 eabe ef43 313d c8d1 0ebf 12af f8be
000003b0: 21f2 253e b269 e73d 5081 8f3d 34e6 d43d
000003c0: 2abd f53c 913b 85bd 6a34 4fbd f536 2bbf
000003d0: 7d33 43bf dbff 93bd 1ee0 17bf a2c6 48bf
000003e0: a6f3 13bf 7a74 0abf bd10 a6be ff68 89be
000003f0: 1da1 fbbe 9fa2 0dbf 30ae 11be 80a6 32bf

fc4.bias f4 [32]
0.4807615 0.6023646 0.38010415 0.28547278 0.49844036 0.33654588 0.49315858 0.7344653
0.57209426 0.16764562 0.29272336 0.3055776 0.27525175 0.39851567 0.12589827 -1.2827724
0.7255326 0.569446 0.4677221 0.4174605 0.3792288 0.5406221 -0.5599549 0.5153876
0.6406772 -0.682105 -0.03630017 0.38505414 0.7039366 0.49741542 0.57981396 0.28323516
00000000: 5f26 f63e 9134 1a3f 039d c23e 7d29 923e
00000010: 9333 ff3e be4f ac3e 487f fc3e eb05 3c3f
00000020: c574 123f 4bab 2b3e d6df 953e ab74 9c3e
00000030: cced 8c3e 3f0a cc3e 7aeb 003e e331 a4bf
00000040: 81bc 393f 37c7 113f 4579 ef3e 62bd d53e
00000050: 472a c23e 3666 0a3f 3459 0fbf 71f0 033f
00000060: 6c03 243f 6f9e 2ebf 7daf 14bd d125 c53e
00000070: 3035 343f 3cad fe3e b06e 143f 3304 913e

fc5.weight f4 [1, 32]
-0.08163303 0.39321443 0.5290627 0.1551017 -0.15520968 0.18779294 0.42070535 -0.281279
-0.12296233 0.60317004 -0.2224949 0.14812744 0.17850284 0.27559373 0.5617688 0.52257186
-0.19907036 -0.23120138 -0.17924787 -0.12079548 0.21406515 -0.2033611 0.05301231 -0.2729859
-0.23621401 0.21413848 0.715178 0.1656939 -0.24532206 0.31828913 0.4061787 0.13175865
00000000: 382f a7bd 6753 c93e a770 073f fbd2 1e3e
00000010: 49ef 1ebe cb4c 403e b166 d73e cd03 90be
00000020: add3 fbbd 5a69 1a3f b4d5 63be b8ae 173e
00000030: 73c9 363e 9f1a 8d3e 14d0 0f3f 45c7 053f
00000040: 1ad9 4bbe 0ec0 6cbe c18c 37be 9f63 f7bd
00000050: e533 5b3e e43d 50be 7023 593d cfc4 8bbe
00000060: 16e2 71be 1e47 5b3e e815 373f a9ab 293e
00000070: b535 7bbe cbf6 a23e a8f6 cf3e bdeb 063e
